models/policy_m3.pt (torch_old, 99515 bytes, 6 tensors)

fc.0.weight f4 [128, 110]
00000000: 8f40 1fbd 80fb 4e3b 4da2 08be c6dd 26bb
00000010: 014f dcbd 9cc0 4e3e d23b 62be ee3f 9cbe
00000020: 2105 ebbd 0b11 273e 44a1 cc3c fb08 223e
00000030: 17bb f7bd 109b 86bd 8cec 823d 4049 973c
00000040: 5004 94bd b4da 2c3e 3ca4 d73d 0add 0d3e
00000050: ed90 bd3e 5c5f 043e bb89 d93d 9d68 af3e
00000060: d590 44bd 7738 323d d17b d43b ee57 f639
00000070: 88a6 623d 0f59 1b3b ec13 603e e3e6 493e
00000080: a1b7 713e 25ab 093d 1d49 663e ffc3 413d
00000090: 08ce 95bd 1c7a 3e3c 0112 e83d d9b0 363e
000000a0: 1a49 ab3d 614f 763d 6a20 323e f2a4 7c3d
000000b0: b8cd 9d3d 3dcc bcbc aa63 7a3d cf25 563d
000000c0: e81d 2a3e f281 b73d 9c2d 0c3e cb18 e83d
000000d0: 9725 da3d cb02 b83d 42d5 8d3e 4425 7abe
000000e0: 9c0f 81be 888a ce3d ed8f 95bd e72d 3ebe
000000f0: 1c4d 35bd 3dad 453b f762 7dbe 7a2e 74be
00000100: 9455 b4bb 6b28 1a3d 28b9 6dbd d812 6a3e
00000110: 0241 5b3d 4830 c03c 595c 29bd 3515 993d
00000120: a5bc 06be c6bd 8bbc 23c2 1bbd 25b2 373e
00000130: 9774 d33b 46e8 f0bd 3257 4bbe c2c4 113d
00000140: 66e1 293c 935d 943d a7e2 c6bc 6443 86bd
00000150: cab5 0a3d 7621 2e3d 4a87 e7bd 00fb 8a3d
00000160: 44b5 9c3d d874 eaba f19f f2bc 8e0d 3e3e
00000170: 3e8c c03d 9da0 12bc f4ab b9bd 9a46 4b3d
00000180: c5bb 1a3e 076f 95bd 36c1 b23d 3fbc 0bbe
00000190: 24b3 0b3d 73ef 6bbd 2b03 b9bd 705c cebd
000001a0: f325 82bd b573 00be a451 c0bc 51d2 873d
000001b0: 8db6 fa3d 424a 163e 669c 8a3d 2e22 48bd
000001c0: 09a4 463e 0fed 733e f856 833d fc07 7dbe
000001d0: a5a5 e0be 3d7b 01be 2bce a1bd 0990 8b3d
000001e0: 9c0a d3bb 035d 793e 7c44 063e 2be6 c7bd
000001f0: a57c ba3d 5b1b 6bbd 681c c53d e745 623e
00000200: e167 303d d118 f43a eb49 b8bd c732 e23a
00000210: 4609 d43d 3a23 08bd 9780 24bd e85d 48be
00000220: 0525 8abd 0c56 983c 3c95 b83d d85c cc3c
00000230: 10ab 773e ad3e 1b3c 4d19 c93c 4b0a dd3d
00000240: 7417 b03d b17a a6bd a974 233d 6900 7fbd
00000250: b120 21be 300b 3cbe 375b 993c 5126 25bd
00000260: b006 1a3e 0e8f 2a3d 989f c23d 08b1 893d
00000270: 1fba 933d 4637 b93d 27af a4bd 454a 0cbd
00000280: 8438 a63c 9e5d 933d 0350 323b d4d4 aa3d
00000290: beb2 763e d0db 2abc e7bf 89bd 604f a93d
000002a0: f8c4 213d da55 4f3e 176c 8e3d 1ad0 96bc
000002b0: 3ff7 ed3d cfc5 73bd 17ee 89bc be0c 2ebd
000002c0: 96a3 b9bd f575 023e fb32 c03e cfcf 1ebd
000002d0: 5e91 55be be22 75bb 4d82 28be e1f3 be3d
000002e0: 05e5 d7bd 135a 813d 46e1 2f3d 5ee5 c23d
000002f0: 6600 c03d 1eae 233e f2b1 44bd e26d fe3c
00000300: ddef 9b3d ef9d 083e f36a cd3c 259b d5bc
00000310: 9304 133e c0a6 e53d bbc4 383e 023e 7f3d
00000320: 5189 503e a5a6 8f3d 9f94 a03d a531 6cbd
00000330: 4e9d 4dbc c89c 183e 4c6a 6a3c 39bc 99bc
00000340: ecf8 3f3e e5ff be3c 9359 df3d 0069 1a3d
00000350: 83dc ae3d 964a a6bd 8659 993c ecbf d5bd
00000360: 4dcc 3d3d f319 27be 3019 843d 5e00 afbc
00000370: e51c 9dbd 0afd 8dbd 0d5a b63c 93b3 4bbd
00000380: 0382 69bc a088 71bd 9c68 cbbd 1a17 27be
00000390: faa3 a5bb c4c8 fbbd 90af 213e f2ce f1bc
000003a0: 3aeb a3bd 0f03 dcba 5030 a33d 940e 14bd
000003b0: 3e7e b63d c5b5 a73d f5d9 24be 67af b43d
000003c0: fbae 463e 4db1 f83c 7018 5bbc 6581 68bc
000003d0: 8591 8b3d b859 993d b00c 0fbe 9786 e5bd
000003e0: 93d2 bd3d b5df ef3d d96a 933e 7539 ca3d
000003f0: 9b84 0e3e 5130 52bd 350b bd3d 16e0 e4bc
-0.038879927 0.003158301 -0.13343163 -0.0025461777 -0.10757256 0.20190662 -0.22093132 -0.30517524
-0.11475588 0.16315095 0.024979241 0.15823738 -0.120962314 -0.065725446 0.06392774 0.018467546
-0.07227385 0.16880304 0.10529372 0.13853851 0.37024632 0.12927002 0.10621973 0.342595
-0.047989685 0.04351088 0.0064844866 0.0004698629 0.055334598 0.0023704206 0.218826 0.19716983
0.23605205 0.03361048 0.22488828 0.047306057 -0.07314688 0.011625793 0.11331559 0.178409
0.083635524 0.060134295 0.17395177 0.06168074 0.07705253 -0.023046607 0.061130203 0.05228215
0.16612971 0.08960332 0.13689274 0.11332854 0.10651701 0.08984908 0.27701765 -0.24428278
-0.25207222 0.100850165 -0.07302842 -0.18572198 -0.04426299 0.0030163073 -0.24744783 -0.23845854
-0.005503366 0.0376362 -0.058037907 0.22858751 0.053528793 0.023460522 -0.041347835 0.07474748
-0.131579 -0.017058264 -0.03802694 0.1793905 0.0064531076 -0.11763053 -0.19857481 0.035588033
0.010368681 0.0724441 -0.024277998 -0.065558225 0.033864774 0.04251238 -0.11305101 0.06786156
0.07651761 -0.0017887605 -0.029617282 0.18559858 0.09401749 -0.008949426 -0.090660006 0.049627878
0.15110691 -0.072965674 0.08728258 -0.13646029 0.03410639 -0.057601403 -0.09033807 -0.10076225
-0.063548945 -0.12544139 -0.02347643 0.066319115 0.1224185 0.14676765 0.06768112 -0.04886072
0.19398512 0.238209 0.06413072 -0.24710077 -0.43876377 -0.12644668 -0.079006515 0.06814582
-0.0064404737 0.24351887 0.13112062 -0.09760698 0.09105805 -0.057399135 0.09624559 0.22096978
0.043067817 0.0018623119 -0.08998474 0.0017257564 0.10353331 -0.03323672 -0.040161695 -0.19567072
-0.06745342 0.018595718 0.09012839 0.024946615 0.24186349 0.009475392 0.024548197 0.10792979
0.08598223 -0.0812887 0.039906178 -0.06225625 -0.15735127 -0.18363643 0.018720252 -0.040319744
0.15041614 0.041640334 0.09503096 0.06723219 0.07213234 0.09043746 -0.0804122 -0.034250516
0.02029062 0.071955904 0.0027208335 0.08341375 0.24091622 -0.010428384 -0.067260556 0.08267093
0.039494485 0.20247594 0.0695421 -0.018409777 0.11619424 -0.059514817 -0.016837163 -0.04249262
-0.09064405 0.1274031 0.37538895 -0.0387724 -0.20856234 -0.003740474 -0.16455956 0.0932386
-0.10541729 0.063160084 0.042939447 0.095164046 0.09375076 0.15984389 -0.048021264 0.031058256
0.0761411 0.13341497 0.025075411 -0.026074955 0.14357214 0.11213446 0.18043797 0.062314995
0.20364882 0.07014207 0.07840847 -0.057664532 -0.012549711 0.14903557 0.01430757 -0.01876651
0.187473 0.02331538 0.10905757 0.037697792 0.08538153 -0.08119695 0.018719446 -0.10436997
0.046337415 -0.16318493 0.06450117 -0.02136248 -0.07671527 -0.06933029 0.022259736 -0.049731802
-0.014252189 -0.058968186 -0.09932062 -0.16317406 -0.005054948 -0.122941524 0.15789628 -0.029517625
-0.0800385 -0.001678558 0.07968199 -0.036146715 0.089107975 0.08188967 -0.16098769 0.08822518
0.19402687 0.030357981 -0.013372526 -0.014191006 0.06814865 0.074878156 -0.13969684 -0.112073116
0.092686795 0.117125906 0.28792456 0.0987424 0.13917772 -0.05131561 0.09230653 -0.027938884

fc.0.bias f4 [128]
00000000: ec16 c7bd 0a0a 813a cae7 39be 383e 33be
00000010: 78e0 8dbd f4c6 ee3c da5a dd3d f3ea 1b3d
00000020: 7bb4 2a3d 1326 e43d 19fc e6bd 5773 3cbc
00000030: a549 6abd 3487 193d 2e25 c93d 16f7 f7bd
00000040: 9ab6 083c 007d 0cbe 8b78 7cbd b4c8 823d
00000050: a7ee 0e3e 7db9 053d 04a2 43be 567f 233e
00000060: 0988 4dbc 7fb3 1ebe fbe3 343d 43cd 2a3d
00000070: e856 4b3d 5c17 0a3e 6a84 01be c24a 71be
00000080: 15c4 4a3d 4930 4abe ba51 153c 382e 13bd
00000090: 8cc7 ad3d 5af9 8dbe 2c07 01be 2d8c d8bb
000000a0: d1e1 9cbd 4551 a23d 9295 ff3d 529c b3bd
000000b0: e1cf d4ba 2054 d13d 16b5 ea3d c37c 5c3d
000000c0: e758 383d 74d4 1fbc d580 abbd bf9e 943c
000000d0: a06e 7d3e 69fe 653e 069a a63d a83a 12be
000000e0: 7b0c be3d 3ce7 19be 8251 723d c339 dcb9
000000f0: 10ec 95bc 4837 fbbb 3f53 643d 0bf4 473d
00000100: 8e83 a7bd 7130 373c 2275 f23d 0fac 933d
00000110: aafa 1cbe eb59 a0bd 6495 8bbd 4833 a1bc
00000120: ff2b 863b 6211 36be 6084 bebd 2608 d13c
00000130: 50ec f0bd 2429 cfb9 d2ac 0bbd 29d4 b83d
00000140: fe72 01be d28c ad3d 2a8b 88bd 5f68 8dbc
00000150: 1802 5cbe 85fd e83d 805f 283e a664 6cbd
00000160: 7b1e 92bd 4f16 09bd 3813 12be 2501 bc3d
00000170: a85c a9bd ba90 b5bd d2ba 093e 60c8 5abd
00000180: b6f9 0bbd c175 84bd 2a4c 133d c8a9 f33c
00000190: d82b 15be b11d 4f3e 0b2c 38bd cc0b 263e
000001a0: 7094 6fbd 203a 803d 8d0e e3bd 6283 ed3d
000001b0: eb06 0abe da55 b53c 658f 0ebe e36e 973d
000001c0: 6e6f f7bd c5b7 d03d e335 243c 3495 0dbe
000001d0: 1e12 d23d c417 53be f4e6 84bd e8cb c1bd
000001e0: 5895 6a3e 6347 ffbd 3b8f d5bd 11ae c9bd
000001f0: 5301 fe3d 3544 bbbc 6f1d 243a 47a0 e03d
-0.09721169 0.0009844911 -0.18154827 -0.17504203 -0.0692758 0.029147603 0.10808344 0.038065862
0.041676026 0.111400746 -0.112785526 -0.011502109 -0.05719914 0.037482455 0.098215446 -0.12107675
0.008344317 -0.13719559 -0.061638396 0.06385937 0.13958226 0.0326476 -0.19104773 0.15966544
-0.01254464 -0.1549816 0.04416273 0.04169966 0.049643427 0.13485473 -0.12648168 -0.23563674
0.049503405 -0.19744982 0.009113723 -0.03593275 0.08485326 -0.27729303 -0.12600392 -0.006608507
-0.076602586 0.07925657 0.124797 -0.0877005 -0.0016236269 0.10221124 0.11460321 0.05382992
0.04500666 -0.009755243 -0.08374182 0.018142102 0.24749231 0.22460331 0.081348464 -0.14280188
0.09279724 -0.15029615 0.059159763 -0.00042004706 -0.01830104 -0.007666502 0.055743452 0.048816722
-0.08179389 0.011180983 0.118387476 0.07210552 -0.15329996 -0.078296505 -0.068156034 -0.019677773
0.0040946 -0.17780069 -0.09302592 0.02551658 -0.11763823 -0.0003951277 -0.03410036 0.09024841
-0.12641522 0.08474125 -0.066671684 -0.017261682 -0.21485174 0.1137648 0.1644268 -0.057713173
-0.0713472 -0.03346854 -0.14265144 0.09179906 -0.08269626 -0.08865495 0.13450173 -0.05341375
-0.03417369 -0.06467772 0.035961308 0.029744044 -0.14567506 0.2022617 -0.044963878 0.16215438
-0.05849117 0.062610865 -0.1108676 0.11597325 -0.13479201 0.022135664 -0.13921888 0.07394197
-0.120818004 0.10191301 0.010022613 -0.13826448 0.10257362 -0.20614535 -0.06489363 -0.0946272
0.22908533 -0.12464788 -0.1042771 -0.09847654 0.12402596 -0.022859672 0.00062604895 0.109680705

fc.2.weight f4 [64, 128]
00000000: c39d 3d3e 2c79 0cbc 63c7 fe3a 74b3 c93d
00000010: 9714 073f a4fe 45bd 1216 963e a64c 8fbd
00000020: d630 343e 4ffb d3be 6138 c03e dc8a e4be
00000030: 6d7c 16be d8e1 933c 13b8 b53e 9169 24be
00000040: 0c87 b73d 8a4d dbbd fc67 233e 1fcc 9cbd
00000050: e1e7 2ebe 9888 b83e b326 4abc 0ad6 89be
00000060: e9df 913d 5b23 613e a370 62be 145d d93d
00000070: 19fd 283d a989 653e c53d 8bbe 2f86 303e
00000080: 03f4 e5bc b89f 633e aef3 afbd b757 133e
00000090: 6ab3 2abe 1732 4e3e f689 a1be 6fe2 08be
000000a0: 1162 213e 341b b83e aa41 643d 536b 83bd
000000b0: 4c54 b0be 34b9 b3be 52c1 2fbe 6e16 6abd
000000c0: 9b28 3cbe cae7 863e bbd6 e03d 5c11 883e
000000d0: 03af 2cbe 42a8 c1bc 896f 363d a7c8 363e
000000e0: 5918 dc3d f990 8b3e e243 1bbd c7a4 d93d
000000f0: ce3b 473e b226 d5bd 4200 ccbc dbcd fabe
00000100: 8dd3 0f3d 5c5e 353c 99f9 dbbd aa0f 3f3e
00000110: bff3 873e af3b 793d a250 c83e 3f9c 02be
00000120: d62a f63d 8a1b fabd 56f2 29be e306 19bd
00000130: c1c7 10be 2db7 adbd ab7b 72bd a203 e1bd
00000140: e1c9 89ba 44f5 b53d f43e 89be 6b8a d63d
00000150: d0c0 f63e eab4 b0be ac07 953c f913 3d3d
00000160: 9252 443d 23a7 be3d ab28 363e acf3 89bc
00000170: 66d7 863e 2ff9 853e 348c fdba 06ee 173d
00000180: 6d33 3b3d 2dea f43d d17b f33d 9406 053f
00000190: c452 cdbd c8f6 85be 20a4 0cbe 6d60 8dbd
000001a0: 0394 973e ae18 6ebe 4a93 7e3d e793 8b3e
000001b0: 122b 703d 26e4 38be 06e3 1e3e 8546 9a3c
000001c0: 389e bc3d bcb1 5abe a1e0 e5bc d407 963d
000001d0: 6edb 9bbe df79 573e 6fde 823e e430 8a3e
000001e0: aa7a a6bd 5944 3e3e dc42 1cb8 9e24 a93d
000001f0: 49b1 43bd 0d36 a53e 8f63 cdbe 8749 b5be
00000200: 5780 f6be 1f97 e43d 94bf 423d 9ac5 a13d
00000210: d960 133e 2a77 343e 610d c33d 7000 84be
00000220: fe6a 9cbe 23d9 87be 2f0a d13d 965b b0be
00000230: 958a d2be be1a 05bf 826f 4a3c 6bd7 4dbe
00000240: ed45 9e3e e5be 623c da1c 043f 9b8b 5fbe
00000250: c96a 983e 82c2 f03d 2c6c 3c3e 10f9 16be
00000260: 71eb f53d 4812 13bd ac2c d3bc 70cf 743e
00000270: c431 49be 3343 9c3e d047 b0be 0fd7 1aba
00000280: f81f 623e b976 923e 6931 353e 4643 9c3e
00000290: ae31 6dbe c59e debc afbb 15bf ccec 4e3e
000002a0: 2fcc 163e add4 e6ba 0565 7fbe 58d8 803d
000002b0: 3aea 17bf 73e2 de3e c57d a33c a38f 41be
000002c0: 4862 ddbd bed4 a63d 3db9 60be 5e93 85be
000002d0: af42 ccbd d8ce 5abe a276 0f3e 20f0 fb3c
000002e0: 126e 15bd 7e13 fe3d 2eeb f9bd 1ed9 943e
000002f0: 1a44 eebd 01cd 0d3e c25b 39be 3ebb f4bc
00000300: dd1e 82be 6ae2 d03d 0b2b e23d 1488 a1bd
00000310: 573a 3c3e 3a04 bebe 7d2e 953e 44af 593e
00000320: 1078 1e3f 74e1 8c3e c043 45bf 00d3 00bf
00000330: 098d 123e 7e91 b7be 0888 443e d20f f43d
00000340: f4af 20bc 1611 bdbd d53b 3dbe 17a0 89be
00000350: a784 cd3e f696 f1bd 414b ad3e 15b3 083e
00000360: ed00 2ebc 3829 f73e 724c 773d b6f1 4abe
00000370: ac13 333e f0e9 a13e fc9a c13e eadc 28be
00000380: 4e78 24be c4d1 883e 3969 85bc c2a6 553e
00000390: df89 373e c6cc edbd 9650 f03e 7186 bdbd
000003a0: 4922 323e 99fb b33d 74a0 7e3a d2be d33e
000003b0: 3993 6bbd 5f51 86bc c863 553d e948 a9ba
000003c0: 28c7 fc3d 2354 53be 66eb f7be 65e0 99be
000003d0: 9a10 7ebe a895 373e 083a 233e f14f d93e
000003e0: b3fb 9b3d c04e d2bd b463 033e 4c1e 213f
000003f0: edd7 bebd 41cb 8e3d 7809 353e a46c f2be
0.18517213 -0.0085738115 0.0019438084 0.09848681 0.5276579 -0.048338547 0.29313713 -0.069970414
0.17596754 -0.4140267 0.37543014 -0.4463719 -0.14695902 0.018052027 0.35492 -0.16055895
0.08961305 -0.10708149 0.15957636 -0.076561205 -0.17080642 0.36041713 -0.012338328 -0.2692111
0.071227856 0.21986143 -0.2211328 0.10613456 0.041256998 0.22415794 -0.27195564 0.17238687
-0.028070455 0.22228897 -0.085914 0.1438893 -0.16670004 0.20136295 -0.31550568 -0.13367628
0.15760066 0.35958254 0.055726685 -0.06416955 -0.34439313 -0.35102236 -0.1716359 -0.057150297
-0.18374865 0.26348716 0.109784566 0.26575744 -0.16863637 -0.023639802 0.044539962 0.1784998
0.107468314 0.27259043 -0.037906535 0.10627132 0.19456407 -0.10407771 -0.024902467 -0.4898518
0.03511386 0.01106986 -0.10740966 0.18658319 0.2655315 0.060847934 0.39124018 -0.12754916
0.12019889 -0.12212284 -0.1659635 -0.037360083 -0.141387 -0.08482204 -0.05919997 -0.10987021
-0.0010512435 0.08884671 -0.26805842 0.1047562 0.4819398 -0.34513026 0.018192135 0.046161626
0.047930308 0.093092225 0.17788951 -0.016839825 0.2633621 0.26166674 -0.0019344152 0.03709223
0.04570334 0.11958728 0.118888505 0.5196316 -0.10025552 -0.26164842 -0.13734484 -0.069031574
0.2960511 -0.23251602 0.062152185 0.27261278 0.058634825 -0.18055782 0.1551629 0.018832454
0.09209865 -0.21356863 -0.028061213 0.07325712 -0.3044085 0.21042584 0.25560328 0.26990426
-0.08128865 0.1858076 -3.7255566e-05 0.08258937 -0.047776494 0.322678 -0.4011502 -0.3540766
-0.4814479 0.111616366 0.047545984 0.07899018 0.14392413 0.17623582 0.09524036 -0.25781584
-0.3055038 -0.2653285 0.102070205 -0.34444875 -0.41121355 -0.5199393 0.012355687 -0.20101707
0.30912724 0.013839458 0.51606524 -0.21830599 0.2976897 0.117558494 0.1840064 -0.14743447
0.120077975 -0.035906106 -0.025778137 0.23907256 -0.1964789 0.3052002 -0.3442979 -0.000590668
0.22082508 0.28606203 0.1769463 0.30520076 -0.23163483 -0.027175317 -0.5848951 0.20207518
0.14726327 -0.001761099 -0.2494088 0.06291264 -0.59341776 0.43532142 0.019957433 -0.1890245
-0.10809761 0.08146046 -0.21945663 -0.26088995 -0.099736564 -0.21367967 0.14010099 0.030754149
-0.036481924 0.124060616 -0.1220306 0.29071897 -0.11634083 0.13847734 -0.18101409 -0.02987444
-0.25414172 0.10199435 0.11043366 -0.07887283 0.1838163 -0.371126 0.2913703 0.21258265
0.6190195 0.27515757 -0.77056503 -0.5032196 0.14311613 -0.3585319 0.19192517 0.1191708
-0.0098075755 -0.092317745 -0.18479855 -0.2687995 0.40140268 -0.11796372 0.33846477 0.13349564
-0.010620338 0.48273635 0.06037564 -0.19818768 0.17487973 0.31623793 0.37813556 -0.16490522
-0.16061518 0.26722538 -0.016285526 0.20864394 0.17923687 -0.11611323 0.46936482 -0.09254158
0.17395891 0.08788223 0.00097132404 0.41356522 -0.05751345 -0.016396223 0.052097112 -0.0012915406
0.123426735 -0.20637564 -0.48421782 -0.30054012 -0.2481102 0.17928183 0.15940106 0.42443803
0.07616367 -0.102689266 0.12831002 0.62936854 -0.09318528 0.06972361 0.17679393 -0.4734851

fc.2.bias f4 [64]
00000000: 42c2 73be 8ae4 363d 1632 71bd 017a d93d
00000010: d175 793d bff3 af3c 27a0 cebd 7076 75bd
00000020: ede0 c1bd 5ece bc3b dea9 0a3e 6935 8b3d
00000030: 9e3e babd efc2 443e b2f6 2abd b4b7 43be
00000040: 67a2 473d f786 4e3e 51f3 26be 2127 1a3e
00000050: 6876 bb3e b6f5 41bd 47db 5f3c 7e0f 87bc
00000060: 4c53 10bb 9d98 35be f013 6d3c 8f24 27be
00000070: 13dd 1ebd bd99 103d 3e23 2c3d abf9 78bc
00000080: 451b 023d 588e 74bd cb9c 14bd 8094 6f3d
00000090: 78f7 8c3a 97ce babb 3820 76bd 3453 ccbd
000000a0: 6f97 a7be 6e76 1dbe d2f2 fcbc 3028 7a3b
000000b0: 6602 d2bd 48b3 0d3e 1945 1ebe 4c0a 1c3d
000000c0: fe60 5dbe 74a4 733d 99d4 20be 989d b73c
000000d0: 09bb fe3d 23cc 71be 3532 02be aa0d ac3d
000000e0: 2ebb 8cbd 7c98 6c3e 4c00 8abd 53e9 59bd
000000f0: 7d3b 9d3b 578d fc3d dcce 2a3e ce8f dabd
-0.23804572 0.044651546 -0.058885656 0.106189735 0.060903374 0.021478532 -0.100891404 -0.059927404
-0.09466729 0.0057619056 0.13541362 0.067972966 -0.090939745 0.19214986 -0.041739173 -0.19113046
0.048738863 0.20168673 -0.16303755 0.15053989 0.36613774 -0.04735347 0.01366312 -0.01648688
-0.0022022305 -0.17733999 0.0144700855 -0.1632254 -0.03878505 0.035302866 0.042025797 -0.015196244
0.031764288 -0.059706062 -0.036282342 0.05849123 0.0010754904 -0.005700897 -0.06008932 -0.09976807
-0.32732722 -0.15377209 -0.030877504 0.0038170926 -0.10254364 0.13837922 -0.15456046 0.038095757
-0.21619031 0.059483007 -0.157061 0.022414014 0.12438018 -0.23613028 -0.12714465 0.08401044
-0.06871639 0.23105043 -0.06738338 -0.05320103 0.0047983513 0.12331646 0.16680473 -0.1067196

fc.4.weight f4 [33, 64]
00000000: 5a75 f6bd 2815 de3c d4c6 8bbd 9c0e 53bd
00000010: 8081 263c 6aee d73d a861 11bd 96c0 e9bd
00000020: 38c4 47bd fc89 0abd d806 e33c c8d3 823c
00000030: 8453 ddbd 7c77 06bd 44f1 2bbd 62fc de3d
00000040: 6004 b9bd 520c 9e3d 9818 4fbd ee72 ba3d
00000050: 84a9 17bd 00bb 3c3a ecfd dd3d 38b9 803d
00000060: a00b 99bd ba38 9ebd a2b8 983d ca12 993d
00000070: d02f 273c 00f2 b7ba d4da 453d 209f e0bc
00000080: e899 573d bc93 713d eeb0 bf3d 20c1 c93d
00000090: f22b b33d f25e f63d a03d a2bb 40c6 f63c
000000a0: bcac 4abd 4002 f5bb 804a 6ebc ec3c e43d
000000b0: a0a9 d33c 1069 a23d 407f 243d 50ae 5ebd
000000c0: 28b4 f7bd a203 b6bd dc1c 913d 209e dd3b
000000d0: ec6b 1d3d 4851 96bd 6a8b 9e3d e05f b13c
000000e0: b2f7 b53d 3ad4 b03d a248 82bd 7830 383d
000000f0: 26b4 bbbd ae44 fdbd e0b1 6cbc 42a8 febd
00000100: e00b 353d b245 f63d 5acf 9cbd 741b b43d
00000110: 6872 123d 10b1 583c cc31 603d b6b7 f13d
00000120: e2e7 cdbd 0800 0c3d be52 c3bd 5e30 bf3d
00000130: f8ab 0bbd befc a13d 9806 84bc 6812 b83c
00000140: b4db 24bd f0f3 503c c450 1abd 78bf a23c
00000150: 38ef 533d 4897 8bbd c8db c9bd d05a 63bd
00000160: 82ba dcbd 9e88 ddbd 6661 f03d 42b4 8bbd
00000170: c015 9dbd fe7c f7bd 5c9c febd 8c74 15bd
00000180: 1459 883d b0df ad3c 2ea6 df3d 2443 50bd
00000190: 3090 db3d 3087 0f3c e086 983d 9082 bf3c
000001a0: 28d2 95bc 4061 513d 843e 803d 24ef babd
000001b0: 40f6 913b d61a eabd 44c4 a83d 80ea 823a
000001c0: 00c1 033c d817 8bbd f45f 51bd ec08 ba3d
000001d0: 5cc0 aa3d ea20 913d c2be ba3d 2c00 f2bd
000001e0: 64af 2ebd 0cd6 2b3d 4cc0 213d 5481 32bd
000001f0: 385c b83c 30ba f0bd 4641 a4bd cc0a d3bd
00000200: e000 173d 3cc5 3ebd 802c c23a 7e71 febd
00000210: b09f cbbc 002f 57bb 183d fbbc 88ff 81bc
00000220: fce4 5abd b4c8 e13d 5003 713c 9630 bf3d
00000230: d00d 48bd cc22 f83d 0087 053d ec67 0a3d
00000240: 30a8 05bd 009b 5d3d 181a 0b3d 10fc 8cbc
00000250: e05f 8abc ee8a eabd 14ed c5bd 8423 61bd
00000260: d0d4 a53d 4a56 ba3d 6c68 243d 6809 9dbd
00000270: 9ca7 a1bd 000a e8b9 3808 4e3d d0c0 5cbd
00000280: 58d3 413d 44a0 b3bd f4e1 213d c0d3 96bd
00000290: a086 afbc 3a9c ccbd 5043 1b3c bac5 e03d
000002a0: 9e81 fdbd 281b 663d a405 e93d 484b 32bd
000002b0: c878 31bd 1e5f fa3d 3e6a e23d d0c6 db3c
000002c0: 3c89 51bd 208c 073c 1863 85bc 2e90 963d
000002d0: fc90 1fbd 36b4 e8bd 801e 2fbd 98cc 28bd
000002e0: 10ac cfbd d0b2 f2bc 7ec3 ddbd 1c61 00bd
000002f0: 921e a3bd ccbb 0fbd c410 e53d fc9b 333d
00000300: 2a41 82bd c0cc ab3c c06e 9a3b 905b 53bc
00000310: 5aca 803d dac3 cf3d e23a b93d 28ac c8bc
00000320: 4e46 843d ac71 fa3d 325d 933d cab9 e2bd
00000330: 409f c7bb d4f9 ccbd 74b5 f9bd c68f cc3d
00000340: 5802 09bd a0bf 99bb 2033 f9bc 7e5f ca3d
00000350: b060 77bd 404a 903b 1066 613d 1228 863d
00000360: c040 6d3b 6c4a d8bd c078 f1bc 28d3 84bc
00000370: fc26 403d e02c a4bb 4cd2 d0bd d272 9abd
00000380: 007c 573b f00e 21bc 4cae eb3d 50cb f7bc
00000390: c46d 6f3d b0ae fd3d 20bc 713d 5082 8dbd
000003a0: c4dc 0e3d 0cdf 42bd 488f 9dbd bc44 a03d
000003b0: 5eb2 81bd a0bc c23d 7067 543d 3002 27bc
000003c0: 0c2f b8bd e0ae 5c3c 2207 e73d 8895 febd
000003d0: a45b 93bd 0042 dfb9 70aa 8cbd fc0e a43d
000003e0: 80ec ee3d a468 ee3d 1452 1fbd 1825 8f3d
000003f0: 003e e9bc 7a33 f2bd 00e8 32bc 1e47 85bd
-0.12034102 0.027109697 -0.06825033 -0.051527604 0.010162711 0.10543521 -0.035493523 -0.11413686
-0.048771113 -0.033823 0.027713224 0.015970126 -0.10806945 -0.032828793 -0.041978136 0.10887982
-0.090340376 0.07717194 -0.050560564 0.09103952 -0.037026897 0.0007199496 0.108394474 0.06285328
-0.074729204 -0.077256635 0.07457091 0.07474287 0.0102042705 -0.0014033914 0.048304394 -0.027419627
0.05263701 0.05897878 0.093599185 0.09851289 0.08748616 0.12029828 -0.004951194 0.03012383
-0.04948114 -0.007477075 -0.014544129 0.111444324 0.02583772 0.07930195 0.040160418 -0.054365456
-0.12094909 -0.08887412 0.070855826 0.0067632347 0.038433 -0.07339722 0.07741435 0.021652162
0.08885135 0.08634229 -0.0636151 0.0449681 -0.0916522 -0.12366615 -0.014446706 -0.124344364
0.044200778 0.12025012 -0.07656737 0.08794299 0.035753638 0.013225809 0.05473499 0.11802618
-0.10053994 0.034179717 -0.09537266 0.09335397 -0.03409955 0.07909535 -0.016116425 0.022469714
-0.040248588 0.012753472 -0.03767468 0.01986669 0.05174181 -0.06815964 -0.09856373 -0.055506527
-0.10777761 -0.10817073 0.11737327 -0.06821491 -0.07670164 -0.12084387 -0.12432167 -0.0364881
0.06657615 0.021224827 0.10920368 -0.05084528 0.10720861 0.008760259 0.074476 0.023377687
-0.018288687 0.051118135 0.06261924 -0.09127644 0.004454404 -0.114309 0.0824056 0.0009988099
0.00804162 -0.06791657 -0.0511169 0.09083733 0.08337471 0.07086356 0.091184154 -0.11816439
-0.042647734 0.041952178 0.03949003 -0.04358037 0.02250491 -0.117542624 -0.080202624 -0.10304794
0.03686607 -0.046574816 0.0014814287 -0.12423991 -0.024856418 -0.003283441 -0.03066878 -0.015868917
-0.053441033 0.11024609 0.014710262 0.09335439 -0.048841298 0.12116012 0.03259945 0.033790514
-0.0326311 0.054102898 0.03396043 -0.017210037 -0.01689142 -0.1145228 -0.0966436 -0.05496551
0.080972314 0.090984896 0.040138647 -0.0766781 -0.07893297 -0.0004425794 0.050300807 -0.053894818
0.047320694 -0.087708026 0.039522126 -0.07364607 -0.021426499 -0.09990735 0.009476498 0.10975213
-0.12378238 0.056178242 0.11378029 -0.043528825 -0.043328077 0.122251734 0.1105542 0.0268282
-0.051156268 0.0082731545 -0.016282603 0.07351719 -0.038956627 -0.113624975 -0.042753696 -0.04121074
-0.1014024 -0.02962628 -0.10828303 -0.03134261 -0.07964815 -0.035091206 0.111848384 0.04384993
-0.06360085 0.020971656 0.0047129095 -0.012900248 0.062885955 0.101447776 0.09044434 -0.024496153
0.06458722 0.122287124 0.0719551 -0.11070593 -0.006091982 -0.100085884 -0.121928126 0.0998836
-0.0334495 -0.004692033 -0.030419886 0.09881495 -0.060394943 0.0044033825 0.055028975 0.065506116
0.0036201924 -0.1056107 -0.029476523 -0.016213968 0.04691218 -0.0050102323 -0.10196361 -0.075414315
0.0032880306 -0.0098302215 0.11507854 -0.030248314 0.05845429 0.123868346 0.0590173 -0.06909621
0.034878507 -0.047575995 -0.07693344 0.0782561 -0.06332849 0.095086336 0.05185646 -0.010193393
-0.089933485 0.013469428 0.11280657 -0.124308646 -0.071952134 -0.00042583048 -0.06868446 0.080106705
0.116662025 0.11641052 -0.038896635 0.06989497 -0.028471947 -0.118262246 -0.010919571 -0.06507705

fc.4.bias f4 [33]
00000000: d66e da3d 8860 d23d d297 f4bd b024 cabd
00000010: 6c05 22bd a20e 82bd 6637 89bd c07d 5e3d
00000020: 4a1a be3e 2b6f 2b3e e48a 9ebe 7138 92be
00000030: 940c 7c3b c3a3 173e ac14 1fbe 91a9 9cbe
00000040: a803 fdbc 9037 d33d 2b43 aebd 1f35 afbe
00000050: 74fe 183a 67e0 833e 26f0 423d 998f 12be
00000060: 36c7 2cbe ea4e 3f3e c467 2bbd 56d3 2e3b
00000070: 97bd 20be 187a 2dbd 8190 d03e b2ad 163e
00000080: 0fac c0bb
0.106656715 0.10272318 -0.1194302 -0.09870279 -0.039555952 -0.06350447 -0.067000195 0.054319143
0.37129432 0.16741626 -0.3096534 -0.28558686 0.0038459646 0.14808564 -0.1553523 -0.3059812
-0.030885532 0.10313332 -0.08508905 -0.34220216 0.00058362563 0.25757143 0.047592305 -0.1431259
-0.16872868 0.18682447 -0.041847005 0.002667626 -0.15697323 -0.042352766 0.40735248 0.14714697
-0.005879886
