models/policy_m2.pt (torch_old, 99515 bytes, 6 tensors)

fc.0.weight f4 [128, 110]
000000 8f 40 1f bd fc d1 bd 3d 04 7c 4b be 39 05 a1 3d
       -0.038879927 0.09268567 -0.19871527 0.07862324
000010 7a 4f b4 bd c0 e4 5a bd 32 70 21 be 10 42 1e be
       -0.088042215 -0.05344081 -0.15765455 -0.15454888
000020 d5 71 4e be f5 fa 00 3f 35 87 92 3d da 3c a4 3c
       -0.20160611 0.5038293 0.07154695 0.020048548
000030 2b 5d 13 3e 0d ca 9f bd 9a a7 b4 bc 69 ce 25 be
       0.1439101 -0.0780221 -0.022052575 -0.1619202
000040 4d b1 13 be 18 b3 8d bb 89 c9 31 be 38 06 83 3d
       -0.14423104 -0.004324328 -0.17362036 0.063976705
000050 8d 87 b2 3d 5e 2e 0b bd 5c 33 dd 3d 43 72 54 3e
       0.087172605 -0.033979766 0.10800812 0.20746712
000060 0a f4 19 bd bb 25 90 bc 9e 80 35 3e d1 a3 88 bb
       -0.03758625 -0.017596116 0.17724845 -0.004169919
000070 74 3c 6d 3e 7c 5d 9e be ec 1c 39 3e 82 ba 1a 3d
       0.23167592 -0.30930698 0.18077439 0.037775524
000080 4a b4 2d 3c e1 22 66 3e e3 0b e5 3d b9 b4 88 3d
       0.010602066 0.22474243 0.11183908 0.06675095
000090 dd 18 06 bc c9 4d 06 3e 0f 46 67 3c 9a f3 2b 3d
       -0.008184639 0.1311561 0.014115824 0.041980363
0000a0 04 fc b9 bc 00 4c d9 bd d3 9f b1 3d 57 dc 2a 3e
       -0.022703178 -0.10610199 0.08673062 0.16685615
0000b0 87 27 61 bd 6e cf 6d bd f7 c9 54 3d e0 68 2d 3e
       -0.054969337 -0.05805915 0.05195042 0.16934538
0000c0 68 ff 4b 3e 27 de 08 3c 88 d3 12 3d f1 4e aa 3d
       0.19921649 0.0083537465 0.035846263 0.08315838
0000d0 17 ef 30 3e b9 85 3c 3d fc ab b6 bd 88 05 14 be
       0.17278706 0.046025965 -0.08919522 -0.14455235
0000e0 7c 47 f4 3c ac 87 0a bd 23 97 bc 3c 88 c8 a7 bc
       0.029819243 -0.033820793 0.023021286 -0.020481363
0000f0 ea e1 0b 3e dc bd 64 3c 4f 86 ca 3d c2 70 93 3d
       0.13660398 0.013961282 0.098888986 0.07199241
000100 11 df 78 3d 77 12 ac 3d 75 6b 0e 3e b1 a5 c1 3d
       0.060759608 0.084019594 0.13908179 0.09455431
000110 77 8f 7f 3d ff 7f b2 3d 78 c5 00 3e 72 a7 ca 3d
       0.062392678 0.087158196 0.12575328 0.09895219
000120 88 14 1a 3e 59 7c 69 bd a3 66 1e 3e ed 57 af 3d
       0.15046895 -0.057003353 0.1546884 0.085616924
000130 61 17 82 3d 5d e3 4b 3e 08 90 34 3e ae a3 b3 bd
       0.063521154 0.19910951 0.17633069 -0.08771454
000140 4d 11 01 3e f9 ec 6c bd 81 82 01 3c 36 97 e2 3d
       0.12604256 -0.057843182 0.00790465 0.110639974
000150 ef 00 04 be 0e d3 b7 bc 17 72 3e be 33 2a 8f bd
       -0.12890981 -0.022439506 -0.1859821 -0.06990471
000160 36 2e 90 bd ca 47 be bc 8c 26 81 3d 5c 66 73 3d
       -0.07040064 -0.023227591 0.0630618 0.05942379
000170 10 65 8b 3d 36 a1 ab 3c 07 59 aa be 0e 4f 90 3d
       0.068063855 0.020950895 -0.33271047 0.070463285
000180 b0 00 99 3e ae 3f 89 3d e8 b2 1e 3e 1d 3c b9 bd
       0.29883337 0.06701599 0.15497935 -0.09044669
000190 96 0c f6 3b 03 b1 45 3c b1 be bf bd 1e 8e 59 be
       0.0075088246 0.012066129 -0.093625434 -0.2124562
0001a0 6c 5b 95 be 47 83 0c be c0 d2 ba 3c 36 33 69 3e
       -0.29171312 -0.13721953 0.022805572 0.22773442
0001b0 2a 12 a1 bd 89 e6 51 3d 66 9c 8a 3d f1 55 a9 3d
       -0.07864793 0.051245246 0.06768112 0.08268345
0001c0 e5 d5 10 3e b6 be f3 3d 76 4f b9 bd cc 7a 44 be
       0.14144094 0.119016096 -0.09048359 -0.19187468
0001d0 bf 7c 6a be b5 1c 82 bd 29 1c d4 3c 7e c9 dc 3e
       -0.2289915 -0.06353132 0.025892334 0.43122476
0001e0 c9 31 9c be 94 29 b9 3e ac 1a 58 3e ee 53 fb bd
       -0.30506733 0.36164534 0.21103925 -0.12271868
0001f0 62 19 c6 3d f1 d9 9a be 80 2c 39 be 6b 71 30 3e
       0.0967281 -0.302444 -0.18083382 0.17230766
000200 82 a2 0a be 33 18 84 3d 6d c1 28 bd ad fb 82 3d
       -0.13538554 0.06449928 -0.04120009 0.063956596
000210 ce 08 22 be a5 28 b2 bd d5 f2 70 3d 37 e9 05 3c
       -0.15823671 -0.086991586 0.058825333 0.0081732785
000220 59 f5 57 3e aa 41 57 be 90 a4 a6 3d b7 07 68 bd
       0.21089686 -0.21021143 0.081368566 -0.056647982
000230 31 2d 73 bd a0 d6 b8 bd 9e b7 4f 3d f3 55 19 3e
       -0.05936927 -0.090253115 0.05071222 0.14974193
000240 bc 1d 6b be de 75 99 3c 6e 8d c6 bc 99 0f 09 3d
       -0.22960562 0.018732961 -0.02423736 0.03346214
000250 f0 2d 05 3d 94 d4 2e be 7c df b9 3c 2f bf 57 be
       0.032514513 -0.1707328 0.022689573 -0.21069025
000260 34 df 3b be ef fe 96 3e 63 af e6 bd 0d ad 3e 3c
       -0.18346864 0.29491374 -0.11263921 0.011637938
000270 57 97 6f bd 4a 89 19 be aa d7 bd 3d 79 a2 21 be
       -0.05849394 -0.14993778 0.0926965 -0.15784635
000280 fb c3 aa bc 89 19 48 3d e8 c6 db be af d0 a8 3d
       -0.020845404 0.048852477 -0.4292519 0.08242928
000290 d1 43 3d be c2 b7 b8 3c ba 95 c6 bd 18 69 3e be
       -0.18482901 0.02254856 -0.09696527 -0.18594778
0002a0 74 6f fc 3c f2 fa 3f 3d 2c de 40 3e 9c a2 76 be
       0.030814864 0.04687018 0.18834752 -0.24085468
0002b0 e8 7d c9 bc 33 f8 37 be 11 43 fd bd fb 18 6e be
       -0.02459617 -0.17965774 -0.123663075 -0.23251717
0002c0 31 a6 a2 3b 9d 25 36 bc 3c f1 99 3e e6 c6 61 be
       0.004963659 -0.011117366 0.3006686 -0.2204853
0002d0 e0 b4 8b be 80 03 03 be 42 ba 7e ba 7c 1b 06 be
       -0.27286434 -0.12794304 -0.00097170856 -0.13096422
0002e0 d1 4e 57 bd 4a c0 1d bc 83 00 9c bd 15 37 51 3e
       -0.0525654 -0.009628365 -0.07617285 0.20431168
0002f0 75 c7 90 3e e1 b7 c7 be 2c a8 42 bd 06 58 b6 be
       0.28277174 -0.39007476 -0.047523662 -0.35614032
000300 08 ff be bd 04 98 02 3e 4f 75 e7 3b 80 37 e1 bd
       -0.09325987 0.12753302 0.007063545 -0.10996914
000310 4a a0 ec bd 46 76 06 be f6 3a 58 3e fa 8a 87 be
       -0.1155401 -0.13131055 0.21116242 -0.26473218
000320 3c 6b 2b 3e 93 6a 3e 3e 22 8f 78 be da 67 96 3c
       0.16740125 0.18595342 -0.24273351 0.018360067
000330 05 a6 ad bd 53 63 b4 3a 92 59 93 bd 97 29 ca 3d
       -0.08478931 0.0013762511 -0.071948186 0.09871214
000340 5d bc 4b 3e 42 6d 68 be 2d f8 eb bd b5 4f 0c 3e
       0.19896074 -0.22697929 -0.11521945 0.13702281
000350 69 0d b1 3d e2 95 22 3d 8d de 76 ba 12 67 2a be
       0.08645136 0.03969372 -0.0009417318 -0.1664088
000360 bd f4 0b 3e fd 28 60 3c 21 76 51 3d f1 ef 2c 3e
       0.13667579 0.013681647 0.051138047 0.16888405
000370 e5 1c 9d bd 29 3f f8 3d 78 43 6f 3e 95 99 07 3e
       -0.07671527 0.12121422 0.23365581 0.1324218
000380 ce e6 81 3e b4 6b b4 bd 67 c9 60 be 50 62 b0 be
       0.25371403 -0.08809605 -0.21951829 -0.34450006
000390 ba 4a 0f bd 90 50 73 3d c5 cf ec 3c c0 e3 e9 bd
       -0.034983374 0.059403002 0.028907666 -0.11420393
0003a0 56 7d c5 3c 42 1e 00 3d 4a 21 c2 3d 47 69 24 be
       0.024107616 0.031278856 0.09479006 -0.16055785
0003b0 7c 2a 0c 3e 61 2f 65 bd b9 ff 1e be 81 57 24 3e
       0.13688082 -0.055953387 -0.15527238 0.16049005
0003c0 4f 07 ba 3d 57 da 87 3d 10 fc 7c 3d 11 81 82 3e
       0.09083425 0.06633442 0.061763823 0.25489095
0003d0 93 33 eb 3d f5 3b d1 3d 29 3e 2a 3e fa 0b ac bd
       0.114844464 0.10216514 0.16625275 -0.08400722
0003e0 30 5d 5c 3e 52 f1 8b bd 66 f8 de 3d ab 31 b4 bd
       0.21519923 -0.068331376 0.10887222 -0.08798536
0003f0 c8 b0 4c 3d a8 dc 98 3d 33 f7 f4 3d c8 c9 11 3d
       0.04997328 0.07463962 0.11961212 0.035592824

fc.0.bias f4 [128]
000000 93 45 c4 bd ec 29 0f 3d fa 44 d7 bd 03 2a ea bd
       -0.09583583 0.03495209 -0.10511203 -0.11433794
000010 d3 bb 2c be 66 68 58 bc 10 e2 37 3e b2 27 cb 3d
       -0.16868524 -0.013208484 0.1795733 0.09919681
000020 a2 d4 b9 3d 1b 60 a5 3d 47 a3 c0 bd 10 bb ea 3a
       0.090737596 0.08074971 -0.09406143 0.0017908532
000030 01 b4 31 bd 76 94 91 3d bf 39 01 3d cc f6 d5 bd
       -0.043384556 0.07108395 0.03154921 -0.104474634
000040 9d a2 22 bc 2d 71 da bd 95 ca 28 be 2a f4 02 3d
       -0.009926465 -0.10666118 -0.16483529 0.031971134
000050 f8 7a 42 3e 2a 1d ae 3d fd 60 fe bc 12 98 20 3e
       0.18992221 0.08501656 -0.031052107 0.1568301
000060 2c 91 f5 bc cf 55 b1 bd 0c 45 29 bd f9 d5 9a 3c
       -0.02997645 -0.08658945 -0.041325614 0.018900858
000070 a5 09 c0 3c 72 b2 36 3e 8f d9 25 be 1e e0 15 be
       0.023442099 0.17841509 -0.16196273 -0.14636275
000080 21 54 57 3b ac 27 4d be ec a9 bf bc 73 ab 5e bd
       0.0032856541 -0.20034665 -0.023396455 -0.054362725
000090 21 2e 04 3d 01 fc 44 be 2b 45 95 bd dc ab 07 3e
       0.032270554 -0.19236757 -0.07288583 0.13249153
0000a0 d8 29 1b bd 54 49 cb 3d a1 4a be 3d e2 09 58 bd
       -0.037881702 0.099260956 0.09291578 -0.0527438
0000b0 46 7d b0 3b 0c a5 85 3d 62 da 07 3e 8f d9 3c 3c
       0.0053860275 0.06525621 0.132669 0.011526479
0000c0 dc 17 b8 3d b2 09 97 bd 74 25 8d 3c 4b b2 d8 3c
       0.08988926 -0.07374896 0.017229773 0.026452204
0000d0 bc 5c 51 3e 94 ff 2f 3e 89 82 48 3d 23 55 c8 bd
       0.20445532 0.17187339 0.048952613 -0.097818635
0000e0 4b a3 92 3d 60 59 5d be bb e0 cd 3c 25 ef ea 3c
       0.07160052 -0.21616125 0.025131574 0.028678486
0000f0 f2 e1 91 bc fa 3d 79 bd e2 a9 3b 3b 45 05 1f 3e
       -0.017807934 -0.06085012 0.0028635194 0.15529354
000100 f2 9b c7 bd 11 d1 c0 3c d8 d4 99 3e 92 59 a3 3d
       -0.09746541 0.02353719 0.300452 0.079760686
000110 5e 52 0e be 78 0b b0 bc c6 ea b1 bd 6c 8f e4 bd
       -0.13898608 -0.021489844 -0.086873576 -0.11160168
000120 bd 5c c7 3d da d5 2e be 7d 55 64 bd 91 16 9a bc
       0.09734485 -0.17073765 -0.05574559 -0.018809589
000130 6d f3 4a bd 3c 3a d1 3d e4 cb 1e bd cc dd 1e 3c
       -0.049548555 0.102161855 -0.038768664 0.009696435
000140 d2 9b 3e bd e1 7e 5a 3d 6e 47 19 be 0a 35 d4 bc
       -0.04653532 0.053343657 -0.14968655 -0.025904197
000150 8d 02 57 be 40 a6 be 3d 5d aa e3 3d e7 a3 d9 bd
       -0.20997067 0.093090534 0.111164786 -0.10626965
000160 2f 5d 59 bd 80 eb a3 bc cd bd 0d be dc 1e da 3d
       -0.053067382 -0.020009756 -0.13841935 0.10650417
000170 79 75 1f be 41 c6 e9 bd bd 7c 26 3e 5f bb 2d bd
       -0.15572156 -0.11414767 0.16258521 -0.04241502
000180 b9 a6 e4 bc 73 6e 29 3d 02 a0 04 3d 1b 1c a4 3d
       -0.02791153 0.0413651 0.032379158 0.08013173
000190 09 88 9b bc fb 84 f7 3d 0b 75 ad bd 76 b4 d5 3d
       -0.018985765 0.12085911 -0.0846959 0.10434811
0001a0 05 0a 84 bd d3 02 6f 3c 2a bb 7e be c0 9d ab 3c
       -0.064472236 0.014588076 -0.24876085 0.020949244
0001b0 c9 e7 25 be bc de fb 3c ce 43 01 be 27 3c a8 3c
       -0.162017 0.030745856 -0.12623522 0.020536495
0001c0 f3 a9 bd bd bf 7b e4 3a 87 e1 64 3c 63 86 fc bd
       -0.09260931 0.0017431899 0.0139697855 -0.1233032
0001d0 53 85 0d 3e 2b 52 37 be dc d3 ec bd d2 63 bb bd
       0.1382039 -0.17902438 -0.115638465 -0.091498986
0001e0 45 6c 4b 3e 5d 5b cf bd c1 dd 29 be 0e 73 d7 bd
       0.1986552 -0.10124848 -0.16588499 -0.10519992
0001f0 7d 6b 10 3e e6 cb ad 3a 7b 89 cd bc 2f dd ac 3d
       0.14103504 0.0013259619 -0.02508997 0.08440625

fc.2.weight f4 [64, 128]
000000 0a de fe 3d db 0a d1 3b 10 6c 0e 3d a3 7a e3 3d
       0.12444694 0.006379468 0.034771025 0.111073755
000010 93 3a 77 bd 9c d9 16 be 0b 65 c5 3e 19 2d 95 bd
       -0.060358595 -0.14731449 0.38553652 -0.07283992
000020 c6 3e 0a bf 78 86 21 3c e2 44 b4 3e 66 42 bb be
       -0.54002035 0.00985872 0.35208803 -0.36574095
000030 4e 51 97 bd 9d 8b 77 3e d7 a4 46 be 7b 05 0b 3e
       -0.073885545 0.24174352 -0.19398819 0.1357631
000040 68 20 68 be 9b 46 5f be 4e 82 8f bc 6a 14 48 3e
       -0.22668612 -0.21804278 -0.017518189 0.19539037
000050 b5 6a 45 be e1 43 2a 3f fe 27 4a bf e2 48 7d be
       -0.19278987 0.66509825 -0.78967273 -0.24734834
000060 cc 36 bd be c5 a5 f9 be c8 4a da 3d 45 56 2c 3e
       -0.3695587 -0.48759285 0.10658795 0.16829784
000070 6d 0f a3 3e 89 9e 14 3e 2c cf 1c be 5d d7 c8 bd
       0.31847706 0.14513601 -0.15313405 -0.09806702
000080 55 ea 45 bf 5a 1a 11 be 2d 7a 52 be d4 f9 20 3f
       -0.7731069 -0.14170209 -0.20554419 0.6288121
000090 1c d8 1d be 2f 3f 9e 3d d3 13 91 bf 0b 30 58 3e
       -0.1541447 0.07726895 -1.1334175 0.21112077
0000a0 80 cb cd 3e bb 0c a3 3e 40 32 95 3e 2d 7c 5e 3e
       0.4019432 0.3184565 0.291399 0.21727057
0000b0 8c 02 64 be a2 b1 0f 3f 2c 7f e9 be b4 eb 1a 3f
       -0.22266597 0.5613042 -0.45604837 0.60515904
0000c0 ae 02 0e bf c2 90 9a be 20 44 05 3f 0c 7d 3f 3d
       -0.5547284 -0.30188566 0.52057076 0.046750113
0000d0 6e 57 e3 3d 43 8d 70 3e 08 94 f2 3d 5a 82 16 3e
       0.1110066 0.23491387 0.11844641 0.14698163
0000e0 40 e3 dc 3e ea 72 3d 3e 6a 46 68 be 09 97 df bd
       0.43142128 0.18500867 -0.22683111 -0.109174795
0000f0 45 e4 0d 3f fd 59 54 bd c4 c7 34 3d 0e c3 54 be
       0.55426437 -0.051843632 0.044135824 -0.20777532
000100 5a 63 9c 3d b0 a0 01 3d 20 93 d9 bd 4f 52 9a bd
       0.07636137 0.031647384 -0.10623765 -0.0753523
000110 e2 9f ea bc 6a 88 6b 3e 67 36 27 be 28 a4 a0 be
       -0.028640691 0.23001257 -0.16329347 -0.3137524
000120 52 63 e1 3d f3 d4 c2 bd c9 84 39 3e d4 20 08 3e
       0.11005272 -0.09513273 0.1811706 0.13293773
000130 ca d6 bb 3b df 3d 1e 3e 4c 40 00 be 31 00 45 3e
       0.005732392 0.1545329 -0.12524527 0.19238354
000140 91 ee 8e bd 40 18 0c 3e 5d fa 61 bf fc ab 86 3f
       -0.06979097 0.13681126 -0.8827265 1.0521235
000150 e2 84 e8 3d 78 7c 05 be 1c 68 60 3e b4 5b 0c be
       0.113534704 -0.13035762 0.21914715 -0.13706857
000160 96 d3 5b 3d e1 09 60 bd 94 59 33 3e 8b 18 4d 3e
       0.05366858 -0.05469692 0.1751464 0.20028894
000170 7d 82 8e bd 58 06 6e 3d de 7e 5f bf b1 1c 1d be
       -0.069584824 0.05811152 -0.8730296 -0.15342976
000180 ff 16 6e 3e 7f b3 3d 3e 84 bf 3c 3f 2b 82 73 3e
       0.2325096 0.18525504 0.7372973 0.23780124
000190 52 e1 8c bd 2b 06 ca be 55 ac 45 3f 24 27 08 be
       -0.06878914 -0.3945783 0.7721608 -0.13296181
0001a0 48 1e b3 3e 03 52 81 be f9 0f 1e bd 46 d6 be bb
       0.3498404 -0.25257882 -0.03858945 -0.005823883
0001b0 9e ba 4a be af d5 31 bd bf 04 fd 3d 87 cf a1 bd
       -0.19797751 -0.043416675 0.12354421 -0.07900911
0001c0 b7 e8 7e 3e 57 54 8e bc 7d b1 9b be 18 b5 35 3e
       0.24893461 -0.0173742 -0.3040885 0.17744863
0001d0 62 60 7c 3e 17 66 a9 3e 3b 8c e9 3d 61 45 a2 3d
       0.24646142 0.330857 0.114037 0.07923389
0001e0 cb 50 cb be 56 45 fc bd 06 7a 95 3e 21 1d 5c 3e
       -0.39710078 -0.12317912 0.2919466 0.21495487
0001f0 76 e8 2e be d6 1f da 3e 66 72 1d be 8d e4 b6 be
       -0.17080864 0.42602414 -0.15375671 -0.35721245
000200 4f 6c 89 be 5d a6 ad 3e 6d 44 01 be 9e 1b 84 3d
       -0.26840445 0.33915988 -0.12623759 0.0645058
000210 35 c7 a4 3e cf a8 e5 3e 77 48 93 3e 92 8e 48 bd
       0.32183233 0.44855353 0.28766224 -0.04896409
000220 8b 09 b0 be f4 cb 8d bd a3 da 5d 3e cd 8f 84 bd
       -0.3438228 -0.069236666 0.21665435 -0.0647274
000230 c0 48 47 bf 6a d0 78 bc 74 d4 df bc 23 99 d4 3d
       -0.7784538 -0.015186409 -0.027322985 0.10380771
000240 3a f1 2d be 5e 61 bb 3e 76 b1 4d 3e d3 95 0a be
       -0.16986552 0.36597723 0.20087227 -0.13533716
000250 37 12 18 3d 80 e6 65 bc ed be d5 3d 2a b1 e2 3e
       0.037126746 -0.014032006 0.10436807 0.4427579
000260 f1 e0 25 be 8d d8 b1 be 2a 75 3d bd da 37 90 3e
       -0.1619909 -0.34735528 -0.046254314 0.2816761
000270 ef e8 c0 3d c1 e1 0a 3f cf 2e d3 bd 4d ec 0f bf
       0.094194286 0.54250723 -0.103116624 -0.5621994
000280 9e 15 0a 3e 61 8b 38 3e a6 d3 00 3f ff d9 ad 3d
       0.13484809 0.18021919 0.5032295 0.08488845
000290 49 ea 10 bf dc d9 f1 3b 41 f8 e9 3d 95 a3 15 3f
       -0.5660749 0.007380707 0.11424304 0.5845273
0002a0 cb 8e 42 be 4e 68 a7 3e 93 35 84 3e 05 ab 9d bd
       -0.18999784 0.32696766 0.25822124 -0.07698635
0002b0 c0 fc 31 3e dd 3b 16 3e 68 02 b8 3e 96 5c 41 be
       0.17381573 0.14671274 0.35939336 -0.18882975
0002c0 1a 1b b6 3d 9e 5f 7a 3e 68 c5 1b 3d 97 b5 d0 bd
       0.08891888 0.24450538 0.03803006 -0.101908855
0002d0 ae 48 72 3d c0 05 57 be e3 97 bd 3e d2 ce af 3e
       0.059151344 -0.20998287 0.37029943 0.3433748
0002e0 7d fa ce be d0 68 3a bc fa 28 86 3d d8 b2 03 bf
       -0.40425482 -0.011377528 0.065507844 -0.5144477
0002f0 3a 78 b5 3b 81 a7 ea be c2 d3 c7 be 23 6d 79 bd
       0.0055380138 -0.4583092 -0.39028746 -0.060895097
000300 c1 8d 1f 3e 99 20 2f be b2 cf 5e 3c 75 b9 ca be
       0.15581419 -0.17102279 0.013599323 -0.39594617
000310 73 f8 42 3e 2b 50 30 3e 5e 75 47 bd ab cd d2 3e
       0.19040088 0.17218082 -0.048695914 0.41172537
000320 26 3b 1c 3f 48 b3 19 be 83 bb e3 be 29 8e 88 bd
       0.61027753 -0.15009797 -0.44478998 -0.0666774
000330 c2 70 f1 be 84 5d 8a 3e 20 9e 25 be 64 0c 7b 3e
       -0.4715634 0.27024472 -0.16173601 0.24516445
000340 c4 ec 40 be 53 d5 8e 3e 15 4d ba be cd 44 ab 3d
       -0.18840319 0.27897128 -0.36386934 0.08362732
000350 96 c8 06 3e 7d ad 20 be a9 18 a6 3e 77 d8 1c 3e
       0.13162455 -0.1569118 0.3244069 0.1531695
000360 22 f2 92 3e b0 52 2e 3f 0c 0e 93 3e 2b 0d ef 3d
       0.28700358 0.6809492 0.28721654 0.116724335
000370 c9 20 72 be 94 4a 19 3e 5c c5 73 3e ae 73 81 be
       -0.23645319 0.14969856 0.23805755 -0.2528357
000380 a8 c6 03 bf d6 c9 ee 3c 9f da 34 be 88 e0 54 3e
       -0.51475 0.029148977 -0.17661522 0.20788777
000390 76 50 cf bd 19 4d 4f be 08 44 e5 3e 4f 92 20 be
       -0.101227686 -0.20244254 0.44778466 -0.15680812
0003a0 59 01 33 3e 2d 05 1b be fe 43 80 3d 11 ce 34 be
       0.17480983 -0.15138693 0.062629685 -0.17656733
0003b0 a3 1e 5b bd 80 00 2d 3d 98 22 cd be 66 88 86 be
       -0.053496014 0.042236805 -0.40065455 -0.2627594
0003c0 75 f5 26 be e1 04 1a bd b9 03 29 be ba 3b bc be
       -0.16304572 -0.03760231 -0.16505326 -0.36764318
0003d0 54 89 b7 bb 0b fa 39 3c bc 01 69 3e ed 36 c6 3d
       -0.0056010876 0.011351119 0.22754568 0.09678445
0003e0 c2 e3 b7 3d c4 e6 54 be 3f d9 14 bd 6d 45 62 3d
       0.08978988 -0.20791155 -0.036339995 0.05524199
0003f0 e8 49 04 3e 9e 42 87 3e 55 2c a7 be 4f 3c 09 3d
       0.12918818 0.26418012 -0.3265101 0.03350478

fc.2.bias f4 [64]
000000 85 20 c2 bd 98 b8 2f 3c 96 08 03 3d c5 74 48 3d
       -0.09478859 0.010725163 0.03199061 0.048939485
000010 5c af 4c ba e6 90 04 3e 6e f9 68 be 2c 13 4a 3c
       -0.0007808113 0.129459 -0.227514 0.0123336725
000020 7a 15 2b be 58 ed 3f 3e bf 65 97 3d 20 4d 77 3e
       -0.16707411 0.18742883 0.073924534 0.24150515
000030 04 b8 ed bd 10 87 1e 3d 09 c1 15 3b a5 aa d0 bd
       -0.11607364 0.038703024 0.0022850654 -0.10188798
000040 79 bd 9c 3d 04 ab 0a 3e c2 96 9e 3d c8 b8 51 3e
       0.076533265 0.135418 0.077435985 0.20480645
000050 7d 4b 4f 3e 0f e3 2f be a3 17 8f bd 8e 52 1d be
       0.2024364 -0.1717646 -0.0698693 -0.15363523
000060 4c e4 af bc 40 d4 79 be 62 f2 f0 3c 31 d6 01 bd
       -0.021471165 -0.24397373 0.029412452 -0.03169841
000070 30 a1 ab bd f0 ea eb 3d f2 a4 ba 3d 92 80 86 3d
       -0.083803535 0.1151942 0.09113492 0.065674916
000080 7d 83 1e 3e 0e 9a 80 bd 99 47 7c bc 62 0b df bd
       0.15479846 -0.062793836 -0.01539793 -0.10890843
000090 32 c6 14 be b6 ed 83 3d d4 6e 96 3d d6 5c 56 be
       -0.1452873 0.06441824 0.073453575 -0.20933852
0000a0 d9 4f 9c be d5 2b 9b bd e5 a8 2e bd cf 0b 08 3e
       -0.3052967 -0.0757672 -0.04264154 0.13285755
0000b0 a3 98 c9 bd f3 1d 33 3e 27 2c 1a 3e d0 3b 42 3e
       -0.09843566 0.17491893 0.15055905 0.18968129
0000c0 db c6 cb 3d 8c 01 d3 3d 07 0c 10 bd 79 9c 08 3e
       0.09950038 0.103030294 -0.03516772 0.1334094
0000d0 81 de 9a bc 6e 7d 8d bd 10 85 b0 bd 02 fd 5b 3d
       -0.018904926 -0.069086894 -0.0861913 0.053708084
0000e0 8e 0c 59 be ba 50 b0 3e b6 ec 55 bd 1e 75 3f 3d
       -0.21196195 0.3443659 -0.0522277 0.04674255
0000f0 94 91 a4 bd 9f cc 90 3d 79 71 be 3e b3 de 85 be
       -0.08035579 0.070702784 0.37195948 -0.2614647

fc.4.weight f4 [33, 64]
000000 5a 75 f6 bd 28 15 de 3c d4 c6 8b bd 9c 0e 53 bd
       -0.12034102 0.027109697 -0.06825033 -0.051527604
000010 80 81 26 3c 6a ee d7 3d a8 61 11 bd 96 c0 e9 bd
       0.010162711 0.10543521 -0.035493523 -0.11413686
000020 38 c4 47 bd fc 89 0a bd d8 06 e3 3c c8 d3 82 3c
       -0.048771113 -0.033823 0.027713224 0.015970126
000030 84 53 dd bd 7c 77 06 bd 44 f1 2b bd 62 fc de 3d
       -0.10806945 -0.032828793 -0.041978136 0.10887982
000040 60 04 b9 bd 52 0c 9e 3d 98 18 4f bd ee 72 ba 3d
       -0.090340376 0.07717194 -0.050560564 0.09103952
000050 84 a9 17 bd 00 bb 3c 3a ec fd dd 3d 38 b9 80 3d
       -0.037026897 0.0007199496 0.108394474 0.06285328
000060 a0 0b 99 bd ba 38 9e bd a2 b8 98 3d ca 12 99 3d
       -0.074729204 -0.077256635 0.07457091 0.07474287
000070 d0 2f 27 3c 00 f2 b7 ba d4 da 45 3d 20 9f e0 bc
       0.0102042705 -0.0014033914 0.048304394 -0.027419627
000080 e8 99 57 3d bc 93 71 3d ee b0 bf 3d 20 c1 c9 3d
       0.05263701 0.05897878 0.093599185 0.09851289
000090 f2 2b b3 3d f2 5e f6 3d a0 3d a2 bb 40 c6 f6 3c
       0.08748616 0.12029828 -0.004951194 0.03012383
0000a0 bc ac 4a bd 40 02 f5 bb 80 4a 6e bc ec 3c e4 3d
       -0.04948114 -0.007477075 -0.014544129 0.111444324
0000b0 a0 a9 d3 3c 10 69 a2 3d 40 7f 24 3d 50 ae 5e bd
       0.02583772 0.07930195 0.040160418 -0.054365456
0000c0 28 b4 f7 bd a2 03 b6 bd dc 1c 91 3d 20 9e dd 3b
       -0.12094909 -0.08887412 0.070855826 0.0067632347
0000d0 ec 6b 1d 3d 48 51 96 bd 6a 8b 9e 3d e0 5f b1 3c
       0.038433 -0.07339722 0.07741435 0.021652162
0000e0 b2 f7 b5 3d 3a d4 b0 3d a2 48 82 bd 78 30 38 3d
       0.08885135 0.08634229 -0.0636151 0.0449681
0000f0 26 b4 bb bd ae 44 fd bd e0 b1 6c bc 42 a8 fe bd
       -0.0916522 -0.12366615 -0.014446706 -0.124344364
000100 e0 0b 35 3d b2 45 f6 3d 5a cf 9c bd 74 1b b4 3d
       0.044200778 0.12025012 -0.07656737 0.08794299
000110 68 72 12 3d 10 b1 58 3c cc 31 60 3d b6 b7 f1 3d
       0.035753638 0.013225809 0.05473499 0.11802618
000120 e2 e7 cd bd 08 00 0c 3d be 52 c3 bd 5e 30 bf 3d
       -0.10053994 0.034179717 -0.09537266 0.09335397
000130 f8 ab 0b bd be fc a1 3d 98 06 84 bc 68 12 b8 3c
       -0.03409955 0.07909535 -0.016116425 0.022469714
000140 b4 db 24 bd f0 f3 50 3c c4 50 1a bd 78 bf a2 3c
       -0.040248588 0.012753472 -0.03767468 0.01986669
000150 38 ef 53 3d 48 97 8b bd c8 db c9 bd d0 5a 63 bd
       0.05174181 -0.06815964 -0.09856373 -0.055506527
000160 82 ba dc bd 9e 88 dd bd 66 61 f0 3d 42 b4 8b bd
       -0.10777761 -0.10817073 0.11737327 -0.06821491
000170 c0 15 9d bd fe 7c f7 bd 5c 9c fe bd 8c 74 15 bd
       -0.07670164 -0.12084387 -0.12432167 -0.0364881
000180 14 59 88 3d b0 df ad 3c 2e a6 df 3d 24 43 50 bd
       0.06657615 0.021224827 0.10920368 -0.05084528
000190 30 90 db 3d 30 87 0f 3c e0 86 98 3d 90 82 bf 3c
       0.10720861 0.008760259 0.074476 0.023377687
0001a0 28 d2 95 bc 40 61 51 3d 84 3e 80 3d 24 ef ba bd
       -0.018288687 0.051118135 0.06261924 -0.09127644
0001b0 40 f6 91 3b d6 1a ea bd 44 c4 a8 3d 80 ea 82 3a
       0.004454404 -0.114309 0.0824056 0.0009988099
0001c0 00 c1 03 3c d8 17 8b bd f4 5f 51 bd ec 08 ba 3d
       0.00804162 -0.06791657 -0.0511169 0.09083733
0001d0 5c c0 aa 3d ea 20 91 3d c2 be ba 3d 2c 00 f2 bd
       0.08337471 0.07086356 0.091184154 -0.11816439
0001e0 64 af 2e bd 0c d6 2b 3d 4c c0 21 3d 54 81 32 bd
       -0.042647734 0.041952178 0.03949003 -0.04358037
0001f0 38 5c b8 3c 30 ba f0 bd 46 41 a4 bd cc 0a d3 bd
       0.02250491 -0.117542624 -0.080202624 -0.10304794
000200 e0 00 17 3d 3c c5 3e bd 80 2c c2 3a 7e 71 fe bd
       0.03686607 -0.046574816 0.0014814287 -0.12423991
000210 b0 9f cb bc 00 2f 57 bb 18 3d fb bc 88 ff 81 bc
       -0.024856418 -0.003283441 -0.03066878 -0.015868917
000220 fc e4 5a bd b4 c8 e1 3d 50 03 71 3c 96 30 bf 3d
       -0.053441033 0.11024609 0.014710262 0.09335439
000230 d0 0d 48 bd cc 22 f8 3d 00 87 05 3d ec 67 0a 3d
       -0.048841298 0.12116012 0.03259945 0.033790514
000240 30 a8 05 bd 00 9b 5d 3d 18 1a 0b 3d 10 fc 8c bc
       -0.0326311 0.054102898 0.03396043 -0.017210037
000250 e0 5f 8a bc ee 8a ea bd 14 ed c5 bd 84 23 61 bd
       -0.01689142 -0.1145228 -0.0966436 -0.05496551
000260 d0 d4 a5 3d 4a 56 ba 3d 6c 68 24 3d 68 09 9d bd
       0.080972314 0.090984896 0.040138647 -0.0766781
000270 9c a7 a1 bd 00 0a e8 b9 38 08 4e 3d d0 c0 5c bd
       -0.07893297 -0.0004425794 0.050300807 -0.053894818
000280 58 d3 41 3d 44 a0 b3 bd f4 e1 21 3d c0 d3 96 bd
       0.047320694 -0.087708026 0.039522126 -0.07364607
000290 a0 86 af bc 3a 9c cc bd 50 43 1b 3c ba c5 e0 3d
       -0.021426499 -0.09990735 0.009476498 0.10975213
0002a0 9e 81 fd bd 28 1b 66 3d a4 05 e9 3d 48 4b 32 bd
       -0.12378238 0.056178242 0.11378029 -0.043528825
0002b0 c8 78 31 bd 1e 5f fa 3d 3e 6a e2 3d d0 c6 db 3c
       -0.043328077 0.122251734 0.1105542 0.0268282
0002c0 3c 89 51 bd 20 8c 07 3c 18 63 85 bc 2e 90 96 3d
       -0.051156268 0.0082731545 -0.016282603 0.07351719
0002d0 fc 90 1f bd 36 b4 e8 bd 80 1e 2f bd 98 cc 28 bd
       -0.038956627 -0.113624975 -0.042753696 -0.04121074
0002e0 10 ac cf bd d0 b2 f2 bc 7e c3 dd bd 1c 61 00 bd
       -0.1014024 -0.02962628 -0.10828303 -0.03134261
0002f0 92 1e a3 bd cc bb 0f bd c4 10 e5 3d fc 9b 33 3d
       -0.07964815 -0.035091206 0.111848384 0.04384993
000300 2a 41 82 bd c0 cc ab 3c c0 6e 9a 3b 90 5b 53 bc
       -0.06360085 0.020971656 0.0047129095 -0.012900248
000310 5a ca 80 3d da c3 cf 3d e2 3a b9 3d 28 ac c8 bc
       0.062885955 0.101447776 0.09044434 -0.024496153
000320 4e 46 84 3d ac 71 fa 3d 32 5d 93 3d ca b9 e2 bd
       0.06458722 0.122287124 0.0719551 -0.11070593
000330 40 9f c7 bb d4 f9 cc bd 74 b5 f9 bd c6 8f cc 3d
       -0.006091982 -0.100085884 -0.121928126 0.0998836
000340 58 02 09 bd a0 bf 99 bb 20 33 f9 bc 7e 5f ca 3d
       -0.0334495 -0.004692033 -0.030419886 0.09881495
000350 b0 60 77 bd 40 4a 90 3b 10 66 61 3d 12 28 86 3d
       -0.060394943 0.0044033825 0.055028975 0.065506116
000360 c0 40 6d 3b 6c 4a d8 bd c0 78 f1 bc 28 d3 84 bc
       0.0036201924 -0.1056107 -0.029476523 -0.016213968
000370 fc 26 40 3d e0 2c a4 bb 4c d2 d0 bd d2 72 9a bd
       0.04691218 -0.0050102323 -0.10196361 -0.075414315
000380 00 7c 57 3b f0 0e 21 bc 4c ae eb 3d 50 cb f7 bc
       0.0032880306 -0.0098302215 0.11507854 -0.030248314
000390 c4 6d 6f 3d b0 ae fd 3d 20 bc 71 3d 50 82 8d bd
       0.05845429 0.123868346 0.0590173 -0.06909621
0003a0 c4 dc 0e 3d 0c df 42 bd 48 8f 9d bd bc 44 a0 3d
       0.034878507 -0.047575995 -0.07693344 0.0782561
0003b0 5e b2 81 bd a0 bc c2 3d 70 67 54 3d 30 02 27 bc
       -0.06332849 0.095086336 0.05185646 -0.010193393
0003c0 0c 2f b8 bd e0 ae 5c 3c 22 07 e7 3d 88 95 fe bd
       -0.089933485 0.013469428 0.11280657 -0.124308646
0003d0 a4 5b 93 bd 00 42 df b9 70 aa 8c bd fc 0e a4 3d
       -0.071952134 -0.00042583048 -0.06868446 0.080106705
0003e0 80 ec ee 3d a4 68 ee 3d 14 52 1f bd 18 25 8f 3d
       0.116662025 0.11641052 -0.038896635 0.06989497
0003f0 00 3e e9 bc 7a 33 f2 bd 00 e8 32 bc 1e 47 85 bd
       -0.028471947 -0.118262246 -0.010919571 -0.06507705

fc.4.bias f4 [33]
000000 d6 6e da 3d 88 60 d2 3d d2 97 f4 bd b0 24 ca bd
       0.106656715 0.10272318 -0.1194302 -0.09870279
000010 f1 83 8a 3e b4 ec 69 3e ca 21 ee be f1 c8 b2 be
       0.27053788 0.22844201 -0.46510154 -0.3491893
000020 89 f5 e0 3e 8f 98 c6 3d 3a d7 a3 be 92 cc a0 be
       0.43937328 0.09697067 -0.32000142 -0.31406075
000030 a4 b8 ae 3e 09 56 a9 bd 3c 3f 38 be 36 33 22 be
       0.34125245 -0.08268363 -0.17992872 -0.15839848
000040 25 47 2d 3e b8 be 69 be 70 f9 0d bd e4 89 8c be
       0.1692167 -0.2282666 -0.03466171 -0.27448952
000050 f0 a1 ac bc a6 9b a3 bd db 8d cb bb 8d 0d f4 bc
       -0.021073312 -0.07988672 -0.006211979 -0.029791618
000060 2e b8 1a bd 16 81 f6 bd ef 5c 97 3e 36 50 17 bc
       -0.037773304 -0.1203634 0.2956309 -0.009235432
000070 2e 52 a4 be 82 5b a3 be eb 53 a8 3e ec c3 c7 3d
       -0.32093948 -0.31905752 0.32876524 0.09754166
000080 0e 21 54 3e
       0.20715734
