models/policy_m5.pt (torch_old, 99515 bytes, 6 tensors)

fc.0.weight f4 [128, 110]
-0.038879927 0.003158301 -0.336728 -0.07686898 0.116283454 0.42285258 -0.18796867 -0.31590185
-0.18793215 0.24890006 -0.07027201 0.05439373 -0.06478654 -0.03457143 -0.006042484 -0.03167948
0.067923 0.23953517 0.19932102 0.3747469 0.31290644 0.022841988 -0.06855695 0.013977874
0.025502356 0.052537814 -0.008746993 0.17891653 0.11952102 -0.05033851 0.20850432 0.0594122
0.018166257 -0.010388605 0.20890425 0.10863501 -0.15805076 0.08293511 0.10733269 0.11626999
0.047656685 0.060818516 -0.013712974 0.08620144 0.22080658 -0.09076469 0.04625152 0.16009386
0.09668515 -0.046418473 0.19892056 -0.09788083 0.009928905 0.0107650375 -0.25111625 -0.16326524
-0.25093067 0.26503158 -0.06814736 -0.17031442 0.06334164 -0.1121045 -0.0023867507 -0.0002231189
-0.22726047 0.11350211 0.019346166 -0.120014854 -0.16337393 0.033825245 0.16457269 0.026573189
-0.1001504 -0.23727582 0.08799913 0.15522377 0.009535603 0.0036644624 0.047771297 -0.03593367
0.015874378 0.025052166 -0.091181695 0.018203462 -0.28652278 0.03567527 -0.10398181 0.17922544
0.036266666 0.06778949 -0.14005403 0.2295029 0.05659183 0.09201064 0.017759277 0.14486016
0.14441034 0.14548083 0.08578571 -0.18189514 0.046285123 -0.045480996 -0.19598417 -0.14680187
-0.055753097 -0.10310286 -0.037917838 0.04096532 0.10123243 0.05420297 0.06768112 -0.04886072
-0.26902306 0.03556394 0.13408054 -0.07278157 -0.21087375 -0.1360655 -0.01053248 0.35349852
-0.39860576 0.29941034 0.16619425 -0.028100148 0.06477017 -0.022892041 0.021404998 0.15991499
0.18513398 0.22601609 0.27340302 0.08484953 -0.27122253 -0.05798176 0.0797837 -0.2610334
-0.054900896 0.08704922 0.09852086 0.17521913 0.19379413 -0.062146664 -0.11992573 0.06263883
0.09819212 0.04361254 -0.204924 0.0053784177 0.0075815483 -0.009844876 -0.08194916 -0.015568858
0.032956794 0.17155933 0.03615587 -0.25411507 -0.05542281 -0.037287302 0.070388325 0.10591103
0.3173476 0.19772735 -0.08517929 0.07469391 -0.15476903 -0.08424619 -0.33209023 0.056260094
0.10372397 0.016978236 -0.053359903 -0.22339672 0.15992525 0.21531805 -0.3292737 0.24822095
-0.077724166 -0.15951578 -0.034774225 -0.13770813 0.061489485 -0.00063659414 0.09319447 -0.3788864
-0.017978795 0.061126195 -0.052007407 0.23743777 0.19449712 -0.027617827 -0.10157267 -0.0980662
0.16963479 0.26119822 -0.30195728 0.18375391 0.055434898 0.065086 -0.09764041 -0.03397534
-0.111746214 0.002963756 0.11319998 0.1798254 0.12016264 0.22910774 0.06544801 0.0059790635
-0.05512443 -0.014445353 -0.14038481 -0.07882987 -0.041862965 -0.12940688 0.06432508 -0.1969266
0.15212493 -0.09164242 -0.01925202 0.06924586 -0.07671527 -0.06933029 -0.35389113 -0.20383462
0.3001154 0.045405846 -0.32218146 -0.18454845 -0.015149968 -0.019698892 0.1965927 0.0061685354
-0.00029408917 0.27876478 0.20346358 0.2053171 0.13289481 0.21886647 0.11880675 0.44435886
0.43306023 -0.050442778 -0.04594455 -0.0568732 0.20425187 0.24099761 -0.06845099 0.19283484
0.21274146 -0.045995213 0.18845956 -0.117489986 0.04150584 -0.1564261 0.19693077 0.14899375
00000000: 8f40 1fbd 80fb 4e3b 9d67 acbe 7c6d 9dbd
00000010: 0526 ee3d 2280 d83e dc7a 40be e3bd a1be
00000020: 4971 40be a8df 7e3e c6ea 8fbd f6cb 5e3d
00000030: ceae 84bd c69a 0dbd 0800 c6bb 58c2 01bd
00000040: 371b 8b3d b548 753e cf1a 4c3e d3de bf3e
00000050: 4635 a03e 1f1f bb3c 9667 8cbd 7403 653c
00000060: 51ea d03c e431 573d 8c4f 0fbc e535 373e
00000070: 70c7 f43d c12f 4ebd 2882 553e 355a 733d
00000080: 67d1 943c f834 2abc ffea 553e 087c de3d
00000090: 0fd8 21be e2d9 a93d 3ed1 db3d f61e ee3d
000000a0: a833 433d d61c 793d 62ac 60bc 618a b03d
000000b0: 1f1b 623e d6e2 b9bd 3c72 3d3d a5ef 233e
000000c0: dd02 c63d 4c21 3ebd d5b1 4b3e bf75 c8bd
000000d0: d9ac 223c d75f 303c 4f92 80be 012f 27be
000000e0: fc79 80be 38b2 873e d890 8bbd e766 2ebe
000000f0: 43b9 813d 0b97 e5bd 086b 1cbb 06f5 69b9
00000100: f8b6 68be cb73 e83d da7b 9e3c 59ca f5bd
00000110: 7f4b 27be 578c 0a3d be85 283e 04b0 d93c
00000120: a71b cdbd 6ff8 72be e338 b43d fbf2 1e3e
00000130: 383b 1c3c 7a27 703b d6ab 433d 2f2f 13bd
00000140: fc0a 823c 333a cd3c 78bd babd 6d1f 953c
00000150: 1db3 92be 3b20 123d 6af4 d4bd e086 373e
00000160: 5b8c 143d 37d5 8a3d 536a 0fbe cf02 6b3e
00000170: d6cc 673d 1370 bc3d e77b 913c 3956 143e
00000180: 4ee0 133e edf8 143e 6bb0 af3d b842 3abe
00000190: 7895 3d3d 484a 3abd 13b0 48be 3b53 16be
000001a0: 5c5d 64bd 9827 d3bd bc4f 1bbd 40cb 273d
000001b0: f352 cf3d ef03 5e3d 669c 8a3d 2e22 48bd
000001c0: 64bd 89be 7eab 113d 694c 093e 810e 95bd
000001d0: 4aef 57be c154 0bbe 6c90 2cbc c2fd b43e
000001e0: 0e16 ccbe 504c 993e d32e 2a3e 4832 e6bc
000001f0: 39a6 843d 1788 bbbc 8959 af3c c1c0 233e
00000200: c393 3d3e c370 673e 7bfb 8b3e 97c5 ad3d
00000210: aedd 8abe 487e 6dbd a365 a33d 2ba6 85be
00000220: c3df 60bd dd46 b23d 4ec5 c93d a56c 333e
00000230: f871 463e 808d 7ebd 9f9b f5bd c948 803d
00000240: f318 c93d 10a3 323d 99d7 51be 703d b03b
00000250: a36e f83b 674c 21bc f6d4 a7bd 8614 7fbc
00000260: b4fd 063d 40ad 2f3e 2d18 143d 5f1b 82be
00000270: 0703 63bd 92ba 18bd c127 903d e2e7 d83d
00000280: 627b a23e 0a79 4a3e 7b72 aebd 1ff9 983d
00000290: c67b 1ebe 4489 acbd bb07 aabe fc70 663d
000002a0: 3c6d d43d f115 8b3c ea8f 5abd 1cc2 64be
000002b0: 72c3 233e 567c 5c3e 9096 a8be a22d 7e3e
000002c0: d92d 9fbd 1b58 23be 6b6f 0ebd 5c03 0dbe
000002d0: 66dc 7b3d 1ce1 26ba bedc be3d 66fd c1be
000002e0: 4448 93bc 765f 7a3d b805 55bd e322 733e
000002f0: 412a 473e c83e e2bc 5505 d0bd efd6 c8bd
00000300: beb4 2d3e c6bb 853e 259a 9abe fc29 3c3e
00000310: b40f 633d cf4b 853d b2f7 c7bd ba29 0bbd
00000320: 33db e4bd 933b 423b 64d5 e73d 2624 383e
00000330: d517 f63d 389b 6a3e 9b09 863d 05ec c33b
00000340: 28ca 61bd 34ac 6cbc 09c1 0fbe 8e71 a1bd
00000350: 8078 2bbd 3d83 04be debc 833d 20a7 49be
00000360: a3c6 1b3e 05af bbbd 6ab6 9dbc c6d0 8d3d
00000370: e51c 9dbd 0afd 8dbd 3831 b5be 06ba 50be
00000380: baa8 993e 7bfb 393d f8f4 a4be 45fa 3cbe
00000390: 9237 78bc 925f a1bc 994f 493e 6d21 ca3b
000003a0: fb2f 9ab9 42ba 8e3e c258 503e a53e 523e
000003b0: 9415 083e 881e 603e f450 f33d 0183 e33e
000003c0: 12ba dd3e 169d 4ebd 5a30 3cbd dff3 68bd
000003d0: 6727 513e 14c8 763e 0830 8cbd 7f76 453e
000003e0: e6d8 593e 7a65 3cbd 8bfb 403e 979e f0bd
000003f0: 0702 2a3d 2a2e 20be 38a8 493e d191 183e

fc.0.bias f4 [128]
-0.15438394 0.008201204 -0.14163528 -0.106029846 -0.21763156 0.035460614 0.09201008 0.0906219
0.11229555 0.15491742 -0.012568196 -0.03139274 -0.042995222 0.031120507 0.01634254 -0.028175022
-0.12339544 -0.12971424 -0.18913046 0.035942163 0.15509772 0.12279201 -0.1319223 0.17118484
-0.14786851 -0.18398768 -0.015204979 0.051736802 0.11557832 0.14604098 -0.13529824 -0.23629765
-0.074404925 -0.22364359 0.021615652 -0.010532645 0.019890344 -0.3731291 -0.12993437 0.023864662
-0.011497951 0.10938509 0.13411808 -0.104074754 0.006824362 0.15581064 0.15529092 -0.0005754053
0.06444151 -0.03646585 0.0020016264 0.044062905 0.15138331 0.2782814 0.08286078 0.029963365
0.018157113 -0.09207645 0.031888697 -0.0059031597 0.044497788 -0.019625764 0.03911459 0.099355415
-0.07921489 0.0867409 0.18190399 0.073716976 -0.11658801 -0.08353626 -0.108812064 -0.07875298
0.07767447 -0.1528899 -0.07980408 0.02359241 -0.111482605 0.06796416 -0.04816471 0.062954694
-0.003956986 0.036839165 -0.14851916 0.08053868 -0.16173285 0.079720736 0.085962944 -0.13783903
-0.04311756 -0.04999693 -0.19080502 0.147563 -0.12612678 -0.11872629 0.08099081 -0.11319823
0.021950424 0.033326965 -0.0046617547 0.05529761 -0.115361735 0.10733382 -0.08073509 0.07648574
-0.061724607 0.15239944 -0.22999413 0.026734687 -0.1580825 0.10525073 -0.22968623 -0.043847386
-0.13601564 0.059096813 -0.00499284 -0.08515352 0.16853632 -0.23753417 -0.07199735 -0.064620964
0.19527788 -0.14217676 -0.19313489 -0.1385999 0.15797123 0.042233318 -0.032924227 0.072797105
00000000: d316 1ebe 585e 063c d708 11be 2d26 d9bd
00000010: cfda 5ebe 263f 113d c86f bc3d fa97 b93d
00000020: 36fb e53d aca2 1e3e d6ea 4dbc ac95 00bd
00000030: c21b 30bd 6ff0 fe3c cae0 853c 4ecf e6bc
00000040: c0b6 fcbd cfd3 04be 6aab 41be 1738 133d
00000050: f0d1 1e3e 617a fb3d a416 07be 144b 2f3e
00000060: d86a 17be 4467 3cbe 4e1e 79bc f8e9 533d
00000070: 54b4 ec3d c48b 153e 9f8b 0abe 03f8 71be
00000080: 9c61 98bd d302 65be 4f13 b13c 1d91 2cbc
00000090: 13f1 a23c c70a bfbe 840d 05be d37f c33c
000000a0: e761 3cbc 4a05 e03d 4056 093e 2525 d5bd
000000b0: e69e df3b d38c 1f3e 9504 1f3e ccd6 16ba
000000c0: e9f9 833d 375d 15bd b82d 033b 4e7b 343d
000000d0: 3a04 1b3e e67a 8e3e eab2 a93d bb75 f53c
000000e0: 3abe 943c 9492 bcbd b99d 023d 4b6f c1bb
000000f0: 5043 363d 36c6 a0bc 9f36 203d da7a cb3d
00000100: 6b3b a2bd 37a5 b13d 0a45 3a3e edf8 963d
00000110: b2c5 eebd 0f15 abbd dcd8 debd 3e49 a1bd
00000120: cb13 9f3d 2c8f 1cbe 5270 a3bd df44 c13c
00000130: fe50 e4bd cb30 8b3d 5c48 45bd 64ee 803d
00000140: 9ba9 81bb aae4 163d 6815 18be 77f1 a43d
00000150: 4c9d 25be a044 a33d 570d b03d ad25 0dbe
00000160: 0a9c 30bd 95c9 4cbd 6462 43be c11a 173e
00000170: 6127 01be c526 f3bd 83de a53d 79d4 e7bd
00000180: 60d1 b33c db81 083d a2c1 98bb bf7f 623d
00000190: c642 ecbd d5d1 db3d 7058 a5bd 8ea4 9c3d
000001a0: f1d2 7cbd 990e 1c3e 9583 6bbe b402 db3c
000001b0: 61e0 21be b28d d73d de32 6bbe 5199 33bd
000001c0: af47 0bbe 800f 723d fa9a a3bb f864 aebd
000001d0: c994 2c3e 283c 73be 5973 93bd ff57 84bd
000001e0: edf6 473e c996 11be 27c5 45be 22ed 0dbe
000001f0: 36c3 213e d8fc 2c3d 8edb 06bd a616 953d

fc.2.weight f4 [64, 128]
0.1985799 0.81328946 0.0026139345 0.026483107 -0.09992157 0.09340672 0.65012527 -0.18399684
0.6284514 -0.14953503 0.22226101 -0.48707888 -0.27379653 -0.1221158 0.286689 -0.35356745
-0.035062246 -0.24049777 0.07113889 0.060732745 0.23234215 0.19331405 -0.53490114 0.3845919
0.07108854 -0.4237227 -0.14284441 -0.017981106 0.013574246 0.5534806 0.069915555 -0.064104386
-0.0674792 -0.036902543 0.17501628 0.40943304 -0.42373958 -0.071330965 -0.9846514 0.0037168504
0.1752555 1.2518938 0.35444573 -0.30902562 -0.028533936 -0.056778517 0.21675293 -0.5181997
-0.1245269 0.4869663 -0.24017182 0.93136257 0.34139156 0.03291869 0.2295055 0.34325582
0.22845168 0.5057768 0.13529432 -0.3045532 0.12940271 -0.19128418 0.09088864 0.046509925
0.23936777 -0.085654676 -0.07519808 0.17166016 0.32833996 -0.36864907 0.16669488 0.11202262
0.107973605 0.0813382 -0.19222833 -0.35416415 -0.662527 0.27612954 0.17878604 -0.16691485
0.3791565 -0.3006556 -0.7670351 -0.36443043 0.00096234184 -0.67692685 0.32005167 0.13933232
0.37959245 0.46368182 -0.1352857 0.2461879 -0.1548581 0.38840425 0.39930695 0.031638008
0.028426228 -0.03862152 -0.96688414 0.19992582 -0.15949759 -0.3496682 -0.21255615 -0.14593239
-0.017328618 -0.010779644 -0.031144641 -0.05173907 0.047652107 -0.00011531546 -0.0031045976 -0.07202391
-0.29366922 -0.15413687 -0.14467286 -0.30679208 0.3457591 0.010770923 0.2984312 0.25604117
0.79608005 0.24964567 -0.02587365 0.05876583 0.21233933 0.8571209 -0.42279693 0.022917643
-0.026844103 0.09986392 -0.15181914 -0.5020386 0.17801602 0.3623266 0.34984672 -0.31165835
-0.008456636 -0.11745873 0.29713178 -0.59990686 -0.6264642 -0.34074065 0.2322856 -0.26023266
0.20595694 0.2919897 0.11747021 -0.16265629 0.36374277 0.06456827 -0.45020294 -0.39766577
-0.066136114 -0.08514746 0.07292833 0.5397284 -0.2590643 0.6619226 -0.027958049 0.1472547
0.16918261 0.21715128 0.035241485 0.095039256 -0.61792034 -0.043915458 -0.3080065 0.229286
0.18546195 0.15794285 -0.50559205 -0.12310487 -0.40753812 -0.2808672 -0.36155704 -0.40730605
-0.13117859 0.19593224 0.039106887 0.20279546 -0.13985157 -0.094762355 0.44481435 0.08076214
-0.15562049 0.27423543 -0.037354466 0.038587607 0.052172266 0.054276127 -0.27669773 -0.18440717
-0.2382996 -0.2984974 -0.072588935 -0.1478826 0.15213068 -0.23209038 0.06323305 0.8456203
0.73218966 0.16143098 -1.0188645 -0.54554516 -0.11156603 -0.52083975 0.17932549 0.24594522
-0.24555975 0.06806126 -0.03562785 -0.026645599 0.381647 -0.59567875 -0.18085463 -0.002413374
0.07239841 0.37902784 0.15887703 -0.12797768 -0.023740806 0.30047646 -0.09554063 -0.29138163
-0.08621292 -0.061909396 0.06102416 0.4144554 -0.33534938 -0.4549744 0.3564146 -0.26406562
0.5519308 -0.008812764 -0.009057329 0.38367152 0.04354504 -0.011447538 0.010238357 -0.09613018
0.059868112 -0.16992918 -0.18071726 -0.6655233 -0.30780697 0.11298497 0.37871438 0.9671487
-0.020306688 -0.012923523 -0.034648366 0.4209202 -0.12568772 0.29537717 -0.1596211 -0.5269566
00000000: 8858 4b3e bd33 503f 8b4e 2b3b 1af3 d83c
00000010: aea3 ccbd 064c bf3d 9c6e 263f ab69 3cbe
00000020: 31e2 203f b61f 19be 6498 633e 6762 f9be
00000030: 0f2f 8cbe d917 fabd e7c8 923e cb06 b5be
00000040: 6e9d 0fbd 0c45 76be 44b1 913d e6c2 783d
00000050: 1aeb 6d3e 1ef4 453e 48ef 08bf 3be9 c43e
00000060: de96 913d 2ff2 d8be ce45 12be 1d4d 93bc
00000070: 8466 5e3c e8b0 0d3f e32f 8f3d 2949 83bd
00000080: 8932 8abd 1f27 17bd 7837 333e 35a1 d13e
00000090: 65f4 d8be f815 92bd 1d12 7cbf 6796 733b
000000a0: 2e76 333e 0e3e a03f e979 b53e 9b38 9ebe
000000b0: 00c0 e9bc 9790 68bd 7bf4 5d3e bca8 04bf
000000c0: f607 ffbd a653 f93e 9aef 75be c76d 6e3f
000000d0: e0ca ae3e c0d5 063d 7d03 6b3e 3abf af3e
000000e0: 3def 693e 977a 013f 988a 0a3e 66ee 9bbe
000000f0: 2582 043e 00e0 43be d323 ba3d 3181 3e3d
00000100: d31c 753e b86b afbd 7301 9abd aec7 2f3e
00000110: 2d1c a83e 92bf bcbe 10b2 2a3e 1e6c e53d
00000120: 4421 dd3d a494 a63d 81d7 44be 0155 b5be
00000130: 5f9b 29bf da60 8d3e b013 373e baeb 2abe
00000140: cd20 c23e 88ef 99be 6a5c 44bf a096 babe
00000150: ab45 7c3a 144b 2dbf d0dd a33e 22ad 0e3e
00000160: f159 c23e b467 ed3e 5688 0abe ae18 7c3e
00000170: 1f93 1ebe ecdc c63e f671 cc3e db96 013d
00000180: 1fde e83c 9931 1ebd b885 77bf 5bb9 4c3e
00000190: 5653 23be b607 b3be 52a8 59be 4d6f 15be
000001a0: bff4 8dbc 1b9d 30bc 0c23 ffbc 59ec 53bd
000001b0: db2e 433d 84d5 f1b8 8176 4bbb 4681 93bd
000001c0: d05b 96be 0ed6 1dbe 1f25 14be da13 9dbe
000001d0: 5607 b13e 8778 303c f9cb 983e d417 833e
000001e0: e7cb 4b3f 1da3 7f3e faf4 d3bc 70b4 703d
000001f0: 7b6f 593e 466c 5b3f d778 d8be c8bd bb3c
00000200: 2ae8 dbbc 7485 cc3d 7a76 1bbe 9a85 00bf
00000210: d549 363e df82 b93e 1c1f b33e af91 9fbe
00000220: b48d 0abc 348e f0bd a821 983e 7f93 19bf
00000230: f55f 20bf 8f75 aebe 47dc 6d3e 373d 85be
00000240: 60e6 523e ad7f 953e 3994 f03d 5f8f 26be
00000250: 7e3c ba3e 5f3c 843d 0081 e6be d99a cbbe
00000260: 5f72 87bd cb61 aebd 735b 953d a42b 0a3f
00000270: 13a4 84be c273 293f 4708 e5bc f0c9 163e
00000280: 353e 2d3e e85c 5e3e 6059 103d f1a3 c23d
00000290: 0730 1ebf b2e0 33bd 07b3 9dbe f3c9 6a3e
000002a0: bde9 3d3e c5bb 213e 7b6e 01bf 681e fcbd
000002b0: d6a8 d0be d3cd 8fbe 011e b9be 6b8a d0be
000002c0: ae53 06be 76a2 483e 8b2e 203d 9da9 4f3e
000002d0: 4035 0fbe c412 c2bd b5be e33e 9f66 a53d
000002e0: fa5a 1fbe 9668 8c3e ff00 19bd 0a0e 1e3d
000002f0: 96b2 553d a550 5e3d 53ab 8dbe 3cd5 3cbe
00000300: cf04 74be a7d4 98be 82a9 94bd 896e 17be
00000310: 25c8 1b3e 1aa9 6dbe 5480 813d 927a 583f
00000320: c870 3b3f 2a4e 253e 276a 82bf d9a8 0bbf
00000330: bb7c e4bd c155 05bf 1aa1 373e 10d9 7b3e
00000340: 0474 7bbe b463 8b3d 82ee 11bd df47 dabc
00000350: 3c67 c33e 677e 18bf f531 39be b229 1ebb
00000360: 9e45 943d f00f c23e a9b0 223e 950c 03be
00000370: 147c c2bc 0dd8 993e ceaa c3bd f92f 95be
00000380: 6690 b0bd b594 7dbd 78f4 793d 8033 d43e
00000390: eab2 abbe 68f2 e8be f97b b63e 9c33 87be
000003a0: 564b 0d3f 6963 10bc 3165 14bc 9870 c43e
000003b0: 495c 323d 748e 3bbc c8be 273c e6df c4bd
000003c0: 4438 753d ea01 2ebe f20d 39be bc5f 2abf
000003d0: e098 9dbe aa64 e73d dae6 c13e 0f97 773f
000003e0: 365a a6bc 2fbd 53bc 72eb 0dbd da82 d73e
000003f0: 48b4 00be ad3b 973e b773 23be a1e6 06bf

fc.2.bias f4 [64]
0.040642418 0.076710865 -0.06479939 0.09895287 0.02658491 0.22104637 -0.1759361 0.052927427
-0.17215098 0.15030451 0.19359855 0.18027595 0.0053112465 0.048537664 0.016331736 -0.0639628
0.12797478 0.06812278 -0.1979426 0.25283992 0.35134855 -0.025421958 0.0350284 -0.07340551
-0.16362539 -0.2045199 -0.23656358 -0.29650855 0.0016355618 -0.025812857 0.22680548 -0.008714511
0.04617472 -0.17200188 0.2423035 -0.055681203 0.03439983 -0.33877754 0.09358094 -0.11178465
-0.21747625 -0.013896549 -0.034848757 -0.11010931 -0.15190986 0.05581608 -0.11007007 0.22950326
-0.117871374 -0.01458562 -0.11360001 0.043308668 -0.15440889 -0.11327234 -0.18003802 0.040148895
-0.095158435 0.36568105 -0.08578625 -0.15122029 -0.10817825 -0.038437475 0.20340827 -0.082396016
00000000: aa78 263d 961a 9d3d 8bb5 84bd cda7 ca3d
00000010: 99c8 d93c fb59 623e 9828 34be 6eca 583d
00000020: 5948 30be 6de9 193e b33e 463e 429a 383e
00000030: f709 ae3b 6ecf 463d 22ca 853c eefe 82bd
00000040: d20b 033e f583 8b3d 77b1 4abe 3c74 813e
00000050: f5e3 b33e b641 d0bc f179 0f3d a155 96bd
00000060: 6a8d 27be aa6d 51be b93d 72be f8cf 97be
00000070: 5960 d63a 7c75 d3bc b23f 683e 4fc7 0ebc
00000080: b421 3d3d 4321 30be 691e 783e f911 64bd
00000090: d6e6 0c3d 4074 adbe 5da7 bf3d 5aef e4bd
000000a0: 18b2 5ebe 5aae 63bc 92bd 0ebd fd80 e1bd
000000b0: 428e 1bbe 679f 643d 6b6c e1bd e702 6b3e
000000c0: 8c66 f1bd 86f8 6ebc 1fa7 e8bd 6e64 313d
000000d0: 5d1d 1ebe 54fb e7bd e35b 38be 2b73 243d
000000e0: 6de2 c2bd 8c3a bb3e b4b0 afbd 7ed9 1abe
000000f0: 8f8c ddbd 9d70 1dbd 424a 503e 3ebf a8bd

fc.4.weight f4 [33, 64]
-0.12034102 0.027109697 -0.06825033 -0.051527604 0.010162711 0.10543521 -0.035493523 -0.11413686
-0.048771113 -0.033823 0.027713224 0.015970126 -0.10806945 -0.032828793 -0.041978136 0.10887982
-0.090340376 0.07717194 -0.050560564 0.09103952 -0.037026897 0.0007199496 0.108394474 0.06285328
-0.074729204 -0.077256635 0.07457091 0.07474287 0.0102042705 -0.0014033914 0.048304394 -0.027419627
0.05263701 0.05897878 0.093599185 0.09851289 0.08748616 0.12029828 -0.004951194 0.03012383
-0.04948114 -0.007477075 -0.014544129 0.111444324 0.02583772 0.07930195 0.040160418 -0.054365456
-0.12094909 -0.08887412 0.070855826 0.0067632347 0.038433 -0.07339722 0.07741435 0.021652162
0.08885135 0.08634229 -0.0636151 0.0449681 -0.0916522 -0.12366615 -0.014446706 -0.124344364
0.044200778 0.12025012 -0.07656737 0.08794299 0.035753638 0.013225809 0.05473499 0.11802618
-0.10053994 0.034179717 -0.09537266 0.09335397 -0.03409955 0.07909535 -0.016116425 0.022469714
-0.040248588 0.012753472 -0.03767468 0.01986669 0.05174181 -0.06815964 -0.09856373 -0.055506527
-0.10777761 -0.10817073 0.11737327 -0.06821491 -0.07670164 -0.12084387 -0.12432167 -0.0364881
0.06657615 0.021224827 0.10920368 -0.05084528 0.10720861 0.008760259 0.074476 0.023377687
-0.018288687 0.051118135 0.06261924 -0.09127644 0.004454404 -0.114309 0.0824056 0.0009988099
0.00804162 -0.06791657 -0.0511169 0.09083733 0.08337471 0.07086356 0.091184154 -0.11816439
-0.042647734 0.041952178 0.03949003 -0.04358037 0.02250491 -0.117542624 -0.080202624 -0.10304794
0.03686607 -0.046574816 0.0014814287 -0.12423991 -0.024856418 -0.003283441 -0.03066878 -0.015868917
-0.053441033 0.11024609 0.014710262 0.09335439 -0.048841298 0.12116012 0.03259945 0.033790514
-0.0326311 0.054102898 0.03396043 -0.017210037 -0.01689142 -0.1145228 -0.0966436 -0.05496551
0.080972314 0.090984896 0.040138647 -0.0766781 -0.07893297 -0.0004425794 0.050300807 -0.053894818
0.047320694 -0.087708026 0.039522126 -0.07364607 -0.021426499 -0.09990735 0.009476498 0.10975213
-0.12378238 0.056178242 0.11378029 -0.043528825 -0.043328077 0.122251734 0.1105542 0.0268282
-0.051156268 0.0082731545 -0.016282603 0.07351719 -0.038956627 -0.113624975 -0.042753696 -0.04121074
-0.1014024 -0.02962628 -0.10828303 -0.03134261 -0.07964815 -0.035091206 0.111848384 0.04384993
-0.06360085 0.020971656 0.0047129095 -0.012900248 0.062885955 0.101447776 0.09044434 -0.024496153
0.06458722 0.122287124 0.0719551 -0.11070593 -0.006091982 -0.100085884 -0.121928126 0.0998836
-0.0334495 -0.004692033 -0.030419886 0.09881495 -0.060394943 0.0044033825 0.055028975 0.065506116
0.0036201924 -0.1056107 -0.029476523 -0.016213968 0.04691218 -0.0050102323 -0.10196361 -0.075414315
0.0032880306 -0.0098302215 0.11507854 -0.030248314 0.05845429 0.123868346 0.0590173 -0.06909621
0.034878507 -0.047575995 -0.07693344 0.0782561 -0.06332849 0.095086336 0.05185646 -0.010193393
-0.089933485 0.013469428 0.11280657 -0.124308646 -0.071952134 -0.00042583048 -0.06868446 0.080106705
0.116662025 0.11641052 -0.038896635 0.06989497 -0.028471947 -0.118262246 -0.010919571 -0.06507705
00000000: 5a75 f6bd 2815 de3c d4c6 8bbd 9c0e 53bd
00000010: 8081 263c 6aee d73d a861 11bd 96c0 e9bd
00000020: 38c4 47bd fc89 0abd d806 e33c c8d3 823c
00000030: 8453 ddbd 7c77 06bd 44f1 2bbd 62fc de3d
00000040: 6004 b9bd 520c 9e3d 9818 4fbd ee72 ba3d
00000050: 84a9 17bd 00bb 3c3a ecfd dd3d 38b9 803d
00000060: a00b 99bd ba38 9ebd a2b8 983d ca12 993d
00000070: d02f 273c 00f2 b7ba d4da 453d 209f e0bc
00000080: e899 573d bc93 713d eeb0 bf3d 20c1 c93d
00000090: f22b b33d f25e f63d a03d a2bb 40c6 f63c
000000a0: bcac 4abd 4002 f5bb 804a 6ebc ec3c e43d
000000b0: a0a9 d33c 1069 a23d 407f 243d 50ae 5ebd
000000c0: 28b4 f7bd a203 b6bd dc1c 913d 209e dd3b
000000d0: ec6b 1d3d 4851 96bd 6a8b 9e3d e05f b13c
000000e0: b2f7 b53d 3ad4 b03d a248 82bd 7830 383d
000000f0: 26b4 bbbd ae44 fdbd e0b1 6cbc 42a8 febd
00000100: e00b 353d b245 f63d 5acf 9cbd 741b b43d
00000110: 6872 123d 10b1 583c cc31 603d b6b7 f13d
00000120: e2e7 cdbd 0800 0c3d be52 c3bd 5e30 bf3d
00000130: f8ab 0bbd befc a13d 9806 84bc 6812 b83c
00000140: b4db 24bd f0f3 503c c450 1abd 78bf a23c
00000150: 38ef 533d 4897 8bbd c8db c9bd d05a 63bd
00000160: 82ba dcbd 9e88 ddbd 6661 f03d 42b4 8bbd
00000170: c015 9dbd fe7c f7bd 5c9c febd 8c74 15bd
00000180: 1459 883d b0df ad3c 2ea6 df3d 2443 50bd
00000190: 3090 db3d 3087 0f3c e086 983d 9082 bf3c
000001a0: 28d2 95bc 4061 513d 843e 803d 24ef babd
000001b0: 40f6 913b d61a eabd 44c4 a83d 80ea 823a
000001c0: 00c1 033c d817 8bbd f45f 51bd ec08 ba3d
000001d0: 5cc0 aa3d ea20 913d c2be ba3d 2c00 f2bd
000001e0: 64af 2ebd 0cd6 2b3d 4cc0 213d 5481 32bd
000001f0: 385c b83c 30ba f0bd 4641 a4bd cc0a d3bd
00000200: e000 173d 3cc5 3ebd 802c c23a 7e71 febd
00000210: b09f cbbc 002f 57bb 183d fbbc 88ff 81bc
00000220: fce4 5abd b4c8 e13d 5003 713c 9630 bf3d
00000230: d00d 48bd cc22 f83d 0087 053d ec67 0a3d
00000240: 30a8 05bd 009b 5d3d 181a 0b3d 10fc 8cbc
00000250: e05f 8abc ee8a eabd 14ed c5bd 8423 61bd
00000260: d0d4 a53d 4a56 ba3d 6c68 243d 6809 9dbd
00000270: 9ca7 a1bd 000a e8b9 3808 4e3d d0c0 5cbd
00000280: 58d3 413d 44a0 b3bd f4e1 213d c0d3 96bd
00000290: a086 afbc 3a9c ccbd 5043 1b3c bac5 e03d
000002a0: 9e81 fdbd 281b 663d a405 e93d 484b 32bd
000002b0: c878 31bd 1e5f fa3d 3e6a e23d d0c6 db3c
000002c0: 3c89 51bd 208c 073c 1863 85bc 2e90 963d
000002d0: fc90 1fbd 36b4 e8bd 801e 2fbd 98cc 28bd
000002e0: 10ac cfbd d0b2 f2bc 7ec3 ddbd 1c61 00bd
000002f0: 921e a3bd ccbb 0fbd c410 e53d fc9b 333d
00000300: 2a41 82bd c0cc ab3c c06e 9a3b 905b 53bc
00000310: 5aca 803d dac3 cf3d e23a b93d 28ac c8bc
00000320: 4e46 843d ac71 fa3d 325d 933d cab9 e2bd
00000330: 409f c7bb d4f9 ccbd 74b5 f9bd c68f cc3d
00000340: 5802 09bd a0bf 99bb 2033 f9bc 7e5f ca3d
00000350: b060 77bd 404a 903b 1066 613d 1228 863d
00000360: c040 6d3b 6c4a d8bd c078 f1bc 28d3 84bc
00000370: fc26 403d e02c a4bb 4cd2 d0bd d272 9abd
00000380: 007c 573b f00e 21bc 4cae eb3d 50cb f7bc
00000390: c46d 6f3d b0ae fd3d 20bc 713d 5082 8dbd
000003a0: c4dc 0e3d 0cdf 42bd 488f 9dbd bc44 a03d
000003b0: 5eb2 81bd a0bc c23d 7067 543d 3002 27bc
000003c0: 0c2f b8bd e0ae 5c3c 2207 e73d 8895 febd
000003d0: a45b 93bd 0042 dfb9 70aa 8cbd fc0e a43d
000003e0: 80ec ee3d a468 ee3d 1452 1fbd 1825 8f3d
000003f0: 003e e9bc 7a33 f2bd 00e8 32bc 1e47 85bd

fc.4.bias f4 [33]
0.106656715 0.10272318 -0.1194302 -0.09870279 -0.039555952 -0.06350447 -0.067000195 0.054319143
0.456491 0.1551355 -0.45572156 -0.3998547 0.3462977 0.014229944 -0.24935432 -0.31859034
0.1652552 0.06377278 -0.28701586 -0.19420776 -0.08164445 -0.10744043 -0.1266255 -0.014515928
-0.10697524 0.103227615 -0.15124011 -0.056679357 -0.18882261 -0.19999158 0.22587389 0.5972654
0.1383653
00000000: d66e da3d 8860 d23d d297 f4bd b024 cabd
00000010: 6c05 22bd a20e 82bd 6637 89bd c07d 5e3d
00000020: 30b9 e93e d7db 1e3e 5654 e9be c1b9 ccbe
00000030: ef4d b13e b624 693c bd56 7fbe 461e a3be
00000040: a938 293e 4e9b 823d bef3 92be 66de 46be
00000050: 3535 a7bd ba09 dcbd 1daa 01be 37d4 6dbc
00000060: d615 dbbd 0069 d33d b0de 1abe 9d28 68bd
00000070: b75a 41be 98ca 4cbe 7c4b 673e 63e6 183f
00000080: a2af 0d3e
