models/policy_m1.pt (torch_old, 99515 bytes, 6 tensors)

fc.0.weight f4 [128, 110]
00000000: 8f40 1fbd 7258 f1bd 729b 0c3e e6ba 39bd
00000010: 3a07 2bbe a650 02be 26a5 84be a813 26be
00000020: b415 27be 0084 aa3e 26ef f73b 4a1d 803e
00000030: 343e b7bd 9a3b 00bd b32c 3cbd af2a 643e
00000040: 126e d5bd f8ef c4bc 05e5 ef3d 1242 0dbc
00000050: 74cb 363e 0a36 453e a001 1e3e baca 1b3e
00000060: 27a6 d3bd 3a08 ab3d 0009 c93c 4576 4c3e
00000070: 1f78 863e 8d8e 243d 1f5a a03e ce0e e93c
00000080: 2cfe 363d 6b0e bc3d af33 0b3e efb7 b9ba
00000090: dfff c6bd 78c9 223e 91bc e03d 2458 a2bd
000000a0: 0c9a 4d3e 40ba 03bd 26ff fc3c ffb0 ac3e
000000b0: acbd c3bd cc2c 693d 1231 a7bc 4c16 3d3e
000000c0: 0e62 683c d988 a0bd 1b3f 393e aec6 5b3d
000000d0: 6cc3 913c 78e8 30ba 7389 3c3e f22c 56bc
000000e0: edf6 313e 8a86 423e 08ef 75bc 2e97 54bc
000000f0: 61d6 f93d e227 913e 8fd6 05be 6730 c2bd
00000100: e3bc 33bd 855f 173e 227c da3d 87d5 003d
00000110: c73a 6f3d a2b0 e93d 27c2 4c3e a44e c53d
00000120: 0b33 3a3d 28f9 a9bc f97b 8d3e 0cb2 913d
00000130: c349 2b3e 6123 b53d fa2b 1a3d b796 d63d
00000140: 8d64 273e dfc8 c63c c649 0cbc df6e 89bd
00000150: 4c61 09be 28d3 ef3d 86ad 81bb 81d9 bf3e
00000160: 01a4 633d ff50 92ba d366 b1bb 9f88 073e
00000170: 6300 b83c 1f07 103e bb52 26be e74d f13d
00000180: 817b 57bd 0db1 483b 978a 67bd e56a 25bc
00000190: 41cb 683e fec8 2abe 9785 163b c4a3 89bd
000001a0: 59d9 8ebc da9e a13d d050 b0bd 7028 543e
000001b0: 584a 0b3e 81b4 473e 669c 8a3d e980 bcbe
000001c0: 8e1f a8be 9d91 bcbe 46ba 01be 9c2d 24be
000001d0: b838 81be e53a f1bc 294a 473e 3a1f 6b3e
000001e0: f7e7 613e a1fd 293e 97f4 ab3d 3016 613d
000001f0: 8ea2 883e bf43 e0bc 26ff 4e3c 304f e7bb
00000200: 04c5 b23c 78c1 efbc d9d1 1fbc 7586 643e
00000210: d63d dcbd d4aa aabb a72c 41ba 5872 5abd
00000220: ef52 a93d 8a3f bc3d 5707 8f3d f1f8 ef3c
00000230: 54d1 703b 6455 c83d e897 183e 9b97 303e
00000240: cc26 703e a84e 85bd de59 313e 823b c63d
00000250: 7576 cbbd d37c 12bd b704 fbbd e850 bc3d
00000260: 88e2 e03d 047b ed3b d349 2abc 3593 753d
00000270: 4bce b43d 67d4 403e b511 24be 0b9d 1a3d
00000280: aed1 25bd 0747 943d 3634 33be 2703 7e3d
00000290: 3c30 593e bad0 1e3e 74f4 3e3e f9fb 813e
000002a0: a59f b83e f054 233e aac0 a1bc 2a26 863d
000002b0: 1357 e9bd 694c 9b3d 4928 8c3c 756c 663d
000002c0: e149 7f3c 82ea 12bd ab9f 913e ca36 b43d
000002d0: 19fe 56be 6c3b 1ebe 5d7b 85bc 848a 17be
000002e0: df30 febd 41a8 2cbe 6b01 66bd 7196 5b3d
000002f0: fd8e 1e3e c31e 38be e24e 86bd b5cf 7bbc
00000300: c0c2 0e3e b857 623c 49a9 59be 9aa2 f9bd
00000310: ad09 80bd 925a ab3d 272d 823c 3ae9 a83a
00000320: 14c0 c8bd ec73 56bd 63e8 7e3d 1120 483d
00000330: 5ef2 22be a307 29bd a7ba 433c f5a1 98bd
00000340: 6a85 2fbe 2f0e 8b3d ce78 113e 0b07 d63d
00000350: 5f09 2abe 68e8 9bbd d4ac b83d 3e89 1cbe
00000360: 5deb 31bd b0ca 1dbd 4a17 7c3c b791 203e
00000370: e51c 9dbd 7707 5ebe 56b0 1bbd e43d c4bd
00000380: 9c97 643e e344 f0bd ae14 55be d7a1 80be
00000390: 29ec bbbd 305f ba3d 03dd 143d 0941 823d
000003a0: 26cb 08be 78c1 6abd af2d 91bd 6623 163e
000003b0: 1f45 8bbd e4ff cebd 2b36 26be dd8a c63c
000003c0: 79f4 cfbc d988 753d 3b02 e63d a272 2fbc
000003d0: 029e c23c 8e3c d93d 123d cdbd 5bf1 5fbe
000003e0: f83d 753d d779 433c 2ae9 423e 1fc2 223b
000003f0: 2184 2138 4afa 36be 08d2 3a3d 78c0 90bd
-0.038879927 -0.11784448 0.13731173 -0.045344256 -0.16701975 -0.12726077 -0.25907248 -0.16218436
-0.16316873 0.33303833 0.0075663505 0.25022346 -0.08947411 -0.03130684 -0.045941066 0.22281907
-0.10421385 -0.024040207 0.11713604 -0.008621709 0.17851049 0.19258896 0.15430307 0.15214053
-0.103344254 0.083511785 0.024540424 0.19966991 0.2626352 0.04017501 0.31318757 0.028449442
0.04467599 0.091824375 0.13593934 -0.0014169196 -0.09716772 0.15897167 0.10973466 -0.07926968
0.20078295 -0.032160044 0.030883383 0.33728787 -0.095576614 0.056927487 -0.02040914 0.18465537
0.014183534 -0.078386016 0.18090479 0.053656273 0.01779338 -0.0006748508 0.18411808 -0.013072239
0.17379351 0.18996635 -0.015010603 -0.012975497 0.12199093 0.2835074 -0.13070129 -0.09481888
-0.04388131 0.14782532 0.10668208 0.031453636 0.058405664 0.11410643 0.19995938 0.0963414
0.045458835 -0.02074869 0.27633646 0.07114038 0.16727357 0.088446386 0.037639596 0.10477965
0.16346951 0.024265705 -0.008562511 -0.067106 -0.13416022 0.11710197 -0.003957453 0.3747063
0.05557633 -0.0011163055 -0.005413869 0.1323571 0.022461122 0.14065216 -0.16242497 0.11782437
-0.052608017 0.0030623109 -0.056528654 -0.010096286 0.22733785 -0.16678235 0.002296781 -0.06720689
-0.017437624 0.07891627 -0.08609164 0.2071855 0.13602579 0.1950245 0.06768112 -0.368171
-0.32836574 -0.36829844 -0.12668714 -0.16033024 -0.25238585 -0.029447028 0.19461884 0.2296113
0.22061144 0.16600658 0.08396261 0.0549528 0.2668652 -0.027376054 0.012634074 -0.0070590004
0.02182246 -0.029267058 -0.009754621 0.22316916 -0.10753982 -0.0052083526 -0.00073690194 -0.053331703
0.082677715 0.091918066 0.06983822 0.02929351 0.0036745863 0.09781912 0.14901698 0.17245333
0.234523 -0.06509143 0.17319438 0.09679319 -0.09934703 -0.035763573 -0.12256759 0.09195119
0.109807074 0.0072473306 -0.010393578 0.05995484 0.0882841 0.18831025 -0.1602238 0.037747424
-0.04048317 0.0724011 -0.17500386 0.062014725 0.21209806 0.1550931 0.18647939 0.25387552
0.360593 0.1595037 -0.01974519 0.06550248 -0.11393561 0.075829335 0.017109053 0.056255776
0.015581579 -0.035868175 0.2844213 0.08799513 -0.20995368 -0.15452355 -0.016294176 -0.14798933
-0.12411665 -0.16861059 -0.056153696 0.05361027 0.15484233 -0.17980485 -0.065580145 -0.015369345
0.13941479 0.013814859 -0.21255983 -0.12189217 -0.062518455 0.08366884 0.015890671 0.001288689
-0.09802261 -0.052356645 0.06223334 0.048858706 -0.15912768 -0.04126705 0.011946357 -0.07452766
-0.17140737 0.06789815 0.1420624 0.10450562 -0.16605137 -0.07612687 0.09017339 -0.15286729
-0.04343735 -0.038523376 0.015386412 0.15680586 -0.07671527 -0.21682535 -0.038009964 -0.09582117
0.2232346 -0.11731889 -0.2080867 -0.25123474 -0.09175903 0.09100187 0.036343586 0.06360061
-0.13358745 -0.057313412 -0.070887916 0.14661941 -0.06800293 -0.10107401 -0.16231601 0.024236137
-0.025385128 0.05994496 0.11230894 -0.010708483 0.023756985 0.10607253 -0.10021414 -0.21869414
0.05987355 0.011930904 0.19034258 0.0024834943 3.8508446e-05 -0.17868915 0.045610458 -0.070679605

fc.0.bias f4 [128]
00000000: 5b26 ecbd c247 31bd 8204 37be d21d 1dbe
00000010: 1c60 b5bd 6a40 393d b527 3d3e 8fc5 d43d
00000020: dabe 483e b527 b53d c757 243d 3d47 80bd
00000030: dbb6 f4bc 8894 f13c fd82 823d 04f9 c4bd
00000040: a17b a5bd bdf7 48be 8c85 f1bd 1e67 d13c
00000050: 45de 083e 5653 f13d 6faf 18be 0c25 633e
00000060: 15c8 94bc 4725 18be 1516 2dbe 825f c83c
00000070: 1e8b 093e 5bd7 333e 7c85 e0bd e928 10be
00000080: 373f 7abd 0dfa 72be 7514 113c 5fb1 44bd
00000090: 52a8 8cb9 f204 8ebe edfb e6bd 2aa5 b03c
000000a0: be25 5ebc 9ffc 573d b46b e53d 0000 e4bd
000000b0: 786a 423c 1974 3d3e a1cc f93d bf1d 813c
000000c0: a3e8 2c3e 3198 57bd 5135 84bc 1059 c03d
000000d0: d192 2d3e 94c0 183e c074 c53d c0ef 00bb
000000e0: 95d6 e23d f453 04be 856a 813d ed29 67bd
000000f0: 19b2 6fbc 71ea 643d 834c 86bd 8584 823d
00000100: 4d9b f6bc a4d5 5f3d 5458 4d3e a6d9 143e
00000110: ba23 1fbe 9cea 06be 5cf8 1cbc 6ade 95bd
00000120: 5736 853d 575a a9bc 613f bcbd 32b8 55bd
00000130: e6c7 95bd c746 9c3d ab8a 9e3c ee70 45bc
00000140: f2f4 83bd 461e b93d 34c7 7abe 1cef 823b
00000150: 8d50 e6bd 19e6 013e faeb 183e 604c e63b
00000160: b12f 15bd b17e fabc f1ed a0bd 6472 ce3d
00000170: 3a15 e2bd 97dc 40bc e255 e53d 972a 70bd
00000180: adb5 a6bc eae7 333d b8cc d8bb a389 fb3d
00000190: a725 07be cdc4 f73c f311 ac3b 9a6a 9f3d
000001a0: d0b4 18bd fe70 a53d db49 25be 925d f63d
000001b0: 9a7f e3bd 36ea 1c3d a24d 5abd a344 7ebd
000001c0: 2a17 0cbe 44ce 14bd 6b1d 85bd 302a 14be
000001d0: a60d 3b3e 86ab 29be 4466 cdbd 63ab 92bd
000001e0: 6ebe 223e 2d55 92bd 84cc debd 241d d9bd
000001f0: 11a4 cf3d 6c12 cc3d beff 7dbd fbca 0f3e
-0.11530753 -0.043281324 -0.17872813 -0.15343407 -0.08856222 0.045227446 0.18472178 0.10389244
0.19604054 0.08845464 0.040122773 -0.062635876 -0.029872349 0.02948977 0.0637264 -0.096178085
-0.08080221 -0.19625755 -0.1179305 0.025561865 0.13366039 0.11783473 -0.14910673 0.22182101
-0.018161813 -0.1485797 -0.16902955 0.024459604 0.13431975 0.1756262 -0.1096296 -0.14078106
-0.061095443 -0.237282 0.008854975 -0.048020717 -0.0002682829 -0.27738148 -0.1127852 0.021563131
-0.013558803 0.052731153 0.11202183 -0.111328125 0.011866204 0.18501319 0.12197233 0.015761254
0.16885619 -0.052635375 -0.016138704 0.09391987 0.16950537 0.14917213 0.09641409 -0.0019674152
0.110760845 -0.1292265 0.06319145 -0.056436468 -0.014629864 0.055887643 -0.06557562 0.06372932
-0.03010335 0.054647103 0.20053226 0.14536151 -0.15540972 -0.13175434 -0.009580698 -0.07317813
0.06504505 -0.02067296 -0.09191776 -0.052177615 -0.07313518 0.07630687 0.019353231 -0.01205085
-0.06443204 0.09038977 -0.24490052 0.003995789 -0.112458326 0.12685432 0.14933768 0.0070281476
-0.036422435 -0.03057799 -0.07857884 0.10080412 -0.11039205 -0.011771343 0.111980215 -0.058634367
-0.020350302 0.043922342 -0.0066162013 0.122821115 -0.13197957 0.03024521 0.005251163 0.077840045
-0.03728181 0.08078192 -0.16141455 0.12029566 -0.111083224 0.0383093 -0.053296693 -0.062077176
-0.13680711 -0.036329523 -0.06499752 -0.14469218 0.18266925 -0.16569337 -0.10029271 -0.07161596
0.15892956 -0.07145152 -0.10878852 -0.10601261 0.10138715 0.09964451 -0.062011473 0.14042275

fc.2.weight f4 [64, 128]
00000000: 744b b63e a779 d03d fd3e 5f3e 5570 b93e
00000010: 70ab 093d 6b96 07be 51a7 27bd 8057 76bd
00000020: 31e8 043f 3cdc bdbe 33b3 403d 596d a7be
00000030: 3fe2 22be 2269 853c 1b17 0bbc 2304 04bd
00000040: fcca 003d ee4f 06be 5735 9cbd 4a38 5e3e
00000050: 546b 05bf 7a9c 13be 46f7 3fbf a1d9 c83d
00000060: 0664 b73e b1c8 3fbc bf75 4abd f9d4 1f3f
00000070: f399 c73c 42c0 7e3e 0eb6 fe3d 5ab2 db3c
00000080: 2fb7 5dbe ab4d 873e 5074 ce3d 649f 313f
00000090: 5dec d1bd 3571 4e3e ac51 ebbe f3e8 09bf
000000a0: 0324 213e 76c1 833f c5c7 2b3f 4b46 61be
000000b0: 0a53 25bd fab8 43bf 2264 463e fe11 23bf
000000c0: 6188 5a3d 9946 f73e 62e7 b0be 8b29 dd3e
000000d0: 9c9e 12be 75fb 19be 952f 84bd aedf b33e
000000e0: 1ee4 093e cd63 eb3e 6f40 f9bd 7924 3ebe
000000f0: 5ff7 0f3f 73f5 76be a022 3cbe e518 afbe
00000100: 229f 633f 65ad c5bd 5951 10be 7604 7f3e
00000110: 2399 d63e bf71 cb3d 7508 8c3e 306e 25be
00000120: b46f 08be 0fe2 2a3e bf8f ca3d ea6d b0bd
00000130: 29e6 c1be c277 96bd 8f7d 1abd b9af e4be
00000140: 88ff bc3d cb53 babc 1e2c e73d bbbf cc3c
00000150: b7af 363e b863 18bf 064e 9e3d ee4f af3e
00000160: 4407 ac3d 1a5f d5bb 6de2 e8bd d458 693e
00000170: a34d ab3e 2137 8d3d 1951 4cbe 01f0 b53d
00000180: 970a f33d 0174 5ebe bd97 6abe cf0d 89bd
00000190: 4d4f 26bd 137b ccbd eaff b2be 3ccd dfbd
000001a0: cff9 393e dabb 92be 1516 0a3f 5a61 41be
000001b0: de54 993e 542d 5abe c49e 893e b77e 4abe
000001c0: 6c17 b3be 569a e5be 1589 a13e ed1a b83e
000001d0: 68d1 e2bd fc25 9b3e fb51 843e 5fe7 6d3e
000001e0: 34a7 6b3d cf87 6f3e 3961 903d df8a 823e
000001f0: 1628 0ebd 5694 a43e 8bfc cabe 6d13 f63c
00000200: c750 51bf e5a5 ec3d 165b 95bd dede f0bc
00000210: 6744 64be 3e7b 933e f1f3 6e3c 11aa 923d
00000220: 5255 913b f7b6 7cbd c137 87bd 7665 bebe
00000230: 4021 36bf 5957 0bbe eecd 5f3e 7d1a 543b
00000240: 1515 c03d 351c af3e 4506 1f3e 8ba5 73be
00000250: 62e3 e93e 0436 b93c be45 1bbe a210 bbbd
00000260: 4d9e 01bf 4020 1bbe e5bf b23e 7f6f da3d
00000270: b61c debe b47d f13e 19f4 20bf 2291 acbd
00000280: b91e b53e 02b1 7a3e 0750 023f 0810 e9bd
00000290: ec75 8cbe 6f63 92bd 632c 0fbb 1463 b63d
000002a0: 6726 e43d 7d1f 90bd 0080 4fbe 1636 9abb
000002b0: bbfd 8abd adbc b23d 3534 ba3a c66f 94bd
000002c0: d4e6 3e3e 7ba1 c6bc 7d86 b73b b8b3 c5be
000002d0: 7f50 7bbe 82df 1bbe 9729 8b3e 1406 bcbe
000002e0: 13d4 14bf 16ae 423e 45da ff3e 277d b73e
000002f0: c68e 823d 5b6c 41be 558b a5be 60a0 2b3d
00000300: a687 27bf 35e2 96be 8d13 d43d fa68 d1be
00000310: 6146 d73d 0d04 bebc 4369 2cbe 1202 a03e
00000320: 058f 8f3e 2230 1abf 3832 a9be 5a88 aabe
00000330: 2e1f 37be a282 99be b6fe 363e dae7 483f
00000340: ba88 d9be 077b 4f3d dac6 243e 4407 b93e
00000350: cb3c 063e 155b f33e 44af 8abe 3562 45be
00000360: fda7 fdbe 3444 3a3e dddd 3d3e 9711 f4be
00000370: 77ec 0dbe 835b dbbc 5f59 0a3f 0d12 e3bd
00000380: 76b1 1cbf 9b86 a73e 34a7 9e3e 91fa c93c
00000390: a6e3 cdbe aac6 c5bd ed13 913e a18e 363d
000003a0: e845 6f3e 9366 143e d341 87be 098e 9c3e
000003b0: 1fe8 9dbe 94b4 343d 9efb 0abf f2e4 34bd
000003c0: 6cfd 813e da21 063f ed60 89bc 501f 20bd
000003d0: f15a a2be bf86 f6bd a44f 763e ff50 8b3e
000003e0: fbad 8e3e 9c61 c1be 814a 98bc b261 ce3d
000003f0: 43bd 93bd 28b2 983d f131 123d 985d 0abf
0.3560444 0.10179453 0.21801372 0.36218515 0.03361076 -0.13240974 -0.04093105 -0.06014204
0.51916796 -0.37082088 0.047045898 -0.32700613 -0.15906619 0.016285483 -0.0084893955 -0.032230508
0.03144358 -0.13116428 -0.07627361 0.2170116 -0.52116895 -0.1441516 -0.74986684 0.098071344
0.358185 -0.011705563 -0.049428698 0.62434345 0.0243654 0.24878028 0.12437068 0.026818443
-0.2165191 0.26426443 0.100807786 0.69383836 -0.10250161 0.20160373 -0.45960748 -0.5387108
0.15736394 1.0293415 0.671017 -0.21999471 -0.040362395 -0.76454127 0.19374135 -0.6369933
0.053352717 0.4829605 -0.3455153 0.43195757 -0.14318317 -0.1503733 -0.06454388 0.35131592
0.13465926 0.4597458 -0.12170493 -0.185686 0.56236833 -0.24117069 -0.18372583 -0.3419868
0.8891469 -0.09652213 -0.14093532 0.24904045 0.4191371 0.09933805 0.27350202 -0.16155314
-0.13323861 0.16687797 0.09890699 -0.086147144 -0.3787091 -0.07347061 -0.0377174 -0.44665316
0.09228426 -0.022745034 0.112877116 0.024993768 0.17840467 -0.5952716 0.077297255 0.3424067
0.08399823 -0.006511581 -0.11371312 0.22787791 0.3345767 0.06895281 -0.19952811 0.08883668
0.11867254 -0.2172394 -0.22909446 -0.06692087 -0.04060297 -0.09984412 -0.34960872 -0.10927817
0.181617 -0.28658944 0.53939945 -0.18884793 0.2994756 -0.21306354 0.2687894 -0.197749
-0.34978807 -0.4484431 0.31549898 0.35958043 -0.11075097 0.30302417 0.25843796 0.23232792
0.057532504 0.2339165 0.07049794 0.25496575 -0.034706198 0.3214442 -0.396458 0.03003856
-0.8176388 0.11555079 -0.07292764 -0.029403146 -0.22291718 0.28804964 0.014584527 0.07161344
0.00443522 -0.061697926 -0.06602431 -0.37186784 -0.71144485 -0.13607539 0.218559 0.003236442
0.09379021 0.34201208 0.15529735 -0.23793618 0.45681292 0.022608764 -0.15163323 -0.09134032
-0.5063217 -0.15149021 0.3491203 0.106657974 -0.4338128 0.47166216 -0.62872463 -0.084261194
0.35375002 0.24481586 0.5090336 -0.11380011 -0.27433717 -0.07147872 -0.0021846525 0.089056164
0.11140137 -0.07037256 -0.20263672 -0.0047061546 -0.067866765 0.08727393 0.0014206233 -0.072478816
0.18642741 -0.024246922 0.005600749 -0.38613677 -0.24542426 -0.1522198 0.27180168 -0.36723387
-0.581361 0.19011721 0.49971214 0.3583767 0.06374888 -0.1888899 -0.32332864 0.041900992
-0.6544136 -0.29469457 0.103552915 -0.40900403 0.105114706 -0.023195291 -0.16837029 0.3125158
0.28038803 -0.60229695 -0.33046126 -0.33307153 -0.17882988 -0.29982477 0.17870602 0.7847878
-0.42487127 0.050654437 0.16091481 0.36138356 0.13109128 0.47530428 -0.27086842 -0.19275744
-0.49542227 0.1819008 0.18541665 -0.4766967 -0.13859735 -0.026777035 0.5404262 -0.11087427
-0.61208284 0.32719883 0.3098694 0.024655612 -0.40212744 -0.09657033 0.28335515 0.044569615
0.23366511 0.14492254 -0.26417407 0.30577114 -0.30841157 0.044117525 -0.5429019 -0.04416365
0.25388658 0.52395403 -0.01676985 -0.039092362 -0.31710008 -0.120374195 0.24053818 0.27210233
0.27867112 -0.37769783 -0.018590214 0.10077228 -0.07213833 0.074558556 0.03569216 -0.5404906

fc.2.bias f4 [64]
00000000: b995 7cbe 81c6 c73d d466 ab3d f33b 5fbe
00000010: de41 d43d 704a 293e e399 153d 9152 debd
00000020: f316 4bbd f3f9 103e 770e 683e 520b 113e
00000030: e321 d2bc ee5b 10be 0f86 93bd 2540 10be
00000040: 88ce dd3c 2c45 893e 43df 27be 851b 233e
00000050: 86b7 7d3e e9f5 493c 7561 aabc 073a a13c
00000060: 3831 77be 81cd d1be 534c 803d f19e ebbd
00000070: 25d9 49be 339c c33d 2b13 58bb 70ad 153d
00000080: 8410 493e 6935 20bd ca61 a0bc 482a 6f3d
00000090: 8c07 463e 7412 96bc 48cf 3c3c 16fa 553e
000000a0: bc29 98be 0b76 21bd f735 15be a03b e73b
000000b0: fa9a 34bd 40d3 b53d e570 07be 41a1 78bd
000000c0: 39ef 123e 43d7 cfbd 8ae0 06bd 7296 9bbd
000000d0: 17be d03d d54e e4be 2188 7c3c 2a51 11be
000000e0: 8a86 73bd c6f4 083e bb31 9ebc 9a99 66bd
000000f0: 8ff2 03be 2930 733e 54be 583e d499 29be
-0.2466649 0.097546585 0.08369222 -0.21800213 0.10364126 0.16532302 0.03652371 -0.10855592
-0.049582433 0.14157848 0.22661768 0.14164475 -0.025650924 -0.14097568 -0.07203304 -0.14086969
0.02707602 0.26810586 -0.16393761 0.15928467 0.2477704 0.012326696 -0.020798424 0.01968099
-0.24139869 -0.409771 0.06264558 -0.11504925 -0.1971174 0.09551277 -0.003297041 0.036542356
0.19635206 -0.039113436 -0.01957788 0.058389932 0.19338816 -0.018319346 0.011524029 0.20896181
-0.2971934 -0.039419215 -0.14571367 0.0070566684 -0.04409311 0.08878183 -0.1322666 -0.06070066
0.14349069 -0.1014848 -0.03292898 -0.075970545 0.10192507 -0.44591394 0.015413315 -0.14191118
-0.05945448 0.13374624 -0.019310823 -0.05629883 -0.12885498 0.2374884 0.21166354 -0.16562587

fc.4.weight f4 [33, 64]
00000000: 5a75 f6bd 2815 de3c d4c6 8bbd 9c0e 53bd
00000010: 8081 263c 6aee d73d a861 11bd 96c0 e9bd
00000020: 38c4 47bd fc89 0abd d806 e33c c8d3 823c
00000030: 8453 ddbd 7c77 06bd 44f1 2bbd 62fc de3d
00000040: 6004 b9bd 520c 9e3d 9818 4fbd ee72 ba3d
00000050: 84a9 17bd 00bb 3c3a ecfd dd3d 38b9 803d
00000060: a00b 99bd ba38 9ebd a2b8 983d ca12 993d
00000070: d02f 273c 00f2 b7ba d4da 453d 209f e0bc
00000080: e899 573d bc93 713d eeb0 bf3d 20c1 c93d
00000090: f22b b33d f25e f63d a03d a2bb 40c6 f63c
000000a0: bcac 4abd 4002 f5bb 804a 6ebc ec3c e43d
000000b0: a0a9 d33c 1069 a23d 407f 243d 50ae 5ebd
000000c0: 28b4 f7bd a203 b6bd dc1c 913d 209e dd3b
000000d0: ec6b 1d3d 4851 96bd 6a8b 9e3d e05f b13c
000000e0: b2f7 b53d 3ad4 b03d a248 82bd 7830 383d
000000f0: 26b4 bbbd ae44 fdbd e0b1 6cbc 42a8 febd
00000100: e00b 353d b245 f63d 5acf 9cbd 741b b43d
00000110: 6872 123d 10b1 583c cc31 603d b6b7 f13d
00000120: e2e7 cdbd 0800 0c3d be52 c3bd 5e30 bf3d
00000130: f8ab 0bbd befc a13d 9806 84bc 6812 b83c
00000140: b4db 24bd f0f3 503c c450 1abd 78bf a23c
00000150: 38ef 533d 4897 8bbd c8db c9bd d05a 63bd
00000160: 82ba dcbd 9e88 ddbd 6661 f03d 42b4 8bbd
00000170: c015 9dbd fe7c f7bd 5c9c febd 8c74 15bd
00000180: 1459 883d b0df ad3c 2ea6 df3d 2443 50bd
00000190: 3090 db3d 3087 0f3c e086 983d 9082 bf3c
000001a0: 28d2 95bc 4061 513d 843e 803d 24ef babd
000001b0: 40f6 913b d61a eabd 44c4 a83d 80ea 823a
000001c0: 00c1 033c d817 8bbd f45f 51bd ec08 ba3d
000001d0: 5cc0 aa3d ea20 913d c2be ba3d 2c00 f2bd
000001e0: 64af 2ebd 0cd6 2b3d 4cc0 213d 5481 32bd
000001f0: 385c b83c 30ba f0bd 4641 a4bd cc0a d3bd
00000200: e000 173d 3cc5 3ebd 802c c23a 7e71 febd
00000210: b09f cbbc 002f 57bb 183d fbbc 88ff 81bc
00000220: fce4 5abd b4c8 e13d 5003 713c 9630 bf3d
00000230: d00d 48bd cc22 f83d 0087 053d ec67 0a3d
00000240: 30a8 05bd 009b 5d3d 181a 0b3d 10fc 8cbc
00000250: e05f 8abc ee8a eabd 14ed c5bd 8423 61bd
00000260: d0d4 a53d 4a56 ba3d 6c68 243d 6809 9dbd
00000270: 9ca7 a1bd 000a e8b9 3808 4e3d d0c0 5cbd
00000280: 58d3 413d 44a0 b3bd f4e1 213d c0d3 96bd
00000290: a086 afbc 3a9c ccbd 5043 1b3c bac5 e03d
000002a0: 9e81 fdbd 281b 663d a405 e93d 484b 32bd
000002b0: c878 31bd 1e5f fa3d 3e6a e23d d0c6 db3c
000002c0: 3c89 51bd 208c 073c 1863 85bc 2e90 963d
000002d0: fc90 1fbd 36b4 e8bd 801e 2fbd 98cc 28bd
000002e0: 10ac cfbd d0b2 f2bc 7ec3 ddbd 1c61 00bd
000002f0: 921e a3bd ccbb 0fbd c410 e53d fc9b 333d
00000300: 2a41 82bd c0cc ab3c c06e 9a3b 905b 53bc
00000310: 5aca 803d dac3 cf3d e23a b93d 28ac c8bc
00000320: 4e46 843d ac71 fa3d 325d 933d cab9 e2bd
00000330: 409f c7bb d4f9 ccbd 74b5 f9bd c68f cc3d
00000340: 5802 09bd a0bf 99bb 2033 f9bc 7e5f ca3d
00000350: b060 77bd 404a 903b 1066 613d 1228 863d
00000360: c040 6d3b 6c4a d8bd c078 f1bc 28d3 84bc
00000370: fc26 403d e02c a4bb 4cd2 d0bd d272 9abd
00000380: 007c 573b f00e 21bc 4cae eb3d 50cb f7bc
00000390: c46d 6f3d b0ae fd3d 20bc 713d 5082 8dbd
000003a0: c4dc 0e3d 0cdf 42bd 488f 9dbd bc44 a03d
000003b0: 5eb2 81bd a0bc c23d 7067 543d 3002 27bc
000003c0: 0c2f b8bd e0ae 5c3c 2207 e73d 8895 febd
000003d0: a45b 93bd 0042 dfb9 70aa 8cbd fc0e a43d
000003e0: 80ec ee3d a468 ee3d 1452 1fbd 1825 8f3d
000003f0: 003e e9bc 7a33 f2bd 00e8 32bc 1e47 85bd
-0.12034102 0.027109697 -0.06825033 -0.051527604 0.010162711 0.10543521 -0.035493523 -0.11413686
-0.048771113 -0.033823 0.027713224 0.015970126 -0.10806945 -0.032828793 -0.041978136 0.10887982
-0.090340376 0.07717194 -0.050560564 0.09103952 -0.037026897 0.0007199496 0.108394474 0.06285328
-0.074729204 -0.077256635 0.07457091 0.07474287 0.0102042705 -0.0014033914 0.048304394 -0.027419627
0.05263701 0.05897878 0.093599185 0.09851289 0.08748616 0.12029828 -0.004951194 0.03012383
-0.04948114 -0.007477075 -0.014544129 0.111444324 0.02583772 0.07930195 0.040160418 -0.054365456
-0.12094909 -0.08887412 0.070855826 0.0067632347 0.038433 -0.07339722 0.07741435 0.021652162
0.08885135 0.08634229 -0.0636151 0.0449681 -0.0916522 -0.12366615 -0.014446706 -0.124344364
0.044200778 0.12025012 -0.07656737 0.08794299 0.035753638 0.013225809 0.05473499 0.11802618
-0.10053994 0.034179717 -0.09537266 0.09335397 -0.03409955 0.07909535 -0.016116425 0.022469714
-0.040248588 0.012753472 -0.03767468 0.01986669 0.05174181 -0.06815964 -0.09856373 -0.055506527
-0.10777761 -0.10817073 0.11737327 -0.06821491 -0.07670164 -0.12084387 -0.12432167 -0.0364881
0.06657615 0.021224827 0.10920368 -0.05084528 0.10720861 0.008760259 0.074476 0.023377687
-0.018288687 0.051118135 0.06261924 -0.09127644 0.004454404 -0.114309 0.0824056 0.0009988099
0.00804162 -0.06791657 -0.0511169 0.09083733 0.08337471 0.07086356 0.091184154 -0.11816439
-0.042647734 0.041952178 0.03949003 -0.04358037 0.02250491 -0.117542624 -0.080202624 -0.10304794
0.03686607 -0.046574816 0.0014814287 -0.12423991 -0.024856418 -0.003283441 -0.03066878 -0.015868917
-0.053441033 0.11024609 0.014710262 0.09335439 -0.048841298 0.12116012 0.03259945 0.033790514
-0.0326311 0.054102898 0.03396043 -0.017210037 -0.01689142 -0.1145228 -0.0966436 -0.05496551
0.080972314 0.090984896 0.040138647 -0.0766781 -0.07893297 -0.0004425794 0.050300807 -0.053894818
0.047320694 -0.087708026 0.039522126 -0.07364607 -0.021426499 -0.09990735 0.009476498 0.10975213
-0.12378238 0.056178242 0.11378029 -0.043528825 -0.043328077 0.122251734 0.1105542 0.0268282
-0.051156268 0.0082731545 -0.016282603 0.07351719 -0.038956627 -0.113624975 -0.042753696 -0.04121074
-0.1014024 -0.02962628 -0.10828303 -0.03134261 -0.07964815 -0.035091206 0.111848384 0.04384993
-0.06360085 0.020971656 0.0047129095 -0.012900248 0.062885955 0.101447776 0.09044434 -0.024496153
0.06458722 0.122287124 0.0719551 -0.11070593 -0.006091982 -0.100085884 -0.121928126 0.0998836
-0.0334495 -0.004692033 -0.030419886 0.09881495 -0.060394943 0.0044033825 0.055028975 0.065506116
0.0036201924 -0.1056107 -0.029476523 -0.016213968 0.04691218 -0.0050102323 -0.10196361 -0.075414315
0.0032880306 -0.0098302215 0.11507854 -0.030248314 0.05845429 0.123868346 0.0590173 -0.06909621
0.034878507 -0.047575995 -0.07693344 0.0782561 -0.06332849 0.095086336 0.05185646 -0.010193393
-0.089933485 0.013469428 0.11280657 -0.124308646 -0.071952134 -0.00042583048 -0.06868446 0.080106705
0.116662025 0.11641052 -0.038896635 0.06989497 -0.028471947 -0.118262246 -0.010919571 -0.06507705

fc.4.bias f4 [33]
00000000: d66e da3d 8860 d23d d297 f4bd b024 cabd
00000010: 4590 963e 761b 3c3e cdc5 1dbf 9014 a7be
00000020: edcd ab3e 192f 8d3e 82e8 c2be f6c3 adbe
00000030: 920c a03e 1fbd e4bd 41d4 03be a6a7 8ebe
00000040: aaf9 453e 38cf 9dbd 8791 b5bc 2baa fcbd
00000050: 9699 0d3e 60df c7bd 04c7 173e 223b 2fbe
00000060: 6d65 9e3c 1ab2 ecbd 1129 3d3e 3b47 d7bd
00000070: ef75 80be 908a dfbe 6ae8 3a3f f45e 973d
00000080: deab 4d3d
0.106656715 0.10272318 -0.1194302 -0.09870279 0.29406944 0.1836985 -0.61629945 -0.32632875
0.33555546 0.27574995 -0.38068014 -0.3393857 0.3125959 -0.111688845 -0.12873937 -0.2786228
0.1933352 -0.077055395 -0.02216412 -0.123371445 0.1382812 -0.09759402 0.14822012 -0.17112401
0.019335473 -0.11557408 0.18472697 -0.10511633 -0.25089976 -0.43660402 0.73010886 0.07391158
0.050212733
