models/policy_m1.pt (torch_old, 99515 bytes, 6 tensors)

fc.0.weight f4 [128, 110]
00000000: 8f40 1fbd 4de3 b3be c37d 7cbe a621 683e
00000010: 9a22 2b3e 518c c53e 31aa 57be 26e5 8abe
00000020: 9429 a4be f9ef 7c3e 0303 60bd 4bc6 553e
00000030: 9d42 1dbe 8dfb 83be 05e3 debd 8af9 863d
00000040: 9eb8 913d 1144 b33d f0d9 233d b974 9f3e
00000050: 0a11 443c fa5d c3bd abf6 4abe 0505 4f3d
00000060: da28 03bd 7387 b73e ea16 643e 7fc7 94bc
00000070: b288 bb3e 1b8e cfbc 43d6 243e 6659 40bb
00000080: a8f7 3a3e c152 0b3e dd19 953e 6924 41bb
00000090: 7e11 783e f646 ea3c 5ee9 1abc 55b1 a93d
000000a0: 8534 273e 2bb1 04be 0c68 3dbd a301 aa3e
000000b0: 44ec 383e ae9a dc39 0f43 62be dc78 f73d
000000c0: b689 4c3e 204e 353d 661b d1bd 939e 5e3c
000000d0: 1ea5 1a3d 2689 c63e 4a3b 12be 513b e0bd
000000e0: b659 e4bd e100 9b3d 9f81 8ebe b5a2 b3bb
000000f0: 6c00 9c3e c4dc 333e 48dd 91bd f7fb 62be
00000100: c7f1 a03d de7f c53d 00dc 22be b9a0 1ebe
00000110: 2485 2dbe 93b7 a93c b2f6 723e ecee 70be
00000120: 63e8 57bd 1a50 35be 37cd 693d 7e14 a23d
00000130: c752 72be feed 92bd 7a24 13be ed0b 2ebd
00000140: 258f 183e 548c 643c 9c30 eabd f809 a8bc
00000150: 417f 99bd 5998 22bd be24 84be 9350 8d3e
00000160: 64ca 233e 647a 8b3d 06f9 fcbd 95c1 543e
00000170: 5566 e1bd bb4a 583d 28be 9fbc 83e5 713e
00000180: 6e2f 033e 1fc9 543e ee06 613e 343b 58bd
00000190: 0069 103e 6f13 333e ae04 0a3e ed29 813c
000001a0: 1066 11be 0a07 883d 1d35 183d e891 883d
000001b0: 5de8 4f3d 4292 10be 669c 8a3d d4d9 6e3c
000001c0: bb36 f53e f6c5 613e 84cc 00be efa9 b9be
000001d0: a8ae 9abe 84fa 0bbe edd1 243e 7ac3 5a3e
000001e0: ce5e 233d 57f6 4d3e 8c2b 863d ab48 e8bb
000001f0: 51a7 263e 3cd4 2abe 8f3a 5fbd 563e 913b
00000200: 8182 01bd fe07 063e aaed 9a3c 730b 3c3e
00000210: 4796 6c3d 261a c3bd 3557 bebd 0780 91bd
00000220: 51e8 103e 36fe c03d 953a 3dbc 06c9 18be
00000230: 0d1a c93d 1a04 063c 17ce a63d c123 833d
00000240: c186 243e 00ec 373c fca7 603d 9998 bfbd
00000250: e3c3 8abd 9921 8f3d 74b0 e33d d1c1 28be
00000260: 5c89 35bd 620a 1b3d 66af 633d 387c 6a3c
00000270: 1da2 08bd dba4 253e 2ad9 c03d b054 3a3e
00000280: e92a 5dbc 3178 5a3e a024 963d dc3f c63d
00000290: a013 9b3e 2338 b53d 41e4 8b3d 213b eb3d
000002a0: db41 583e 73e7 e93d aa35 a53e 33d5 84bd
000002b0: 7a9b a23b e8a2 bb3d c448 09bc 9dd8 f93d
000002c0: 274f 593b 270e 72bd 1a56 483e 809c 71bd
000002d0: fda4 bbbd 6c75 9b3d 0e75 4c3e 5340 993c
000002e0: d099 42bc c7e9 24bd e151 353c bbba fe3d
000002f0: ce33 d53d 2ef6 8cbe 3081 64be ab0a 84bd
00000300: 564d 823c 7b73 123e bdaf d1be e21f 0b3e
00000310: 2f86 ba3c a1cb 6abd e15c 723d d80c 4b3d
00000320: ff86 25bd 54fa 3ebd e637 1cbe 69b1 bb3b
00000330: 20b4 5cbe 3afc 0d3e 4f6b c2bc 1016 1ebc
00000340: 9c0b 6fbd c4b3 94bd 9d69 efbd 8e0e 1f3e
00000350: bb92 4a3d 87d7 6cbe 54ec ebbd ad80 4ebd
00000360: 7760 b23b 76b3 6fbe 029a 193e 5f38 febd
00000370: e51c 9dbd c78f 9a3d 24f8 b43e 1136 723e
00000380: 63ec 1c3e 331a 8ebe e4a8 84be d65d a9be
00000390: b9b1 12be 6545 d83d 095c 143e 31c6 573d
000003a0: 14dc 04bd 77f6 85bd ebe2 1fbd 98b6 39be
000003b0: 1402 613d 8fd6 cfbd ef12 f0bd 1add 373e
000003c0: 09fa f23d 1efe 433c 9c2a 33be cbaa d8bd
000003d0: 86e2 663c 855b 243e fc01 0f3e 6646 c93c
000003e0: 445d ed3d b00b 4c3d 1b97 3b3e 7402 10bd
000003f0: 1f9d 1c3e 52a7 f3bd fe10 163e 6e91 733c
-0.038879927 -0.35134354 -0.2465735 0.22669086 0.16712418 0.38583615 -0.21061017 -0.2712795
-0.32062972 0.24700917 -0.054690372 0.20876424 -0.15357442 -0.25777856 -0.10883144 0.065905645
0.07115291 0.08753217 0.040002763 0.3114374 0.011966953 -0.09539409 -0.19820659 0.050541896
-0.03202138 0.35845527 0.22274366 -0.018161533 0.36627728 -0.025336316 0.1609736 -0.002935016
0.18258536 0.13605787 0.29121295 -0.0029471165 0.24225423 0.02859829 -0.009455053 0.082857765
0.16328628 -0.12958209 -0.046241805 0.33204374 0.18058878 0.00042076915 -0.22095893 0.12083599
0.19974408 0.04426396 -0.10210304 0.013587612 0.037755124 0.3877651 -0.1428043 -0.10948814
-0.111499235 0.07568527 -0.27833268 -0.0054820427 0.30469072 0.17564684 -0.07122284 -0.2216643
0.07858615 0.09643529 -0.15904236 -0.15490998 -0.1694532 0.020717418 0.2372692 -0.23528641
-0.052711856 -0.17706338 0.057080474 0.07914065 -0.2366439 -0.071743 -0.14369383 -0.042491842
0.14898355 0.013949472 -0.11435053 -0.020512566 -0.07494975 -0.03969607 -0.25809282 0.27600536
0.15995175 0.068104535 -0.12352185 0.2077697 -0.110058464 0.052805644 -0.019499853 0.23622708
0.12811062 0.20779847 0.219753 -0.052790835 0.14102554 0.17487882 0.13478348 0.015767062
-0.1419909 0.066419676 0.037160028 0.066684544 0.05075871 -0.14118293 0.06768112 0.014578301
0.4789332 0.22048172 -0.12578017 -0.36262462 -0.30211377 -0.13669783 0.16095705 0.21363631
0.039885335 0.20113502 0.06551275 -0.007088741 0.16274764 -0.16682523 -0.054499205 0.00443248
-0.0316186 0.13088986 0.018912155 0.18363743 0.057760503 -0.09526472 -0.09293977 -0.071044974
0.14151122 0.09423487 -0.011549612 -0.14920434 0.09819422 0.008179689 0.08144777 0.06403304
0.1606703 0.0112257 0.054847702 -0.093552776 -0.06775644 0.0698883 0.1111764 -0.16480185
-0.04432045 0.0378517 0.055587195 0.014311843 -0.03335773 0.16176169 0.09416421 0.18196368
-0.013499 0.21334912 0.073312044 0.09680149 0.3028841 0.08848598 0.06830645 0.11485887
0.21118872 0.114210986 0.32267505 -0.06485977 0.004962382 0.09161931 -0.008379165 0.12199519
0.003315875 -0.059095528 0.19564095 -0.05898714 -0.091623284 0.07590756 0.19966528 0.01870743
-0.011877492 -0.04026201 0.011066885 0.1243796 0.104102716 -0.2753157 -0.22314906 -0.06447347
0.015906017 0.14301865 -0.4095439 0.13586381 0.022769062 -0.057323102 0.059170607 0.049572796
-0.040411945 -0.04662545 -0.15255699 0.005727936 -0.21553087 0.13865748 -0.02373281 -0.009648815
-0.05836068 -0.0726085 -0.11690066 0.15532896 0.04945634 -0.23129092 -0.115196854 -0.050415684
0.0054436284 -0.23408303 0.15000156 -0.12413096 -0.07671527 0.075469546 0.35345566 0.23653437
0.1532455 -0.27754363 -0.25910103 -0.33079404 -0.14325608 0.10560111 0.14488234 0.052679244
-0.032436445 -0.0654115 -0.039034765 -0.1813606 0.054933622 -0.10148346 -0.11722361 0.17955437
0.11864097 0.011962442 -0.17496723 -0.10579451 0.014092093 0.16050537 0.139656 0.024569701
0.11590055 0.049815834 0.18319361 -0.03515859 0.15294312 -0.11897148 0.1465492 0.014866216

fc.0.bias f4 [128]
00000000: 9525 10be c2e9 21bd dab6 10be 680c fdbd
00000010: 4a46 38be cc89 923c 1f95 ba3d cb55 2b3e
00000020: 6ee7 3d3e a21f ae3d 262d a8bd 6454 2ebd
00000030: 9565 99bd fe00 41bc 989c 2c3d 29e9 99bd
00000040: 239c aabd 509b ddbd 0226 90bd 36d6 d03d
00000050: eca0 f43d c590 113e f89d e9bd aadf 213e
00000060: f4ed cabd cb4b 36be a8ef 31be ac3f 58bd
00000070: a8d8 c1ba 60ac b23d ccc3 16be 2ee7 98bd
00000080: 7d15 6fbd cbce 0ebe 1399 80bc 6d64 22bd
00000090: 52d4 9d3c b4ed dabe 7917 dabd 367a 763b
000000a0: 9671 493d 1a0b 093d 7ee1 c23d 41c3 e6bd
000000b0: f27e 49bd c371 243e 60d4 683d 94a9 693d
000000c0: 4ee9 7b3c 193e 74bd ad57 5b3d 3649 9d3d
000000d0: 787b 013e 27d2 793e 4532 ca3d 4813 cd3c
000000e0: 28eb 953d fe88 38bd 14f2 a03d e1b4 adbc
000000f0: 4f80 b93c 1948 27bd 9f5a 3abd 6755 943d
00000100: 525b 95ba de89 17bd 5829 c23d c9c8 cd3c
00000110: 7818 2dbe a3ed d7bd c566 84bd 90c3 edbd
00000120: fe5d bd3d aa16 d5bd 9c51 77bd 9a78 16bd
00000130: 5799 64bd 82dc e93c 229c 2f3c ef4e 313d
00000140: 0992 25bd cdf7 013d 0822 2dbe 818e 0e3d
00000150: 8786 12be 19df 423d 139e 313e f0f4 12bd
00000160: ca0d cfbd 972e 24bd 8516 cbbc 1456 4c3d
00000170: 50c9 cbbd 6a18 8ebc ab4c 533e 3b30 debd
00000180: abee a3bd b284 693d 3ffa 2c3d d333 af3d
00000190: 6899 f5bd 1d75 6c3d eb92 883c 5922 e03d
000001a0: 96d3 45bd 27a3 c23d e369 31be 52b9 033e
000001b0: 6c70 25be ac7d 1ebd d232 95bd d16e 833b
000001c0: 8d80 bcbd 9ad7 2c3d 2d4c fabd 8190 b4bd
000001d0: 4c3d bb3d a0d9 19be 2a5e aebd b211 babd
000001e0: bdcd 293e c728 a1bd bf9f d7bd a58c f0bd
000001f0: ff0f 8f3c 631e fc3d fdc0 243c 13c0 f73d
-0.14076836 -0.03952957 -0.14132252 -0.12355882 -0.17995563 0.017887972 0.09110474 0.16731946
0.18545315 0.08502127 -0.082117364 -0.04256095 -0.07490078 -0.011780022 0.042141527 -0.07515175
-0.08330562 -0.10820639 -0.070384994 0.101971075 0.11944756 0.14215381 -0.11407083 0.15807977
-0.09908667 -0.1780235 -0.17376578 -0.052795097 -0.00147893 0.08724284 -0.14723128 -0.07465969
-0.058370102 -0.13946073 -0.015697991 -0.039646555 0.019266281 -0.42759478 -0.10649008 0.0037609464
0.04918059 0.033457853 0.095156655 -0.112677105 -0.04919333 0.16059022 0.05684316 0.057046488
0.015375448 -0.059629533 0.05355041 0.076799795 0.12644756 0.24396573 0.098728694 0.025033608
0.07320243 -0.04505252 0.07858673 -0.021204414 0.02264419 -0.040840242 -0.04549658 0.07242852
-0.0011395013 -0.036996715 0.09480542 0.025120156 -0.16903865 -0.105433725 -0.06464914 -0.11609566
0.09246443 -0.104047135 -0.060380563 -0.03673611 -0.0558103 0.02854753 0.010718377 0.043288168
-0.040422473 0.031730462 -0.16907513 0.03480387 -0.1430913 0.047576044 0.17345457 -0.03587812
-0.10110052 -0.040083494 -0.024791012 0.049886778 -0.09950507 -0.017345626 0.20634715 -0.10849043
-0.08004507 0.057011314 0.04223084 0.085548066 -0.119921505 0.057728875 0.016671618 0.10944051
-0.048297487 0.09503775 -0.17325549 0.12863663 -0.16156167 -0.03869407 -0.07285084 0.004011013
-0.092042066 0.0421978 -0.122215606 -0.088166244 0.09142551 -0.15024424 -0.08514054 -0.09085406
0.16582389 -0.07869106 -0.10528516 -0.11745576 0.017463682 0.12310483 0.010055778 0.12097182

fc.2.weight f4 [64, 128]
00000000: 9971 463f 712d 913d 9fa5 ba3e 2c3e 603e
00000010: 40e1 f43d 7508 6dbe f14b c33d f174 31bd
00000020: 1c29 0c3e e6bf 92be 0461 0d3e 0c11 33bf
00000030: 3c14 19bf 3359 6bbc c88e db3d 2f54 063d
00000040: 73ee 7a3e 0997 a3be c753 563f 3d3f b53e
00000050: f3c1 9bbe 44d5 573e f6cc e5be 9f96 93be
00000060: d444 80bd 96d4 ebbd 7cae b3be b213 233e
00000070: 9ec5 94be 059f 0d3e b7f1 ffbd b88b 283e
00000080: 3f31 d1be bbe0 ac3e 96cc 2dbe 5dd2 433e
00000090: 379b 35be 2012 373c 8218 76be 92a0 10bf
000000a0: 34d5 173f 4516 033f 6e13 47be 5e9a 05be
000000b0: b35b c2be f973 f1be 617e b7be 9a7d 373e
000000c0: cdd8 afbf 966c b73e 0b2d 913e 00c4 bd39
000000d0: 50a8 d1be c361 843c 45fe 4f3d 1be3 debd
000000e0: 66ba 003f 7e88 cc3e 8ea8 7d3e 5b4e c4bb
000000f0: 03e3 dc3e 064d 0cbd 95bc 483e 91e3 8bbf
00000100: 2819 f53c e06a e53d c02b 81be 3b41 f13e
00000110: 951a be3d 5dee dbbe cb5e 443e 9d56 55be
00000120: 762f b5bd 96b9 8ebe 4624 ebbd 857d 15be
00000130: d484 d9bd c16f 2cbe 007d 4d3b 7164 8fbc
00000140: ba6c 4abe 255b a73d ff7d aabc 5dec 303d
00000150: 9cb6 d73e 874b a4bd ec22 0dbe ee80 313d
00000160: 690a 58be 25d5 21be 76e0 273c 7f42 80bd
00000170: 7b76 f23e 6853 3f3e 3528 11bf 22ad aabd
00000180: 1a9a d63e e83c a1bd 464b d23e 8db4 a93e
00000190: 79cc 393e e807 a0be ab9e a3bd 47dc 6cbd
000001a0: 46cd a23e dd7d b9bd 9ad3 763e 866b 6c3e
000001b0: 4f76 e4bd bb26 5bbd 4c5a 4c3e c29f 843a
000001c0: 5667 1a3f 18ca 9ebe 4ea1 15be 0c97 d93e
000001d0: fff7 9fbe 2da3 af3e 31d7 8e3e 19f3 903e
000001e0: 729a 223d 7567 363c 75c7 fa3e 897a 503c
000001f0: 21df 00bf d3b1 e9bb 28f1 6dbe d4ad 24bf
00000200: 14da 5abf c99c 87bd 16d1 8bbe 2a3b 24be
00000210: e926 213e 9264 2e3f 7059 253b 9307 b6bd
00000220: c1f2 47bc 4b77 8e3c 5da0 50be 3919 a1bb
00000230: d6bd 45be f547 18bf d40a f53d e5aa ebbd
00000240: 665b 4bbd 9b1a 223e f609 433e f8fd 44bf
00000250: 14e2 4d3f f7a5 3dbe 000e 57be 4e4c 80be
00000260: e3fc 853d 5cfa e6bd 82c2 753e e8fa a83e
00000270: 7fbe c3be 52ed b13e fdd0 aebd 8323 a5bd
00000280: dcbf 713e e46c b43e 2cbc ed3e 58d5 1ebf
00000290: dcde 2fbe f0a1 d8bb 7ca1 0a3e cb1c 103e
000002a0: f532 fe3d abc2 24bf 2226 2839 407c e63d
000002b0: dd4c 4cbe b1df 1b3a 45dc 0d3e b512 89bd
000002c0: 72db d73e 431a 933d d901 a8be 410e 4ebe
000002d0: 1928 d3bc afef 13be 4972 583e 8b2e a7bd
000002e0: 2703 2bbf 563b ffbd 1365 303e 2b9e 02be
000002f0: e4f1 98bd dc1e a9bd 5d7e 2bbf b491 9f3e
00000300: ba09 ec3c 590f b3be e69b b63e bb49 a1be
00000310: 3c89 aa3d b767 813c 8554 dbbd c670 a63e
00000320: 1fd6 933e 2936 a6bd 9c29 8dbe 6619 c6be
00000330: 16aa 253e 5c51 bdbe 2e3c 0e3e d3e7 b53e
00000340: 3cea 19be e389 2d3e 7aea 123e f448 ce3d
00000350: f09f a0be 3837 493e f04b 48be 0675 0bbd
00000360: d26d 1fbf 9ddb e13e 6ba9 8c3e 19e5 dabe
00000370: c81f 82be 8c6d 173e 6436 683e 6e2f 04bd
00000380: 696d 9dbe 35c6 eb3d c0e3 ff3e 3edf 17be
00000390: b83b e4be 0432 59bd 47cf c03e d7ce 1f3e
000003a0: e4a2 203e 3793 d73d 40f3 8fbd 2319 d83e
000003b0: bcd9 ccb9 3adb 83bd 120e 02be ab47 593d
000003c0: 336c b9be 8beb 8b3d 12ac 2dbd 70c5 f5be
000003d0: 0bf5 87be d576 28be bcec e83c a0f1 e63d
000003e0: 280d 893e c592 b5be 6a23 64be 0c0b 733e
000003f0: 375b a7be f51b 893d fa40 9c3e bd9b c5be
0.77517086 0.070887454 0.36454484 0.21898717 0.119570255 -0.23147757 0.09535969 -0.043324415
0.13687557 -0.28662032 0.1380654 -0.69947886 -0.597965 -0.0143645285 0.10720593 0.032795127
0.24505024 -0.31951168 0.83721584 0.3539981 -0.3042141 0.21077448 -0.44882935 -0.28825852
-0.06263128 -0.11515157 -0.3509406 0.15925482 -0.2905702 0.13830192 -0.12497275 0.16459548
-0.40857884 0.33765206 -0.16972575 0.19123216 -0.17734991 0.011173755 -0.24032786 -0.5649501
0.593097 0.51205856 -0.19441006 -0.13047168 -0.37960586 -0.47158793 -0.35838607 0.17919007
-1.3738037 0.35825032 0.28354678 0.0003619492 -0.40948725 0.016159898 0.0507796 -0.10883161
0.5028442 0.39947885 0.2477133 -0.005990786 0.43141946 -0.034253143 0.19603188 -1.0928823
0.029919222 0.112020254 -0.2522869 0.4712008 0.09282414 -0.42955294 0.19176786 -0.20833822
-0.08846943 -0.27875966 -0.11481528 -0.14598663 -0.10621038 -0.16839506 0.0031355023 -0.017503949
-0.19768038 0.08171681 -0.020812033 0.043194164 0.42131507 -0.08022218 -0.13782853 0.043335848
-0.21097721 -0.15803964 0.010246387 -0.06262683 0.47356018 0.1868416 -0.56701976 -0.08333804
0.41914445 -0.07872945 0.41073054 0.33145562 0.18144406 -0.31256032 -0.07989248 -0.05782726
0.31797236 -0.0905721 0.24104157 0.23087892 -0.11155378 -0.053503733 0.1995632 0.0010118412
0.6031393 -0.3101356 -0.14612314 0.42498052 -0.31243894 0.3430418 0.27898553 0.2831047
0.03969807 0.0111330645 0.489803 0.012724527 -0.5034047 -0.007131794 -0.23236525 -0.6432774
-0.8548901 -0.06621701 -0.27307957 -0.16038194 0.157375 0.6812221 0.002523031 -0.088881634
-0.012203873 0.017390868 -0.20373674 -0.004916337 -0.19310698 -0.594848 0.11964956 -0.11507205
-0.04964771 0.15830462 0.19046769 -0.76950026 0.8042309 -0.18520342 -0.21001434 -0.25058216
0.06542375 -0.11278221 0.2399998 0.33003926 -0.38231274 0.34751374 -0.08535955 -0.08063414
0.23608345 0.35239327 0.46432626 -0.62044287 -0.17174858 -0.0066111013 0.13538164 0.14073484
0.12412063 -0.6435954 0.00016035934 0.112541676 -0.19951196 0.00059461134 0.13853557 -0.06693021
0.4215961 0.071827434 -0.3281391 -0.20122625 -0.025775956 -0.14446901 0.21137346 -0.08163174
-0.66801685 -0.12462489 0.17226057 -0.12755649 -0.07468012 -0.08257839 -0.6698969 0.3116585
0.028813232 -0.34972647 0.35665816 -0.31501564 0.08326957 0.015796525 -0.1070948 0.32507914
0.288743 -0.08115799 -0.27570808 -0.38691252 0.16178164 -0.36976135 0.13890144 0.3552843
-0.1503076 0.16947131 0.14347258 0.100725085 -0.31372023 0.1964997 -0.19560218 -0.03404715
-0.6227695 0.44112864 0.27473006 -0.42752913 -0.25414872 0.14787883 0.22676998 -0.032271795
-0.30747536 0.11512414 0.49978447 -0.14831254 -0.44576812 -0.053026214 0.3765814 0.15606247
0.15687138 0.10526126 -0.07028818 0.42206678 -0.00039072137 -0.064382985 -0.1270068 0.053046864
-0.36215362 0.06832036 -0.042400427 -0.48002195 -0.2655414 -0.16451581 0.028433196 0.11276555
0.2676785 -0.3546354 -0.22279134 0.23734683 -0.3268678 0.066947855 0.30518323 -0.3859538

fc.2.bias f4 [64]
00000000: 2d5c 74bd e439 3e3d e5e6 80bc 3f83 20be
00000010: 07c8 9abb 80fe 283e f93d a23d 8d64 e43c
00000020: 9e4f 9bbc 797a df3d da94 a43e bb09 833d
00000030: 5667 9ebd 5068 11be 9b9e 97bd 2cf0 813b
00000040: 7feb bf3d 035b bf3d 110b 973d 45f1 043e
00000050: 9781 833e 8db1 683d db42 2e3c 9fc6 e63c
00000060: edd7 e8bd 918c 05be e016 1ebd 707a 17be
00000070: 9aca 433e c36c fd3d fbf7 aa3c 876e f7bc
00000080: a134 803d 8622 06be 33a8 4c3e 2926 38bd
00000090: d38c b0bc 3295 04be facf 003e 31be 773e
000000a0: 0353 d7bd 0b51 b5bd c81a 78bd ba3a 953e
000000b0: b389 91be 302a 473e a648 a13d b97a 0abe
000000c0: bc09 883e 1737 92bc 7d75 c2be ea82 0ebd
000000d0: 42e4 edbd 2ba5 f1bd a502 5abe 2e5e 4abd
000000e0: bab4 b73d 8583 9d3d 4eef 9ebd 4051 70bd
000000f0: 8b46 9c3c 54c9 963e d7c6 af3e 5a81 f03d
-0.05965822 0.046441928 -0.0157351 -0.15675066 -0.004723552 0.16503334 0.079219766 0.027879978
-0.018958863 0.10912032 0.32144815 0.0639834 -0.077345535 -0.14199948 -0.074032985 0.0039653983
0.09371089 0.09343531 0.073751576 0.12982662 0.25684807 0.05680995 0.010636057 0.028170882
-0.113693096 -0.13041903 -0.038596034 -0.147928 0.19120255 0.1237426 0.0208702 -0.03020407
0.06260038 -0.13099107 0.19986038 -0.044958267 -0.021551525 -0.12947538 0.12579337 0.24193646
-0.1051388 -0.08853348 -0.060572416 0.29146367 -0.2842537 0.19449687 0.07875185 -0.13523377
0.26569927 -0.017848535 -0.3798026 -0.034792818 -0.11615802 -0.117990814 -0.21290071 -0.049406223
0.08970018 0.07691101 -0.077604875 -0.058671236 0.019076606 0.29450476 0.3433139 0.11743422

fc.4.weight f4 [33, 64]
00000000: 5a75 f6bd 2815 de3c d4c6 8bbd 9c0e 53bd
00000010: 8081 263c 6aee d73d a861 11bd 96c0 e9bd
00000020: 38c4 47bd fc89 0abd d806 e33c c8d3 823c
00000030: 8453 ddbd 7c77 06bd 44f1 2bbd 62fc de3d
00000040: 6004 b9bd 520c 9e3d 9818 4fbd ee72 ba3d
00000050: 84a9 17bd 00bb 3c3a ecfd dd3d 38b9 803d
00000060: a00b 99bd ba38 9ebd a2b8 983d ca12 993d
00000070: d02f 273c 00f2 b7ba d4da 453d 209f e0bc
00000080: e899 573d bc93 713d eeb0 bf3d 20c1 c93d
00000090: f22b b33d f25e f63d a03d a2bb 40c6 f63c
000000a0: bcac 4abd 4002 f5bb 804a 6ebc ec3c e43d
000000b0: a0a9 d33c 1069 a23d 407f 243d 50ae 5ebd
000000c0: 28b4 f7bd a203 b6bd dc1c 913d 209e dd3b
000000d0: ec6b 1d3d 4851 96bd 6a8b 9e3d e05f b13c
000000e0: b2f7 b53d 3ad4 b03d a248 82bd 7830 383d
000000f0: 26b4 bbbd ae44 fdbd e0b1 6cbc 42a8 febd
00000100: e00b 353d b245 f63d 5acf 9cbd 741b b43d
00000110: 6872 123d 10b1 583c cc31 603d b6b7 f13d
00000120: e2e7 cdbd 0800 0c3d be52 c3bd 5e30 bf3d
00000130: f8ab 0bbd befc a13d 9806 84bc 6812 b83c
00000140: b4db 24bd f0f3 503c c450 1abd 78bf a23c
00000150: 38ef 533d 4897 8bbd c8db c9bd d05a 63bd
00000160: 82ba dcbd 9e88 ddbd 6661 f03d 42b4 8bbd
00000170: c015 9dbd fe7c f7bd 5c9c febd 8c74 15bd
00000180: 1459 883d b0df ad3c 2ea6 df3d 2443 50bd
00000190: 3090 db3d 3087 0f3c e086 983d 9082 bf3c
000001a0: 28d2 95bc 4061 513d 843e 803d 24ef babd
000001b0: 40f6 913b d61a eabd 44c4 a83d 80ea 823a
000001c0: 00c1 033c d817 8bbd f45f 51bd ec08 ba3d
000001d0: 5cc0 aa3d ea20 913d c2be ba3d 2c00 f2bd
000001e0: 64af 2ebd 0cd6 2b3d 4cc0 213d 5481 32bd
000001f0: 385c b83c 30ba f0bd 4641 a4bd cc0a d3bd
00000200: e000 173d 3cc5 3ebd 802c c23a 7e71 febd
00000210: b09f cbbc 002f 57bb 183d fbbc 88ff 81bc
00000220: fce4 5abd b4c8 e13d 5003 713c 9630 bf3d
00000230: d00d 48bd cc22 f83d 0087 053d ec67 0a3d
00000240: 30a8 05bd 009b 5d3d 181a 0b3d 10fc 8cbc
00000250: e05f 8abc ee8a eabd 14ed c5bd 8423 61bd
00000260: d0d4 a53d 4a56 ba3d 6c68 243d 6809 9dbd
00000270: 9ca7 a1bd 000a e8b9 3808 4e3d d0c0 5cbd
00000280: 58d3 413d 44a0 b3bd f4e1 213d c0d3 96bd
00000290: a086 afbc 3a9c ccbd 5043 1b3c bac5 e03d
000002a0: 9e81 fdbd 281b 663d a405 e93d 484b 32bd
000002b0: c878 31bd 1e5f fa3d 3e6a e23d d0c6 db3c
000002c0: 3c89 51bd 208c 073c 1863 85bc 2e90 963d
000002d0: fc90 1fbd 36b4 e8bd 801e 2fbd 98cc 28bd
000002e0: 10ac cfbd d0b2 f2bc 7ec3 ddbd 1c61 00bd
000002f0: 921e a3bd ccbb 0fbd c410 e53d fc9b 333d
00000300: 2a41 82bd c0cc ab3c c06e 9a3b 905b 53bc
00000310: 5aca 803d dac3 cf3d e23a b93d 28ac c8bc
00000320: 4e46 843d ac71 fa3d 325d 933d cab9 e2bd
00000330: 409f c7bb d4f9 ccbd 74b5 f9bd c68f cc3d
00000340: 5802 09bd a0bf 99bb 2033 f9bc 7e5f ca3d
00000350: b060 77bd 404a 903b 1066 613d 1228 863d
00000360: c040 6d3b 6c4a d8bd c078 f1bc 28d3 84bc
00000370: fc26 403d e02c a4bb 4cd2 d0bd d272 9abd
00000380: 007c 573b f00e 21bc 4cae eb3d 50cb f7bc
00000390: c46d 6f3d b0ae fd3d 20bc 713d 5082 8dbd
000003a0: c4dc 0e3d 0cdf 42bd 488f 9dbd bc44 a03d
000003b0: 5eb2 81bd a0bc c23d 7067 543d 3002 27bc
000003c0: 0c2f b8bd e0ae 5c3c 2207 e73d 8895 febd
000003d0: a45b 93bd 0042 dfb9 70aa 8cbd fc0e a43d
000003e0: 80ec ee3d a468 ee3d 1452 1fbd 1825 8f3d
000003f0: 003e e9bc 7a33 f2bd 00e8 32bc 1e47 85bd
-0.12034102 0.027109697 -0.06825033 -0.051527604 0.010162711 0.10543521 -0.035493523 -0.11413686
-0.048771113 -0.033823 0.027713224 0.015970126 -0.10806945 -0.032828793 -0.041978136 0.10887982
-0.090340376 0.07717194 -0.050560564 0.09103952 -0.037026897 0.0007199496 0.108394474 0.06285328
-0.074729204 -0.077256635 0.07457091 0.07474287 0.0102042705 -0.0014033914 0.048304394 -0.027419627
0.05263701 0.05897878 0.093599185 0.09851289 0.08748616 0.12029828 -0.004951194 0.03012383
-0.04948114 -0.007477075 -0.014544129 0.111444324 0.02583772 0.07930195 0.040160418 -0.054365456
-0.12094909 -0.08887412 0.070855826 0.0067632347 0.038433 -0.07339722 0.07741435 0.021652162
0.08885135 0.08634229 -0.0636151 0.0449681 -0.0916522 -0.12366615 -0.014446706 -0.124344364
0.044200778 0.12025012 -0.07656737 0.08794299 0.035753638 0.013225809 0.05473499 0.11802618
-0.10053994 0.034179717 -0.09537266 0.09335397 -0.03409955 0.07909535 -0.016116425 0.022469714
-0.040248588 0.012753472 -0.03767468 0.01986669 0.05174181 -0.06815964 -0.09856373 -0.055506527
-0.10777761 -0.10817073 0.11737327 -0.06821491 -0.07670164 -0.12084387 -0.12432167 -0.0364881
0.06657615 0.021224827 0.10920368 -0.05084528 0.10720861 0.008760259 0.074476 0.023377687
-0.018288687 0.051118135 0.06261924 -0.09127644 0.004454404 -0.114309 0.0824056 0.0009988099
0.00804162 -0.06791657 -0.0511169 0.09083733 0.08337471 0.07086356 0.091184154 -0.11816439
-0.042647734 0.041952178 0.03949003 -0.04358037 0.02250491 -0.117542624 -0.080202624 -0.10304794
0.03686607 -0.046574816 0.0014814287 -0.12423991 -0.024856418 -0.003283441 -0.03066878 -0.015868917
-0.053441033 0.11024609 0.014710262 0.09335439 -0.048841298 0.12116012 0.03259945 0.033790514
-0.0326311 0.054102898 0.03396043 -0.017210037 -0.01689142 -0.1145228 -0.0966436 -0.05496551
0.080972314 0.090984896 0.040138647 -0.0766781 -0.07893297 -0.0004425794 0.050300807 -0.053894818
0.047320694 -0.087708026 0.039522126 -0.07364607 -0.021426499 -0.09990735 0.009476498 0.10975213
-0.12378238 0.056178242 0.11378029 -0.043528825 -0.043328077 0.122251734 0.1105542 0.0268282
-0.051156268 0.0082731545 -0.016282603 0.07351719 -0.038956627 -0.113624975 -0.042753696 -0.04121074
-0.1014024 -0.02962628 -0.10828303 -0.03134261 -0.07964815 -0.035091206 0.111848384 0.04384993
-0.06360085 0.020971656 0.0047129095 -0.012900248 0.062885955 0.101447776 0.09044434 -0.024496153
0.06458722 0.122287124 0.0719551 -0.11070593 -0.006091982 -0.100085884 -0.121928126 0.0998836
-0.0334495 -0.004692033 -0.030419886 0.09881495 -0.060394943 0.0044033825 0.055028975 0.065506116
0.0036201924 -0.1056107 -0.029476523 -0.016213968 0.04691218 -0.0050102323 -0.10196361 -0.075414315
0.0032880306 -0.0098302215 0.11507854 -0.030248314 0.05845429 0.123868346 0.0590173 -0.06909621
0.034878507 -0.047575995 -0.07693344 0.0782561 -0.06332849 0.095086336 0.05185646 -0.010193393
-0.089933485 0.013469428 0.11280657 -0.124308646 -0.071952134 -0.00042583048 -0.06868446 0.080106705
0.116662025 0.11641052 -0.038896635 0.06989497 -0.028471947 -0.118262246 -0.010919571 -0.06507705

fc.4.bias f4 [33]
00000000: d66e da3d 8860 d23d d297 f4bd b024 cabd
00000010: 3c7c 583e 13b3 3d3e 44a0 0ebf b4c2 b8be
00000020: 591d cc3d 094d f23e 8c6f d0be f4ab 56be
00000030: 3aa0 10be ca99 ad3e fe02 7bbe 2c89 e7bd
00000040: 3c81 9abd ae73 a03e 9fb1 9ebe 9e9b 4ebe
00000050: 1a1a 13be dcfe 9c3e f9c7 d6bd 93f2 2dbd
00000060: ef33 cbbe c765 973c 9207 3ebe 6467 923e
00000070: 3e82 a3be b26c 1dbe ab34 303c f865 0c3f
00000080: cc27 023e
0.106656715 0.10272318 -0.1194302 -0.09870279 0.21141142 0.18525343 -0.55713296 -0.36086047
0.09966535 0.47324398 -0.40710104 -0.20964032 -0.14123622 0.33906394 -0.2451286 -0.1130546
-0.07544181 0.31338257 -0.3099489 -0.20176551 -0.14365426 0.30663192 -0.104873605 -0.042467665
-0.3968806 0.018481148 -0.18557575 0.28594506 -0.31935304 -0.15373495 0.0107547445 0.5484309
0.12710494
