models/policy_m3.pt (torch_old, 99515 bytes, 6 tensors)

fc.0.weight f4 [128, 110]
0	0xbd1f408f	-0.038879927
1	0x3b4efb80	0.003158301
2	0xbd0b7fd0	-0.03405744
3	0x3d0acffe	0.033889763
4	0xbd22a6b5	-0.039709765
5	0x3da4442c	0.08020815
6	0xbe74cf8b	-0.23907296
7	0xbe6a8a02	-0.22904208
8	0xbebfa123	-0.37427625
9	0x3ed07b86	0.4071924
10	0x3b846e52	0.0040414715
11	0x3e6bdbe7	0.23033105
12	0xbe225fb3	-0.15856819
13	0xbe231485	-0.15925796
14	0x3ded82cb	0.115972124
15	0x3df4d389	0.1195441
16	0xbe99a99a	-0.30012208
17	0x3e09a5ac	0.13442105
18	0xbdd29c3c	-0.102837056
19	0x3d2dcbaa	0.042430557
20	0x3dfc9ccc	0.12334594
21	0xbdda95cd	-0.106731035
22	0x3c6557fb	0.013998027
23	0x3e631889	0.22177328
24	0xbd2967fa	-0.041358925
25	0x3ccbf748	0.024898186
26	0x3d81ab51	0.06331504
27	0x3e715410	0.23567224
28	0x3e565e2f	0.20934366
29	0xbdb3395c	-0.08751175
30	0x3e3e30da	0.18573323
31	0x3e21f1f1	0.1581495
32	0x3db830da	0.08993693
33	0x3da0708a	0.07833965
34	0x3e1dfce5	0.15428503
35	0x3e6036c3	0.2189589
36	0xbd329f2d	-0.043608833
37	0x3d481564	0.048848525
38	0x3d6dcdea	0.058057703
39	0xbdef8d29	-0.11696846
40	0x3df4743c	0.119362324
41	0xbcbe890b	-0.023258707
42	0x3e4665bc	0.19374746
43	0x3e298c9b	0.16557543
44	0x3d1174d0	0.03551179
45	0x3d9008f8	0.07032961
46	0x3dbba0d6	0.091615364
47	0x3e5999a3	0.21250014
48	0x3dee178f	0.11625587
49	0x3e3c9d99	0.18419494
50	0xbc2432da	-0.01002189
51	0xbd453a92	-0.04815156
52	0xbe0d8826	-0.13821468
53	0xbcda0810	-0.026615173
54	0xbd295190	-0.04133755
55	0xbe4bd023	-0.19903617
56	0xbda21889	-0.07914836
57	0xbd6c429a	-0.057680704
58	0x3bee3802	0.0072698602
59	0xbe2a4513	-0.16627912
60	0xbdb1db11	-0.08684362
61	0x3eabfcb2	0.3359123
62	0xbd86f628	-0.06589919
63	0xbe2b4a03	-0.16727452
64	0x3d8aa8ac	0.06770453
65	0xbbae3290	-0.005316086
66	0x3d42a62a	0.047521748
67	0x3d90b73c	0.07066199
68	0xbe42b2af	-0.19013475
69	0xbd8eff95	-0.06982342
70	0x3cd0496e	0.025425639
71	0x3b46af91	0.0030317048
72	0xbe08b7f1	-0.13351418
73	0x3e446cbc	0.19182104
74	0xbd47e764	-0.048804656
75	0x3d9c64bf	0.07636403
76	0x3b97dc63	0.0046344264
77	0xbc23a130	-0.009987161
78	0xbea3bb4c	-0.31978834
79	0x3e9e3b3f	0.30904576
80	0x3e642859	0.22281016
81	0xbd19688b	-0.037453216
82	0xbd4d44d4	-0.050114468
83	0xbe409a61	-0.18808891
84	0xbe2081ab	-0.15674464
85	0x3dc3cacc	0.09560165
86	0xbd1f330b	-0.038867038
87	0x3e2efb45	0.17088039
88	0x3da5a3bc	0.080878705
89	0x3e1133d4	0.14179927
90	0xbe18d652	-0.14925507
91	0x3e1fff0c	0.15624636
92	0x3e805e45	0.25071922
93	0x3e993ab0	0.29927588
94	0xbe14d1f1	-0.14533211
95	0x3c8a57c3	0.016887551
96	0x3cdd8a21	0.027043404
97	0x3d889d9d	0.06670687
98	0x3d0018bd	0.031273592
99	0x3d267443	0.04063822
100	0xbb1cce29	-0.0023926592
101	0x3e4cf00f	0.2001345
102	0x3e069a10	0.13144708
103	0xbd00fc8c	-0.031490847
104	0x3cd9426b	0.026520928
105	0x3dced208	0.10098654
106	0xbe0e034f	-0.1386845
107	0x3e22e5ff	0.15908049
108	0x3da2dfa8	0.07952815
109	0xbe21a2a3	-0.15784697
110	0x3d8a9c66	0.06768112
111	0xbd48222e	-0.04886072
112	0xbdd8507b	-0.105622254
113	0x3e286e72	0.16448382
114	0xbd671439	-0.05641577
115	0xbe96c7b5	-0.2944924
116	0xbe910b92	-0.2832914
117	0xbcb87dd5	-0.022520939
118	0x3e8a6619	0.2703102
119	0x3eeb38ad	0.45941678
120	0xbdc4c88f	-0.09608566
121	0x3ebc6b25	0.36800495
122	0x3ca70da9	0.020392256
123	0xbd6948b7	-0.056954112
124	0x3d94166a	0.07230838
125	0xbdd5056b	-0.10401424
126	0x3e454de8	0.19268
127	0xbbe24661	-0.0069053625
128	0xbdd53f0d	-0.104124166
129	0x3d8802df	0.066411726
130	0xbe4c0ff4	-0.1992796
131	0xbca03a8d	-0.01955917
132	0x3cedfdb9	0.029051648
133	0x3db2b9dd	0.08726857
134	0xbd863f53	-0.06555047
135	0xbe290acc	-0.16508025
136	0x3db7715f	0.08957171
137	0x3d5a6dd3	0.053327393
138	0x3e1ff547	0.1562091
139	0xbe615a40	-0.22007084
140	0x3d05adf9	0.032636616
141	0x3c2db4c2	0.010602178
142	0x3d92362a	0.07139237
143	0x3cdd83a4	0.02704031
144	0xbe0c720d	-0.13715382
145	0xbdb82264	-0.089909345
146	0xbd9672f9	-0.07346148
147	0x3d709fae	0.058746032
148	0xbe1a849b	-0.15089647
149	0xbda27056	-0.07931583
150	0xbe253af4	-0.1613577
151	0xbdb91cda	-0.09038706
152	0x3dd009d9	0.10158128
153	0x3e7edcac	0.24888867
154	0x3e00ee0d	0.12590809
155	0x3e014d77	0.12627207
156	0xbcab51f5	-0.020913104
157	0xbe05f887	-0.13083087
158	0xbe37424f	-0.17896388
159	0xbea28e29	-0.31749085
160	0xbc009228	-0.007847346
161	0x3e1b698a	0.15176979
162	0xbd2000c0	-0.039063215
163	0x3d740263	0.05957259
164	0x3de36c25	0.11104611
165	0x3e41b10b	0.18915193
166	0x3d99d3cb	0.075110994
167	0x3e2a57b3	0.16635017
168	0x3e0d0369	0.13770832
169	0xbc98fcb7	-0.018675191
170	0xbc1c3a8d	-0.009535444
171	0xbe08a33e	-0.13343522
172	0xbe8f29f2	-0.2796169
173	0x3e1245a1	0.14284374
174	0xb949235d	-0.00019182028
175	0x3e2632ec	0.16230363
176	0xbeaac574	-0.3335377
177	0xbe17d548	-0.14827454
178	0x3d0b8b5b	0.034068447
179	0xbe92f11e	-0.28699583
180	0xbc51455c	-0.012772884
181	0xbe46d086	-0.19415483
182	0x3ddf5f74	0.10906878
183	0xbe78cb35	-0.24296267
184	0xbe3086e1	-0.17238952
185	0x3cabac72	0.020956252
186	0xbe175e7c	-0.14782137
187	0x3c2f502a	0.010700265
188	0x3dc0ed6b	0.09420284
189	0xbe95aa69	-0.29231575
190	0x3d89caa8	0.06728107
191	0xbda58d28	-0.08083564
192	0x3cad612e	0.021164503
193	0x3d1591b3	0.036515903
194	0x3d30776e	0.043082647
195	0xbc47e6fd	-0.012201068
196	0xbcc7bd1b	-0.024382165
197	0xbd3cf40d	-0.046131182
198	0x3d9f375f	0.07774233
199	0xbd6f1cb5	-0.058376987
200	0xbe8a7aa7	-0.270467
201	0xbd4ccbcd	-0.049999047
202	0x3de7c284	0.11316398
203	0xbe1e8b2d	-0.15482779
204	0xbe92a321	-0.28640082
205	0x3da890a1	0.08230711
206	0xbe6a4b7b	-0.22880356
207	0x3d89f3f5	0.06735984
208	0x3e1e9b89	0.1548902
209	0x3e22d503	0.1590157
210	0xbd535e74	-0.05160375
211	0x3da6f051	0.081513055
212	0xbe3299f4	-0.17441541
213	0xbe285177	-0.16437326
214	0x3d449764	0.04799594
215	0x3e1e8584	0.1548062
216	0x3dd113ca	0.102088526
217	0xbe455128	-0.1926924
218	0xbc5b1cfd	-0.013373611
219	0xbe0ff0d6	-0.14056715
220	0xbd9d1ce5	-0.07671527
221	0xbd8dfd0a	-0.06933029
222	0x3dd477fc	0.10374448
223	0x3e9be1f6	0.30445832
224	0x3e36df01	0.17858507
225	0xbe8de9c6	-0.27717417
226	0xbe408a31	-0.18802716
227	0xbe8f9861	-0.28045943
228	0xbe417cd0	-0.18895268
229	0x3d1694e8	0.0367631
230	0x3ddeded1	0.108823426
231	0xbba1c526	-0.004936832
232	0xbd831bd5	-0.06401793
233	0xbe29b9a2	-0.1657472
234	0x3de4883d	0.11158798
235	0xbb7569e4	-0.003744715
236	0x3d3d66c5	0.046240587
237	0x3e23f748	0.16012299
238	0xbe0e781b	-0.13913004
239	0x3dac1b69	0.084036656
240	0x3e3be6fd	0.18349834
241	0xbd0f2ff0	-0.034957826
242	0xbda2d7d5	-0.07951323
243	0x3e283371	0.16425873
244	0x3e8a2663	0.26982412
245	0xbd644c8f	-0.055737074
246	0xbdf995aa	-0.12186749
247	0x3e1764d5	0.14784558
248	0x3e2c28dc	0.16812462
249	0x3ae2e0a2	0.0017309377
250	0x3d75595a	0.059899665
251	0x3c7b30a4	0.015331421
252	0x3dc9c4b3	0.098519705
253	0xbdab1883	-0.083542846
254	0x3e313ee5	0.17309149
255	0x3ce659b9	0.028118955

fc.0.bias f4 [128]
0	0xbe0d3cc6	-0.13792714
1	0x3dfc8a51	0.12331069
2	0xbde75259	-0.112950034
3	0xbd8a489e	-0.06752132
4	0xbe2f0649	-0.17092241
5	0x3d0e3d0e	0.034726195
6	0x3dfe6384	0.12421325
7	0x3cf6e870	0.030140132
8	0x3dc46da1	0.095912226
9	0x3de06f39	0.10958714
10	0xbd33c28d	-0.04388671
11	0xbd5aa359	-0.053378437
12	0x3d32f48a	0.043690242
13	0x3a1e17f1	0.0006030789
14	0x3dcdcb5b	0.100485526
15	0xbe13f634	-0.14449388
16	0xbdff1b30	-0.124563575
17	0xbdd27029	-0.10275299
18	0xbe1db214	-0.15399963
19	0x3dc49a70	0.09599769
20	0x3eec0a9d	0.46101847
21	0x3e0b95a4	0.13631302
22	0xbe2126c0	-0.15737438
23	0x3e0ca2c5	0.13733967
24	0xbd942814	-0.07234207
25	0xbe0d29f3	-0.13785534
26	0x3e700a20	0.23441362
27	0xbca2f750	-0.019893318
28	0x3dc03103	0.09384348
29	0x3e132420	0.1436925
30	0xbdfb1cd9	-0.12261362
31	0xbe48b9ec	-0.19602174
32	0xbbe16c0e	-0.006879336
33	0xbe4f1727	-0.20223676
34	0xbd9937ec	-0.074813694
35	0xbd41cd21	-0.047314767
36	0x3a562a33	0.00081697403
37	0xbecc2717	-0.39873573
38	0xbe2cefab	-0.16888301
39	0xbca001e1	-0.019532146
40	0x3c8b16d8	0.016978666
41	0x3e050959	0.12991847
42	0x3df949c0	0.1217227
43	0xbd9d341a	-0.07675953
44	0xbccf3af6	-0.02529667
45	0x3e20f05b	0.15716688
46	0x3e019b1f	0.1265683
47	0x3d06d189	0.032914672
48	0x3d3a3b26	0.045466565
49	0xbd1217eb	-0.03566734
50	0x3c1ff73a	0.009763533
51	0x3d9cfa9e	0.07664989
52	0x3e1b6e24	0.15178734
53	0x3e6f56c1	0.23372938
54	0x3d7e87c2	0.062141187
55	0xbe07ad1e	-0.13249633
56	0x3ddd6b69	0.108115025
57	0xbd9f2972	-0.07771577
58	0x3db4e873	0.08833399
59	0x3d7d410d	0.061829615
60	0x3c8d4a86	0.01724745
61	0xbc047847	-0.008085317
62	0x3cf12c52	0.029440079
63	0x3dd95079	0.10611052
64	0xbd96d124	-0.07364109
65	0x3d18ba5a	0.037287094
66	0x3d82e78c	0.0639182
67	0x3e13c20b	0.1442949
68	0xbd5b674a	-0.0535653
69	0xbdb610d8	-0.088899314
70	0xbdaf652a	-0.085642174
71	0xbe146bbd	-0.14494224
72	0x3dae19b0	0.08500993
73	0xbe07e5ad	-0.13271208
74	0xbdc5b72e	-0.096540794
75	0x3d258dce	0.04041844
76	0xbd8154a1	-0.0631497
77	0xbd0667ff	-0.032814022
78	0xbcf214fa	-0.029551018
79	0x3d57f14e	0.05272036
80	0xbcf8cd44	-0.030371316
81	0x3cbf6b1d	0.023366505
82	0xbe29c0c9	-0.16577448
83	0x3daf6d1f	0.08565735
84	0xbe414c4c	-0.18876761
85	0x3dfaeed6	0.122525856
86	0x3e0ce10b	0.13757722
87	0xbe18d851	-0.14926268
88	0xbdd6f814	-0.10496536
89	0xbd2fc83b	-0.042915564
90	0xbe12892b	-0.14310138
91	0x3dc7cbb6	0.09755652
92	0xbe19a693	-0.1500495
93	0xbdb1d28b	-0.08682736
94	0x3e1b351c	0.15156978
95	0xbd9f7f1a	-0.077879146
96	0xbc6b9a8d	-0.0143801095
97	0xbcd591d0	-0.026070505
98	0x3d4ed985	0.05050041
99	0x3d218a71	0.03943867
100	0xbd712341	-0.05887151
101	0x3dc74bef	0.0973128
102	0x3cba89b3	0.022770738
103	0x3e10b631	0.14132
104	0xbca3c53c	-0.01999151
105	0x3d669e60	0.056303382
106	0xbe33ee9b	-0.1757149
107	0x3db618f2	0.08891477
108	0xbe1bb868	-0.15207064
109	0x3d868a60	0.06569362
110	0xbdd39a06	-0.10332112
111	0x3d8286e8	0.063733876
112	0xbd6cf30d	-0.05784898
113	0x3caac966	0.020847987
114	0xbd467b08	-0.048457175
115	0xbddb9eea	-0.1072367
116	0x3e03748a	0.12837425
117	0xbea3d888	-0.32001138
118	0xbb78e12e	-0.0037976014
119	0xbdf27c82	-0.11840154
120	0x3e4953b4	0.19660836
121	0xbdc7574c	-0.097334474
122	0xbe1df325	-0.15424784
123	0xbe024a84	-0.12723738
124	0x3e0e14a3	0.1387506
125	0x3d94a3cd	0.07257805
126	0x3c2f2fa9	0.010692515
127	0x3dc61dec	0.09673676

fc.2.weight f4 [64, 128]
0	0x3e3a77bf	0.18209742
1	0xbd6f4575	-0.05841585
2	0x3e12ab71	0.14323212
3	0x3dd76f87	0.10519319
4	0x3ec77359	0.3895519
5	0xbee9f07f	-0.45691296
6	0x3d4396ca	0.047751226
7	0xbf22b74f	-0.63560957
8	0x3df4bd98	0.11950225
9	0xbc82a05e	-0.01594561
10	0xbdec8d04	-0.11550334
11	0xbb3793a7	-0.0028011592
12	0x3e148692	0.1450446
13	0x3ebf6a4c	0.37385786
14	0x3ee9a4a7	0.45633432
15	0xbeb6255d	-0.3557538
16	0x3e4328b0	0.1905849
17	0xbcdd83a2	-0.027040306
18	0x3c29ec85	0.010371332
19	0x3d7adad3	0.061243843
20	0xbec04898	-0.37555385
21	0x3d9e91f7	0.07742684
22	0xbe0bdcfe	-0.1365852
23	0xbe67c02e	-0.22631904
24	0x3efbe8f4	0.49201167
25	0x3e04ab71	0.12956025
26	0xbec7e40f	-0.39041182
27	0x3e5a3052	0.21307495
28	0x3ee04cd0	0.43808603
29	0x3df70b76	0.12062733
30	0xbe798808	-0.24368298
31	0x3e9cb771	0.30608705
32	0x3e1df562	0.15425637
33	0x3e17e0ad	0.14831801
34	0xbe5f1ef8	-0.21789157
35	0x3ee8d241	0.4547291
36	0x3ef1bac3	0.472128
37	0x3ea2573f	0.31707188
38	0xbe364e24	-0.17803246
39	0xbed0f8e7	-0.40814897
40	0x3e8452bf	0.2584438
41	0x3d57cc3c	0.052685007
42	0x3e181ddb	0.14855139
43	0x3e3fd6a2	0.1873422
44	0x3d708b5c	0.058726653
45	0xbd5eb04b	-0.054367345
46	0x39be74e8	0.00036326726
47	0xbe78bea0	-0.24291468
48	0xbec5a486	-0.38602084
49	0x3d88b049	0.06674249
50	0xbebbbdb1	-0.3666816
51	0x3e6f6d48	0.23381531
52	0xbe54800a	-0.20751968
53	0xbe95a90a	-0.2923053
54	0xbdfa336f	-0.122168414
55	0x3ed045c7	0.40678236
56	0x3e7c55cd	0.24642105
57	0x3e238a33	0.15970688
58	0x3ea63a21	0.32466224
59	0x3d10c454	0.035343483
60	0x3eec2079	0.46118525
61	0xbee9129a	-0.45522004
62	0xbe5e6d6b	-0.21721427
63	0xbe250d54	-0.16118366
64	0x3eb69d70	0.3566699
65	0x3e940e28	0.2891705
66	0xbedff941	-0.43744853
67	0x3e8592a9	0.26088455
68	0x3e9b41bf	0.30323598
69	0x3eb43788	0.35198617
70	0x3f1ee579	0.620689
71	0xbecb912e	-0.397592
72	0xbe9cc361	-0.30617812
73	0xbe43c1c7	-0.19116889
74	0xbe78db69	-0.24302448
75	0x3cfd6507	0.030931963
76	0xbd9a49b3	-0.07533588
77	0x3e00356d	0.1252038
78	0xbf211d1d	-0.6293505
79	0x3d25026b	0.04028551
80	0x3e9b7751	0.3036447
81	0xbec62c05	-0.3870546
82	0xbdbdf42a	-0.09275086
83	0xbd0a087a	-0.03369949
84	0x3b2c155a	0.0026257844
85	0xbd781203	-0.060564052
86	0x3ecf554a	0.40494758
87	0x3e75be35	0.2399834
88	0xbe4fd0a3	-0.20294432
89	0x3c10e5b6	0.00884383
90	0x3e05c2e1	0.13062622
91	0xbea48b55	-0.32137552
92	0x3e4481e2	0.19190171
93	0x3e4264c0	0.18983746
94	0x3dca3649	0.09873635
95	0x3f0ed8a1	0.557993
96	0xbd8ca83e	-0.06868027
97	0xbe032c99	-0.12809981
98	0x3e381cd3	0.17979746
99	0xbc27e38c	-0.0102471225
100	0x3cfb42e2	0.03067154
101	0xbe5487a6	-0.20754871
102	0xbf2c3e02	-0.67282116
103	0xbe900db9	-0.2813547
104	0x3ce4a786	0.027911913
105	0xbe9de01f	-0.30835053
106	0x3d6dee00	0.058088303
107	0x3e7563bd	0.23963828
108	0x3e82121f	0.2540445
109	0xbebef575	-0.37296644
110	0x3e9e28b3	0.30890426
111	0x3e2fe407	0.1717683
112	0xbe94637f	-0.2898216
113	0xbe4d2ef4	-0.20037442
114	0x3ec961f8	0.39332557
115	0xbd06b2e5	-0.03288545
116	0xbed709dd	-0.41999713
117	0x3ebcd657	0.36882278
118	0x3e5bad50	0.21452832
119	0xbd3ef8dc	-0.04662405
120	0xbcd23c1c	-0.025663428
121	0x3efc5744	0.49285328
122	0xbd02ed73	-0.03196473
123	0x3e26c0d7	0.162845
124	0xbdc2352c	-0.09482798
125	0x3dc2b43b	0.095070325
126	0x3d6c1ab2	0.057642646
127	0xbdb9c166	-0.09070091
128	0xbf17ebc8	-0.5934415
129	0xbe56ef63	-0.20989756
130	0xbd6ce325	-0.05783381
131	0xbe817dda	-0.2529133
132	0xbe14f4ae	-0.14546463
133	0x3f4d0988	0.8009267
134	0xbd94553f	-0.07242822
135	0x3e755b78	0.23960674
136	0xbded273c	-0.11579749
137	0xbe2306b7	-0.1592053
138	0xbd7e7258	-0.062120765
139	0xbdf39755	-0.11894099
140	0xbf0831d0	-0.5320101
141	0xbf912a51	-1.1341039
142	0xbe516f61	-0.20452644
143	0x3e4dce28	0.20098174
144	0x3dedcd61	0.116114385
145	0x3e44514b	0.19171636
146	0x3df0c682	0.11756612
147	0xbe421544	-0.18953425
148	0x3ea733bc	0.32656658
149	0xbd1cde33	-0.038297843
150	0x3d8292b8	0.06375641
151	0x3d0d54f9	0.034504864
152	0xbed5e708	-0.41777825
153	0xbddc1bd2	-0.10747494
154	0x3e61bf3b	0.22045605
155	0x3eb97f97	0.36230156
156	0xbee57a17	-0.4481971
157	0x3d579107	0.052628543
158	0xbdea7a20	-0.11449075
159	0xbd343e48	-0.04400471
160	0x3cd8d0a7	0.02646668
161	0x3ec912f0	0.3927226
162	0x3f0e0b61	0.5548611
163	0xbe015601	-0.12630464
164	0xbed932f2	-0.4242168
165	0xbe8f8f61	-0.28039077
166	0x3ea0bbd7	0.3139331
167	0x3f1ee1c6	0.6206325
168	0xbe675b83	-0.22593503
169	0xbea3c6cf	-0.31987616
170	0xbe953228	-0.2913983
171	0xbef599d3	-0.4796892
172	0xbec03b25	-0.37545124
173	0x3e21a8f8	0.15787113
174	0xbdc29a67	-0.09502106
175	0x3c8c0546	0.017092358
176	0x3dfb24d0	0.12262881
177	0x3d961813	0.073288105
178	0x3ca4aa7e	0.020100828
179	0xbe2bf65d	-0.16793199
180	0xbd89b34d	-0.06723652
181	0xbc1859ba	-0.009298736
182	0x3f5eb862	0.87000096
183	0xbd91bea0	-0.07116437
184	0xbee9a890	-0.45636415
185	0xbcdf6a36	-0.027272325
186	0xbe159a55	-0.14609654
187	0xbe000d9a	-0.12505189
188	0xbeb762eb	-0.35817656
189	0x3db547f3	0.08851614
190	0xbdf2c5cc	-0.11854133
191	0x3e2d8cd6	0.16948256
192	0xbe89ebf1	-0.26937822
193	0xbeaf8bfa	-0.3428648
194	0x3e3b8c34	0.18315202
195	0xbe5f284a	-0.21792713
196	0xbc76506d	-0.015033823
197	0x3e65cd89	0.22441687
198	0xbe0fe392	-0.14051655
199	0x3f1b3c56	0.6063894
200	0x3f49cb4f	0.7882585
201	0x3e71ec2e	0.23625252
202	0xbe4eff62	-0.20214608
203	0xbea6e856	-0.32599133
204	0x3d1efbd2	0.038814373
205	0xbef5d607	-0.48014852
206	0x3ef54217	0.47901985
207	0x3e0300dc	0.12793297
208	0x3e25d26c	0.16193551
209	0xbcbd16b1	-0.02308211
210	0x3e424c08	0.18974316
211	0x3dcb5740	0.09928751
212	0xbc5f4334	-0.013626862
213	0x3d4e15a4	0.050313607
214	0xbe2965a8	-0.16542685
215	0x3cc285c5	0.023745427
216	0xbe18c476	-0.14918694
217	0x3eb25401	0.34829715
218	0x3e9beb06	0.30452746
219	0xbe5ed1ac	-0.21759671
220	0xbe1fcd2d	-0.15605612
221	0xbe088151	-0.1333058
222	0x3edb88c3	0.42877778
223	0xbf660017	-0.8984389
224	0xbe78c40e	-0.24293539
225	0x3dbaa752	0.09113945
226	0x3e0366b4	0.12832147
227	0x3da2743c	0.07932326
228	0xbe0c7b9a	-0.13719025
229	0xbd5cbabb	-0.053889018
230	0x3f10789c	0.56434035
231	0x3e5bc7a9	0.21462883
232	0x39f865e1	0.00047378152
233	0x3eb56061	0.35425094
234	0x3d6511e7	0.055925276
235	0x3c841f58	0.016128227
236	0x3cc76d74	0.024344184
237	0x3e8268c5	0.25470558
238	0xbe8cf0b8	-0.27527404
239	0xbee2bae1	-0.44283202
240	0xbde2d03c	-0.11074874
241	0xbd815e0f	-0.063167684
242	0xbf41202e	-0.7543973
243	0xbe473d47	-0.19456969
244	0xbe4b88c7	-0.19876395
245	0xbe82bf01	-0.2553635
246	0xbbe13197	-0.0068723666
247	0xbd67bf09	-0.05657867
248	0x3b97715a	0.004621667
249	0xbef9a32e	-0.4875731
250	0x3e166c13	0.14689665
251	0x3e152455	0.14564641
252	0xbe574960	-0.21024084
253	0x3e7d0f69	0.2471291
254	0x3de09601	0.10966111
255	0xbe4c079d	-0.19924779

fc.2.bias f4 [64]
0	0xbeaf1041	-0.34192088
1	0x3e94af9b	0.29040226
2	0xbd32b8bf	-0.04363322
3	0x3da090e9	0.078401394
4	0xbd03a1bb	-0.03213666
5	0x3e9a6e98	0.301625
6	0xbd32cc86	-0.04365208
7	0x3d6369d4	0.055520847
8	0xbce2a5b1	-0.027666898
9	0x3e92f3c0	0.28701591
10	0x3e81ef34	0.2537781
11	0x3c8c5e8d	0.01713493
12	0x3e83e551	0.25760892
13	0xbe2a019c	-0.16602176
14	0xbe5b3559	-0.2140707
15	0x3e4142b2	0.18873098
16	0x3e3eea36	0.18644032
17	0x3debda4e	0.11516248
18	0x3b5f67bf	0.0034088937
19	0x3e799182	0.24371913
20	0x3e1d3987	0.15353976
21	0xbe044977	-0.1291865
22	0xbb9c0c44	-0.0047622044
23	0xbe2b3295	-0.16718514
24	0xbe6fca4b	-0.23417012
25	0xbe348b11	-0.17631175
26	0xbceab659	-0.028651403
27	0xbe175ad5	-0.14780743
28	0x3dfba6be	0.12287663
29	0xbd2c7be7	-0.04211035
30	0x3d93e4d8	0.07221383
31	0xbdc1dd1b	-0.09466001
32	0xbdd5a16a	-0.10431178
33	0xbac7014e	-0.0015182884
34	0x3ce315a0	0.027720273
35	0xbc4734f2	-0.012158619
36	0xbbcc40c6	-0.0062333075
37	0xbcaeb06d	-0.02132436
38	0xbda156e7	-0.078779034
39	0xbda04257	-0.07825153
40	0xbe2677db	-0.16256659
41	0xbde064cb	-0.10956725
42	0x3e0881aa	0.13330713
43	0x3bc72844	0.006077798
44	0x3d58887f	0.052864548
45	0x3d87099a	0.06593628
46	0xbd09330e	-0.033495955
47	0x3e57648b	0.21034448
48	0xbe577227	-0.2103964
49	0x3daf1485	0.08548836
50	0xbe6629c0	-0.22476864
51	0x3c80cf02	0.015723709
52	0xbc1f0de9	-0.009707906
53	0xbe992229	-0.29908875
54	0x3bb33be4	0.005469786
55	0xbd307fa0	-0.043090463
56	0xbe037ea6	-0.12841281
57	0x3e924efe	0.2857589
58	0xbdfa531b	-0.12222882
59	0xbe1d70bb	-0.15375035
60	0x3d8db1e0	0.069186926
61	0x3db5b506	0.08872418
62	0x3e68702e	0.22699043
63	0x396be55f	0.00022496794

fc.4.weight f4 [33, 64]
0	0xbdf6755a	-0.12034102
1	0x3cde1528	0.027109697
2	0xbd8bc6d4	-0.06825033
3	0xbd530e9c	-0.051527604
4	0x3c268180	0.010162711
5	0x3dd7ee6a	0.10543521
6	0xbd1161a8	-0.035493523
7	0xbde9c096	-0.11413686
8	0xbd47c438	-0.048771113
9	0xbd0a89fc	-0.033823
10	0x3ce306d8	0.027713224
11	0x3c82d3c8	0.015970126
12	0xbddd5384	-0.10806945
13	0xbd06777c	-0.032828793
14	0xbd2bf144	-0.041978136
15	0x3ddefc62	0.10887982
16	0xbdb90460	-0.090340376
17	0x3d9e0c52	0.07717194
18	0xbd4f1898	-0.050560564
19	0x3dba72ee	0.09103952
20	0xbd17a984	-0.037026897
21	0x3a3cbb00	0.0007199496
22	0x3dddfdec	0.108394474
23	0x3d80b938	0.06285328
24	0xbd990ba0	-0.074729204
25	0xbd9e38ba	-0.077256635
26	0x3d98b8a2	0.07457091
27	0x3d9912ca	0.07474287
28	0x3c272fd0	0.0102042705
29	0xbab7f200	-0.0014033914
30	0x3d45dad4	0.048304394
31	0xbce09f20	-0.027419627
32	0x3d5799e8	0.05263701
33	0x3d7193bc	0.05897878
34	0x3dbfb0ee	0.093599185
35	0x3dc9c120	0.09851289
36	0x3db32bf2	0.08748616
37	0x3df65ef2	0.12029828
38	0xbba23da0	-0.004951194
39	0x3cf6c640	0.03012383
40	0xbd4aacbc	-0.04948114
41	0xbbf50240	-0.007477075
42	0xbc6e4a80	-0.014544129
43	0x3de43cec	0.111444324
44	0x3cd3a9a0	0.02583772
45	0x3da26910	0.07930195
46	0x3d247f40	0.040160418
47	0xbd5eae50	-0.054365456
48	0xbdf7b428	-0.12094909
49	0xbdb603a2	-0.08887412
50	0x3d911cdc	0.070855826
51	0x3bdd9e20	0.0067632347
52	0x3d1d6bec	0.038433
53	0xbd965148	-0.07339722
54	0x3d9e8b6a	0.07741435
55	0x3cb15fe0	0.021652162
56	0x3db5f7b2	0.08885135
57	0x3db0d43a	0.08634229
58	0xbd8248a2	-0.0636151
59	0x3d383078	0.0449681
60	0xbdbbb426	-0.0916522
61	0xbdfd44ae	-0.12366615
62	0xbc6cb1e0	-0.014446706
63	0xbdfea842	-0.124344364
64	0x3d350be0	0.044200778
65	0x3df645b2	0.12025012
66	0xbd9ccf5a	-0.07656737
67	0x3db41b74	0.08794299
68	0x3d127268	0.035753638
69	0x3c58b110	0.013225809
70	0x3d6031cc	0.05473499
71	0x3df1b7b6	0.11802618
72	0xbdcde7e2	-0.10053994
73	0x3d0c0008	0.034179717
74	0xbdc352be	-0.09537266
75	0x3dbf305e	0.09335397
76	0xbd0babf8	-0.03409955
77	0x3da1fcbe	0.07909535
78	0xbc840698	-0.016116425
79	0x3cb81268	0.022469714
80	0xbd24dbb4	-0.040248588
81	0x3c50f3f0	0.012753472
82	0xbd1a50c4	-0.03767468
83	0x3ca2bf78	0.01986669
84	0x3d53ef38	0.05174181
85	0xbd8b9748	-0.06815964
86	0xbdc9dbc8	-0.09856373
87	0xbd635ad0	-0.055506527
88	0xbddcba82	-0.10777761
89	0xbddd889e	-0.10817073
90	0x3df06166	0.11737327
91	0xbd8bb442	-0.06821491
92	0xbd9d15c0	-0.07670164
93	0xbdf77cfe	-0.12084387
94	0xbdfe9c5c	-0.12432167
95	0xbd15748c	-0.0364881
96	0x3d885914	0.06657615
97	0x3caddfb0	0.021224827
98	0x3ddfa62e	0.10920368
99	0xbd504324	-0.05084528
100	0x3ddb9030	0.10720861
101	0x3c0f8730	0.008760259
102	0x3d9886e0	0.074476
103	0x3cbf8290	0.023377687
104	0xbc95d228	-0.018288687
105	0x3d516140	0.051118135
106	0x3d803e84	0.06261924
107	0xbdbaef24	-0.09127644
108	0x3b91f640	0.004454404
109	0xbdea1ad6	-0.114309
110	0x3da8c444	0.0824056
111	0x3a82ea80	0.0009988099
112	0x3c03c100	0.00804162
113	0xbd8b17d8	-0.06791657
114	0xbd515ff4	-0.0511169
115	0x3dba08ec	0.09083733
116	0x3daac05c	0.08337471
117	0x3d9120ea	0.07086356
118	0x3dbabec2	0.091184154
119	0xbdf2002c	-0.11816439
120	0xbd2eaf64	-0.042647734
121	0x3d2bd60c	0.041952178
122	0x3d21c04c	0.03949003
123	0xbd328154	-0.04358037
124	0x3cb85c38	0.02250491
125	0xbdf0ba30	-0.117542624
126	0xbda44146	-0.080202624
127	0xbdd30acc	-0.10304794
128	0x3d1700e0	0.03686607
129	0xbd3ec53c	-0.046574816
130	0x3ac22c80	0.0014814287
131	0xbdfe717e	-0.12423991
132	0xbccb9fb0	-0.024856418
133	0xbb572f00	-0.003283441
134	0xbcfb3d18	-0.03066878
135	0xbc81ff88	-0.015868917
136	0xbd5ae4fc	-0.053441033
137	0x3de1c8b4	0.11024609
138	0x3c710350	0.014710262
139	0x3dbf3096	0.09335439
140	0xbd480dd0	-0.048841298
141	0x3df822cc	0.12116012
142	0x3d058700	0.03259945
143	0x3d0a67ec	0.033790514
144	0xbd05a830	-0.0326311
145	0x3d5d9b00	0.054102898
146	0x3d0b1a18	0.03396043
147	0xbc8cfc10	-0.017210037
148	0xbc8a5fe0	-0.01689142
149	0xbdea8aee	-0.1145228
150	0xbdc5ed14	-0.0966436
151	0xbd612384	-0.05496551
152	0x3da5d4d0	0.080972314
153	0x3dba564a	0.090984896
154	0x3d24686c	0.040138647
155	0xbd9d0968	-0.0766781
156	0xbda1a79c	-0.07893297
157	0xb9e80a00	-0.0004425794
158	0x3d4e0838	0.050300807
159	0xbd5cc0d0	-0.053894818
160	0x3d41d358	0.047320694
161	0xbdb3a044	-0.087708026
162	0x3d21e1f4	0.039522126
163	0xbd96d3c0	-0.07364607
164	0xbcaf86a0	-0.021426499
165	0xbdcc9c3a	-0.09990735
166	0x3c1b4350	0.009476498
167	0x3de0c5ba	0.10975213
168	0xbdfd819e	-0.12378238
169	0x3d661b28	0.056178242
170	0x3de905a4	0.11378029
171	0xbd324b48	-0.043528825
172	0xbd3178c8	-0.043328077
173	0x3dfa5f1e	0.122251734
174	0x3de26a3e	0.1105542
175	0x3cdbc6d0	0.0268282
176	0xbd51893c	-0.051156268
177	0x3c078c20	0.0082731545
178	0xbc856318	-0.016282603
179	0x3d96902e	0.07351719
180	0xbd1f90fc	-0.038956627
181	0xbde8b436	-0.113624975
182	0xbd2f1e80	-0.042753696
183	0xbd28cc98	-0.04121074
184	0xbdcfac10	-0.1014024
185	0xbcf2b2d0	-0.02962628
186	0xbdddc37e	-0.10828303
187	0xbd00611c	-0.03134261
188	0xbda31e92	-0.07964815
189	0xbd0fbbcc	-0.035091206
190	0x3de510c4	0.111848384
191	0x3d339bfc	0.04384993
192	0xbd82412a	-0.06360085
193	0x3cabccc0	0.020971656
194	0x3b9a6ec0	0.0047129095
195	0xbc535b90	-0.012900248
196	0x3d80ca5a	0.062885955
197	0x3dcfc3da	0.101447776
198	0x3db93ae2	0.09044434
199	0xbcc8ac28	-0.024496153
200	0x3d84464e	0.06458722
201	0x3dfa71ac	0.122287124
202	0x3d935d32	0.0719551
203	0xbde2b9ca	-0.11070593
204	0xbbc79f40	-0.006091982
205	0xbdccf9d4	-0.100085884
206	0xbdf9b574	-0.121928126
207	0x3dcc8fc6	0.0998836
208	0xbd090258	-0.0334495
209	0xbb99bfa0	-0.004692033
210	0xbcf93320	-0.030419886
211	0x3dca5f7e	0.09881495
212	0xbd7760b0	-0.060394943
213	0x3b904a40	0.0044033825
214	0x3d616610	0.055028975
215	0x3d862812	0.065506116
216	0x3b6d40c0	0.0036201924
217	0xbdd84a6c	-0.1056107
218	0xbcf178c0	-0.029476523
219	0xbc84d328	-0.016213968
220	0x3d4026fc	0.04691218
221	0xbba42ce0	-0.0050102323
222	0xbdd0d24c	-0.10196361
223	0xbd9a72d2	-0.075414315
224	0x3b577c00	0.0032880306
225	0xbc210ef0	-0.0098302215
226	0x3debae4c	0.11507854
227	0xbcf7cb50	-0.030248314
228	0x3d6f6dc4	0.05845429
229	0x3dfdaeb0	0.123868346
230	0x3d71bc20	0.0590173
231	0xbd8d8250	-0.06909621
232	0x3d0edcc4	0.034878507
233	0xbd42df0c	-0.047575995
234	0xbd9d8f48	-0.07693344
235	0x3da044bc	0.0782561
236	0xbd81b25e	-0.06332849
237	0x3dc2bca0	0.095086336
238	0x3d546770	0.05185646
239	0xbc270230	-0.010193393
240	0xbdb82f0c	-0.089933485
241	0x3c5caee0	0.013469428
242	0x3de70722	0.11280657
243	0xbdfe9588	-0.124308646
244	0xbd935ba4	-0.071952134
245	0xb9df4200	-0.00042583048
246	0xbd8caa70	-0.06868446
247	0x3da40efc	0.080106705
248	0x3deeec80	0.116662025
249	0x3dee68a4	0.11641052
250	0xbd1f5214	-0.038896635
251	0x3d8f2518	0.06989497
252	0xbce93e00	-0.028471947
253	0xbdf2337a	-0.118262246
254	0xbc32e800	-0.010919571
255	0xbd85471e	-0.06507705

fc.4.bias f4 [33]
0	0x3dda6ed6	0.106656715
1	0x3dd26088	0.10272318
2	0xbdf497d2	-0.1194302
3	0xbdca24b0	-0.09870279
4	0xbd22056c	-0.039555952
5	0xbd820ea2	-0.06350447
6	0xbd893766	-0.067000195
7	0x3d5e7dc0	0.054319143
8	0x3f11e91e	0.56996334
9	0x3e7a88a1	0.24466182
10	0xbefe47ba	-0.49664098
11	0xbe868888	-0.2627604
12	0xbda8a92d	-0.08235393
13	0x3e76affd	0.24090572
14	0xbea0b682	-0.31389242
15	0xbe1f6d69	-0.1556908
16	0x3c909e39	0.017653571
17	0x3d451a81	0.04812098
18	0xbea53327	-0.3226559
19	0xbe505c33	-0.20347671
20	0xbe8cca1d	-0.2749795
21	0x3e3ac9db	0.18241064
22	0xbe6c2ffd	-0.23065181
23	0x3d8a216d	0.06744657
24	0xbe2dadf4	-0.16960889
25	0x3cac0f31	0.021003338
26	0xbe78d0bd	-0.24298377
27	0x3e898006	0.26855487
28	0xbe6f7cb4	-0.23387414
29	0xbe2781a0	-0.16358042
30	0x3a2fb2f2	0.0006702385
31	0x3f55438e	0.83306205
32	0x3ba94229	0.0051653576
