models/policy_m2.pt (torch_old, 99515 bytes, 6 tensors)

fc.0.weight f4 [128, 110]
-0.038879927 -0.3321252 -0.3010599 -0.17497788 -0.08323028 0.261367 -0.05838971 -0.19397774
-0.2825662 0.2933389 -0.14811413 0.26707926 0.17333405 -0.05372504 0.0037612845 0.20853023
0.13780484 0.35515416 0.057717863 0.070240654 0.07933472 0.15941785 0.105225526 0.025031937
-0.023942031 0.3303691 -0.03164558 -0.07310284 0.21731319 -0.17444645 0.118547544 0.044710938
-0.07542248 -0.0005569678 0.17742223 0.42322952 -0.044638485 -0.14041165 -0.31605402 0.06006529
-0.16482496 0.050972577 0.009362011 -0.16446097 -0.024671478 -0.07286726 0.12151511 0.07933951
-0.052943785 -0.02058603 0.25011113 0.034214225 0.1649039 0.3289179 0.02616511 -0.2420569
0.09304018 0.27105254 0.17230406 0.0040432117 0.005901933 -0.041495405 0.1543093 -0.30040377
0.02263297 -0.2867006 0.041676708 -0.048003137 -0.23853919 0.1552249 0.101007424 -0.07000391
0.11287376 -0.08475451 0.070098646 -0.039313078 -0.024197718 -0.01022704 -0.08663088 0.10351062
-0.104370005 0.10796889 0.045333304 0.061978277 0.12472191 0.034788318 -0.15403645 0.13268141
0.014541828 0.049667582 -0.4067284 0.046969775 -0.004402796 0.14747003 0.016673995 0.2270159
0.27657813 -0.10539441 0.03877317 0.117475085 0.044843163 0.12291114 0.2283172 0.13149272
-0.13091278 -0.060384426 0.15291314 -0.07045203 0.37418082 0.038040023 0.06768112 0.16244556
0.6895529 0.16210727 -0.13197458 -0.19246301 -0.27294186 -0.061144877 -0.017160444 0.25244656
-0.2954693 0.34148324 0.2936919 -0.033625964 0.26896855 0.23150997 -0.0056522284 0.0338055
0.20995055 0.14271618 -0.04496343 0.26310533 -0.095984645 -0.29751667 -0.1563249 -0.030113867
0.15124907 0.15922824 -0.082811154 -0.32371533 -0.10661959 -0.16085625 -0.07365716 0.16863544
-0.05209237 0.14227633 0.053484265 -0.14473936 -0.21415374 -0.08897656 -0.2995233 -0.098645955
0.16631833 -0.2548276 -0.0195007 0.08227504 -0.072224535 -0.000690532 -0.14998198 -0.111128576
0.19407494 0.1631448 -0.10498732 0.057982262 0.08612912 0.34174803 0.17638335 0.20762451
0.038780298 0.27338642 0.044674188 0.15038705 0.045389578 -0.16065897 -0.077520736 -0.29219168
-0.34018707 -0.20559067 0.19194089 -0.074143276 0.06398764 0.29058978 0.28310347 -0.03401652
-0.18258187 0.1573779 -0.039997287 0.15759973 -0.21372661 -0.337503 -0.0977784 0.019759484
0.25013748 0.17860045 0.103543095 -0.13624725 0.26304692 -0.3285655 0.23555282 0.17455126
0.0018923142 0.18059412 0.054740272 0.10394854 -0.11506344 0.2611334 0.003690123 -0.040299073
0.21554466 0.29848257 0.01840678 0.12076588 0.18415263 -0.22868651 0.010423111 -0.029377151
0.19230095 0.089774966 -0.057440564 -0.016905528 -0.07671527 -0.20945683 0.36358523 -0.19688109
0.015749417 -0.22835314 -0.24571678 -0.23080212 -0.015881792 0.120266415 0.101867706 0.108807705
-0.03954154 -0.18470171 0.17970553 -0.0944493 0.092121914 0.052149277 -0.0643123 0.22433098
0.013866347 0.3793685 -0.081496194 -0.13551909 0.29266688 0.151273 -0.015427493 0.032581627
0.09588362 -0.1567655 0.019839182 0.053770445 0.14178382 0.04913063 0.23198524 0.28884828
00000000: 8f40 1fbd 500c aabe 8624 9abe 672d 33be
00000010: a374 aabd e5d1 853e 0c2a 6fbd 1aa2 46be
00000020: 84ac 90be 8430 963e 3bab 17be 9dbe 883e
00000030: 7b7e 313e ca0e 5cbd e27f 763b f388 553e
00000040: b61c 0d3e c4d6 b53e 9169 6c3d 55da 8f3d
00000050: 3e7a a23d 6f3e 233e 7b80 d73d c70f cd3c
00000060: 1422 c4bc 2426 a93e cc9e 01bd f1b6 95bd
00000070: 5987 5e3e 17a2 32be 0ec9 f23d d122 373d
00000080: 1a77 9abd 7a01 12ba 2cae 353e 8ab1 d83e
00000090: d8d6 36bd 12c8 0fbe d5d1 a1be 0607 763d
000000a0: e0c7 28be 9fc8 503d 1f63 193c 7568 28be
000000b0: d71b cabc 6e3b 95bd eadc f83d c17c a23d
000000c0: 95db 58bd 09a4 a8bc 910e 803e 3724 0c3d
000000d0: 91dc 283e ed67 a83e 3658 d63c c4dd 77be
000000e0: da8b be3d 66c7 8a3e 7a70 303e eb7c 843b
000000f0: 0165 c13b 16f7 29bd 4203 1e3e 86ce 99be
00000100: c768 b93c 6cca 92be 32b5 2a3d f09e 44bd
00000110: 9e43 74be 47f3 1e3e fbdc ce3d 365e 8fbd
00000120: 5c2a e73d c693 adbd e18f 8f3d c006 21bd
00000130: 4b3a c6bc 518f 27bc 886b b1bd 60fd d33d
00000140: f1bf d5bd cb1e dd3d 6aaf 393d efdc 7d3d
00000150: 336e ff3d 327e 0e3d bbbb 1dbe a3dd 073e
00000160: d940 6e3c 3c70 4b3d b43e d0be 6163 403d
00000170: 5445 90bb 6202 173e e797 883c db76 683e
00000180: a69b 8d3e 06d9 d7bd 9ed0 1e3d c796 f03d
00000190: 77ad 373d d6b8 fb3d fccb 693e 07a6 063e
000001a0: 000e 06be a955 77bd 4395 1c3e 2749 90bd
000001b0: a194 bf3e dbcf 1b3d 669c 8a3d 2158 263e
000001c0: 8a86 303f 73ff 253e 5824 07be 0615 45be
000001d0: 09bf 8bbe 0d73 7abd 0f94 8cbc ad40 813e
000001e0: c147 97be e4d6 ae3e c95e 963e 61bb 09bd
000001f0: 3fb6 893e f310 6d3e 5436 b9bb a377 0a3d
00000200: 47fd 563e 3124 123e 932b 38bd beb5 863e
00000210: 9993 c4bd 1b54 98be a213 20be 5bb1 f6bc
00000220: 09e1 1a3e ba0c 233e e598 a9bd 04be a5be
00000230: 5f5b dabd 80b7 24be 91d9 96bd c5ae 2c3e
00000240: cf5e 55bd e3b0 113e 5112 5b3d 8e36 14be
00000250: 1e4b 5bbe 5839 b6bd 1e5b 99be e406 cabd
00000260: 5a4f 2a3e c378 82be efbf 9fbc d17f a83d
00000270: 75ea 93bd d104 35ba e094 19be 6197 e3bd
00000280: 95bb 463e 6e0f 273e 9803 d7bd cf7e 6d3d
00000290: 7764 b03d 99f9 ae3e d69d 343e 859b 543e
000002a0: 17d8 1e3d 4ef9 8b3e 48fc 363d 10ff 193e
000002b0: 6cea 393d c983 24be 31c3 9ebd 269a 95be
000002c0: 002d aebe 5c86 52be 278c 443e 6ed8 97bd
000002d0: f40b 833d 2fc8 943e f0f2 903e e854 0bbd
000002e0: bef6 3abe ac27 213e 32d4 23bd d361 213e
000002f0: 26db 5abe 31cd acbe 0b40 c8bd a4de a13c
00000300: 0512 803e 09e3 363e 670e d43d 6684 0bbe
00000310: 16ae 863e bd39 a8be c234 713e 91bd 323e
00000320: 8707 f83a aaed 383e 5637 603d f9e2 d43d
00000330: 61a6 ebbd 47b3 853e fed5 713b a410 25bd
00000340: bdb7 5c3e b5d2 983e d1c9 963c 1a54 f73d
00000350: 8292 3c3e cc2c 6abe b2c5 2a3c 5aa8 f0bc
00000360: 8aea 443e f0db b73d cc46 6bbd 767d 8abc
00000370: e51c 9dbd da7b 56be d827 ba3e 329b 49be
00000380: ec04 813c 68d5 69be 2e9d 7bbe 6457 6cbe
00000390: 881a 82bc 3d4e f63d 04a0 d03d 93d6 de3d
000003a0: 4ff6 21bd 7222 3dbe ba04 383e a26e c1bd
000003b0: 6aaa bc3d 7b9a 553d 2bb6 83bd 05b7 653e
000003c0: ad2f 633c 973c c23e 7ae7 a6bd 84c5 0abe
000003d0: 6fd8 953e 4fe7 1a3e 98c3 7cbc 5074 053d
000003e0: a25e c43d 2387 20be c885 a23c 663e 5c3d
000003f0: c72f 113e 333d 493d 8a8d 6d3e ece3 933e

fc.0.bias f4 [128]
-0.11132806 -0.024861071 -0.13900629 -0.08586781 -0.20007335 -0.011390709 0.098729536 0.057074264
0.12123554 0.12107418 -0.03710145 -0.013317423 -0.0076525705 0.0833165 0.12382562 -0.18128884
-0.08491135 -0.12670977 -0.14680865 0.060098454 0.21078233 0.21899417 -0.09591083 0.16721518
-0.13264753 -0.16525918 -0.16701266 0.107593715 0.056960423 0.16139358 -0.14027251 -0.20065784
0.021072257 -0.103173055 -0.05243521 -0.08270792 0.0548106 -0.20887008 -0.12835656 -0.038002227
0.015624326 0.094849914 -0.028615424 -0.03361604 -0.047249794 0.13631406 -0.033461217 0.011719294
0.09980519 -0.08416956 0.096203975 -0.071140476 0.06241088 0.27398485 0.06746915 -0.11104198
0.12354479 -0.12777928 0.13008642 0.04151007 0.04324539 0.0671989 0.0044417838 0.16552569
-0.10947511 0.030977933 0.12194059 0.15825492 -0.17684901 -0.0607259 0.0055834185 -0.1824234
0.0718542 -0.13218473 -0.014637497 -0.012301093 -0.08822683 0.008805352 -0.05271792 0.0030573567
-0.0179386 0.012474373 -0.08207239 0.073965564 -0.19038771 0.12046585 0.15106954 -0.15522921
-0.13587025 -0.010633422 -0.16159715 0.01814839 -0.1331715 -0.10389472 0.1730196 -0.052917395
-0.05285912 0.08567285 0.084909156 0.16959544 -0.15249157 0.03401856 -0.049716555 0.059332874
-0.064389184 0.068883955 -0.25723955 0.11042155 -0.15923513 -0.019974219 -0.19306879 0.015033723
-0.07653556 -0.032830484 0.027629096 -0.13076168 0.099211276 -0.17567445 -0.12650682 -0.099190116
0.19774069 -0.12544353 -0.16712825 -0.1274403 0.14165552 0.05839772 0.04900985 0.09799902
00000000: f7ff e3bd 72a9 cbbc aa57 0ebe 76db afbd
00000010: 07e0 4cbe 19a0 3abc b632 ca3d b4c6 693d
00000020: 574a f83d bdf5 f73d b1f7 17bd 5231 5abc
00000030: 6ac2 fabb d7a1 aa3d 4998 fd3d c8a3 39be
00000040: 00e6 adbd 35c0 01be 0255 16be cc29 763d
00000050: 53d7 573e 0240 603e e66c c4bd 753a 2b3e
00000060: c1d4 07be b439 29be 5e05 2bbe 185a dc3d
00000070: 554f 693d 5c44 253e 99a3 0fbe 4079 4dbe
00000080: ba9f ac3c 654c d3bd 4ec6 56bd c562 a9bd
00000090: 1481 603d 0ae2 55be e76f 03be 39a8 1bbd
000000a0: 2cfd 7f3c ac40 c23d e56a eabc f9b0 09bd
000000b0: 0089 41bd ea95 0b3e a10e 09bd 4802 403c
000000c0: aa66 cc3d 1761 acbd 9706 c53d 19b2 91bd
000000d0: 8da2 7f3d be47 8c3e 442d 8a3d fa69 e3bd
000000e0: 0d05 fd3d 92d8 02be 6035 053e 7706 2a3d
000000f0: 1422 313d 949f 893d 628c 913b 917f 293e
00000100: 7d34 e0bd 6fc5 fd3c fdbb f93d 940d 223e
00000110: e817 35be b9bb 78bd 1cf5 b63b 33cd 3abe
00000120: 4b28 933d 6f5b 07be 1dd2 6fbc 868a 49bc
00000130: 45b0 b4bd 5344 103c bfee 57bd ef5d 483b
00000140: f9f3 92bc 5061 4c3c 9215 a8bd 427b 973d
00000150: fff4 42be cdb6 f63d f9b1 1a3e 68f4 1ebe
00000160: 9221 0bbe ce37 2ebc b979 25be efab 943c
00000170: 1c5e 08be c1c6 d4bd 0d2c 313e e9bf 58bd
00000180: ce82 58bd 3f75 af3d dae4 ad3d 6daa 2d3e
00000190: c026 1cbe 0c57 0b3d 96a3 4bbd 0707 733d
000001a0: 7ade 83bd 0813 8d3d e7b4 83be b224 e23d
000001b0: 890e 23be f9a0 a3bc d3b3 45be 0150 763c
000001c0: adbe 9cbd 4279 06bd 6a56 e23c 64e6 05be
000001d0: 482f cb3d 01e4 33be 018b 01be 3024 cbbd
000001e0: 897c 4a3e 4574 00be ab23 2bbe b67f 02be
000001f0: 250e 113e 7332 6f3d 8dbe 483d b6b3 c83d

fc.2.weight f4 [64, 128]
-0.3894604 -0.15330218 -0.07447533 0.09209973 -0.038241476 -0.007239945 0.43785676 -0.041966714
-0.25377926 0.19069517 0.090252385 -0.30398032 -0.16404086 0.03608061 0.12351674 -0.33852103
-0.08343079 -0.4973268 0.60576737 -0.15983775 0.08785409 0.31410888 -0.2970641 0.06059921
-0.09292301 -0.3059501 -0.44136736 0.6769451 -0.29367846 0.13839047 -0.43486276 -0.012835183
-0.4343863 0.48041934 0.09040884 0.41373745 -0.37694082 -0.061701357 -1.2314026 -0.45081636
0.4464696 0.23492761 0.18249959 0.0676741 -0.02174325 0.26329565 -0.6851961 0.49076846
-0.71487606 -0.0076602716 0.13058715 -0.37148675 -0.77239 0.11345205 0.21310204 0.2981188
0.2831956 -0.5247051 0.18892875 0.12107197 0.605107 0.008136868 -0.08353496 0.22349697
-0.027386608 -0.11928251 -0.058787744 0.054601505 -0.037112102 0.478521 -0.07653278 -0.08083539
-0.36653918 -0.25850663 0.091165096 -0.22336708 0.17677917 -0.15754263 0.04783738 -0.060622208
-0.15374056 0.13410947 -0.15817185 0.14110927 0.024808833 -0.035626702 0.33704162 -0.09568796
-0.42255387 0.6201159 0.15840955 -0.52446026 -0.62897855 0.26610634 0.25092766 -0.11242594
0.047804013 0.18568534 0.22709589 0.00051136175 -0.06876587 -0.9982833 0.4846217 0.40426236
-0.17261934 -0.008335163 -0.096378654 -0.08297189 -0.3437689 -0.1846701 -0.098250665 -0.15008442
0.11193836 0.054985575 -0.14340779 -0.17660904 -0.11687584 0.18006508 0.21103488 0.3286068
0.44243664 0.05615565 0.14139262 0.42849338 0.0003019786 0.36174735 -0.108203135 -0.26583308
-0.6654256 -0.29135934 -0.60940015 -0.450471 0.27286142 0.94983035 0.1209031 0.16575558
-0.011158649 0.021687163 0.56525844 -0.45458037 -0.2704114 -0.3743329 -0.19536155 0.19196332
-0.049834825 0.27651352 0.29287568 -0.9509118 0.10348067 0.02695319 -0.24021664 0.013611778
0.075589746 0.041970875 0.47518837 0.12906931 -0.09784789 0.24469993 -0.023452193 0.012789631
-0.1363138 0.32098064 0.37151757 0.05391982 -0.79068846 -0.0210615 0.14162318 -0.18466581
0.13423014 -0.5867636 -0.21393159 -0.59342843 -0.03829556 -0.5471801 0.026917117 0.0635202
-0.35586715 0.24960297 -0.21310915 0.17868547 -0.43651542 -0.15500374 0.78445023 0.2916293
-0.64842165 -0.07345378 -0.061573077 -0.49698666 -0.31610036 -0.0832265 -0.76866966 -0.3455677
0.067069575 -0.2834947 0.39689806 -0.13642827 0.12292762 0.39371276 0.005550804 0.5878162
0.73576885 -0.04047495 -0.39300114 -0.5412836 0.10035001 -0.0546862 0.5434532 0.2878676
-0.37263203 0.38993132 -0.10377787 -0.026432164 0.48534954 0.0014007644 -0.34943095 0.3075224
0.27484685 0.5262389 1.0955213 0.17057154 -0.11577073 0.38049692 0.1371045 -0.20795138
-0.40835524 0.2296701 -0.11163077 -0.028496508 -0.29217705 -0.22189683 0.26834708 0.4850228
0.12389797 0.15771498 -0.12007522 0.19810003 0.04109122 -0.026083957 -0.0461249 -0.29158157
0.010217915 0.1498978 -0.15142135 -0.3747277 -0.37464932 0.14127119 0.15050685 0.5233114
0.14387058 -0.20911747 0.21925694 0.26038784 0.023202643 0.3413566 -0.37107515 -0.48848948
00000000: 5b67 c7be 3ffb 1cbe 8686 98bd c99e bc3d
00000010: 18a3 1cbd 0f3d edbb c32e e03e 4ae5 2bbd
00000020: 5bef 81be 9845 433e 3ed6 b83d 4fa3 9bbe
00000030: 54fa 27be 43c9 133d 58f6 fc3d a152 adbe
00000040: c3dd aabd 9ea1 febe 9213 1b3f 82ac 23be
00000050: d8ec b33d e1d2 a03e c918 98be e136 783d
00000060: 6b4e bebd 7ea5 9cbe e7fa e1be 464c 2d3f
00000070: 065d 96be 3bb6 0d3e 55a6 debe a94a 52bc
00000080: e267 debe 86f9 f53e 4528 b93d 65d5 d33e
00000090: 63fe c0be 90ba 7cbd 9a9e 9dbf 67d1 e6be
000000a0: aa97 e43e dd90 703e 2ce1 3a3e b898 8a3d
000000b0: e61e b2bc b0ce 863e 0369 2fbf 0146 fb3e
000000c0: 1e02 37bf 0403 fbbb a3b8 053e 8333 bebe
000000d0: 5abb 45bf 8c59 e83d 6c37 5a3e 07a3 983e
000000e0: 04ff 903e 1353 06bf 8a76 413e 95f4 f73d
000000f0: 4be8 1a3f 7f50 053c 6114 abbd 64dc 643e
00000100: e159 e0bc 634a f4bd 6bcb 70bd d4a5 5f3d
00000110: dc02 18bd b400 f53e 38bd 9cbd 068d a5bd
00000120: 06ab bbbe fb5a 84be c4b4 ba3d 57ba 64be
00000130: 9905 353e db52 21be 21f1 433d fe4e 78bd
00000140: 2a6e 1dbe fe53 093e cdf7 21be f37e 103e
00000150: e53b cb3c 4eed 11bd b890 ac3e 0df8 c3bd
00000160: fb58 d8be eabf 1e3f 1d36 223e 0743 06bf
00000170: bd04 21bf 173f 883e 9779 803e 923f e6bd
00000180: 24ce 433d 4c24 3e3e d38b 683e e80c 063a
00000190: 1fd5 8cbd 7f8f 7fbf 5620 f83e 7afb ce3e
000001a0: 20c3 30be 3590 08bc 2c62 c5bd 2bed a9bd
000001b0: 7a02 b0be 291a 3dbe a537 c9bd bbaf 19be
000001c0: f03f e53d 8e38 613d 7ed9 12be 00d9 34be
000001d0: 9a5c efbd fb62 383e 8719 583e 273f a83e
000001e0: 0e87 e23e 7803 663d 3ac9 103e 7c63 db3e
000001f0: e252 9e39 f336 b93e 9b99 ddbd 461b 88be
00000200: 5559 2abf 0d2d 95be a601 1cbf 23a4 e6be
00000210: 7eb4 8b3e 1528 733f 0b9c f73d d5bb 293e
00000220: c4d2 36bc 47a9 b13c c7b4 103f c2be e8be
00000230: 5d73 8abe 90a8 bfbe dc0c 48be 0892 443e
00000240: 9a1f 4cbd 2e93 8d3e cdf3 953e f56e 73bf
00000250: aced d33d f0cc dc3c 5afb 75be ef03 5f3c
00000260: ccce 9a3d a7e9 2b3d e44b f33e bf2a 043e
00000270: 7964 c8bd 9e92 7a3e d01e c0bc 9a8b 513c
00000280: d895 0bbe 9357 a43e 8d37 be3e 07db 5c3d
00000290: 8f6a 4abf 2b89 acbc ab05 113e 0919 3dbe
000002a0: a073 093e 2436 16bf e210 5bbe edea 17bf
000002b0: cedb 1cbd ff13 0cbf 4981 dc3c e116 823d
000002c0: 3834 b6be ec97 7f3e 4939 5abe 53f9 363e
000002d0: f37e dfbe 4db9 1ebe bbd1 483f 7050 953e
000002e0: f6fe 25bf ef6e 96bd 0d34 7cbd 0975 febe
000002f0: e8d7 a1be a872 aabd 89c7 44bf 40ee b0be
00000300: c65b 893d 3826 91be 3936 cb3e dab3 0bbe
00000310: 7ac1 fb3d b894 c93e 85e3 b53b 1f7b 163f
00000320: 595b 3c3f 10c9 25bd 7237 c9be 9091 0abf
00000330: 4e84 cd3d a3fe 5fbd c01f 0b3f 6263 933e
00000340: a0c9 bebe 14a5 c73e 7e89 d4bd 4488 d8bc
00000350: bc7f f83e db99 b73a 9de8 b2be 9373 9d3e
00000360: bab8 8c3e 98b7 063f 0b3a 8c3f 4eaa 2e3e
00000370: 3419 edbd 7ed0 c23e 1f65 0c3e 35f1 54be
00000380: f013 d1be a42e 6b3e ac9e e4bd 8271 e9bc
00000390: 3b98 95be ec38 63be ca64 893e e954 f83e
000003a0: 38be fd3d 0980 213e ffe9 f5bd bcda 4a3e
000003b0: 444f 283d 06ae d5bc 77ed 3cbd 2e4a 95be
000003c0: 0b69 273c cf7e 193e 330e 1bbe 4fdc bfbe
000003d0: 09d2 bfbe 65a9 103e 781e 1a3e bcf7 053f
000003e0: cf52 133e e422 56be e484 603e 8e51 853e
000003f0: 7813 be3c 4bc6 ae3e 90fd bdbe 4b1b fabe

fc.2.bias f4 [64]
0.028606247 0.0027140637 0.024150407 0.0082435105 0.046494935 0.101387314 -0.24496126 -0.15745357
-0.04783204 0.172314 0.17710343 0.24680537 -0.022079492 0.088579446 -0.053403 0.031535383
0.3637294 0.32195166 0.08593714 0.04372812 0.25963685 0.14868023 -0.06471626 0.049296357
-0.23717031 -0.08432332 0.0692706 -0.18485926 0.10569792 -0.025572745 0.061055124 0.078671984
-0.110059775 -0.12720719 -0.08443509 -0.027464775 -0.01774276 -0.16828828 0.015902985 -0.16391596
-0.23140356 -0.08057528 -0.086497515 0.056896187 -0.1285202 0.035504103 0.2626638 0.198815
-0.057082415 0.05747653 -0.28896037 0.03815748 -0.15100688 -0.08858201 -0.10031997 -0.15778382
0.044339992 -0.012491998 -0.05389164 -0.28276426 -0.17781544 0.3214173 0.3089585 -0.17614163
00000000: a657 ea3c 6fde 313b 13d7 c53c ca0f 073c
00000010: 7971 3e3d 27a4 cf3d 20d7 7abe 823b 21be
00000020: 87eb 43bd 1573 303e 9a5a 353e 8cba 7c3e
00000030: 0de0 b4bc 2469 b53d 1bbd 5abd 3f2b 013d
00000040: bd3a ba3e d9d6 a43e d0ff af3d 421c 333d
00000050: 1fef 843e a13f 183e f589 84bd faea 493d
00000060: c6dc 72be b4b1 acbd bfdd 8d3d bf4b 3dbe
00000070: 2778 d83d ef7d d1bc f014 7a3d c71e a13d
00000080: 0567 e1bd 9a42 02be 4eec acbd cffd e0bc
00000090: 4459 91bc c353 2cbe fa46 823c 96d9 27be
000000a0: 0ef5 6cbe a704 a5bd 9c25 b1bd fa0b 693d
000000b0: cd9a 03be c06c 113d df7b 863e 2996 4b3e
000000c0: 40cf 69bd 836c 6b3d 9df2 93be 054b 1c3d
000000d0: 8ca1 1abe 7c6a b5bd 8e74 cdbd 1592 21be
000000e0: da9d 353d 3dab 4cbc 7bbd 5cbd 7ac6 90be
000000f0: 4015 36be cf90 a43e cf2f 9e3e 795e 34be

fc.4.weight f4 [33, 64]
-0.12034102 0.027109697 -0.06825033 -0.051527604 0.010162711 0.10543521 -0.035493523 -0.11413686
-0.048771113 -0.033823 0.027713224 0.015970126 -0.10806945 -0.032828793 -0.041978136 0.10887982
-0.090340376 0.07717194 -0.050560564 0.09103952 -0.037026897 0.0007199496 0.108394474 0.06285328
-0.074729204 -0.077256635 0.07457091 0.07474287 0.0102042705 -0.0014033914 0.048304394 -0.027419627
0.05263701 0.05897878 0.093599185 0.09851289 0.08748616 0.12029828 -0.004951194 0.03012383
-0.04948114 -0.007477075 -0.014544129 0.111444324 0.02583772 0.07930195 0.040160418 -0.054365456
-0.12094909 -0.08887412 0.070855826 0.0067632347 0.038433 -0.07339722 0.07741435 0.021652162
0.08885135 0.08634229 -0.0636151 0.0449681 -0.0916522 -0.12366615 -0.014446706 -0.124344364
0.044200778 0.12025012 -0.07656737 0.08794299 0.035753638 0.013225809 0.05473499 0.11802618
-0.10053994 0.034179717 -0.09537266 0.09335397 -0.03409955 0.07909535 -0.016116425 0.022469714
-0.040248588 0.012753472 -0.03767468 0.01986669 0.05174181 -0.06815964 -0.09856373 -0.055506527
-0.10777761 -0.10817073 0.11737327 -0.06821491 -0.07670164 -0.12084387 -0.12432167 -0.0364881
0.06657615 0.021224827 0.10920368 -0.05084528 0.10720861 0.008760259 0.074476 0.023377687
-0.018288687 0.051118135 0.06261924 -0.09127644 0.004454404 -0.114309 0.0824056 0.0009988099
0.00804162 -0.06791657 -0.0511169 0.09083733 0.08337471 0.07086356 0.091184154 -0.11816439
-0.042647734 0.041952178 0.03949003 -0.04358037 0.02250491 -0.117542624 -0.080202624 -0.10304794
0.03686607 -0.046574816 0.0014814287 -0.12423991 -0.024856418 -0.003283441 -0.03066878 -0.015868917
-0.053441033 0.11024609 0.014710262 0.09335439 -0.048841298 0.12116012 0.03259945 0.033790514
-0.0326311 0.054102898 0.03396043 -0.017210037 -0.01689142 -0.1145228 -0.0966436 -0.05496551
0.080972314 0.090984896 0.040138647 -0.0766781 -0.07893297 -0.0004425794 0.050300807 -0.053894818
0.047320694 -0.087708026 0.039522126 -0.07364607 -0.021426499 -0.09990735 0.009476498 0.10975213
-0.12378238 0.056178242 0.11378029 -0.043528825 -0.043328077 0.122251734 0.1105542 0.0268282
-0.051156268 0.0082731545 -0.016282603 0.07351719 -0.038956627 -0.113624975 -0.042753696 -0.04121074
-0.1014024 -0.02962628 -0.10828303 -0.03134261 -0.07964815 -0.035091206 0.111848384 0.04384993
-0.06360085 0.020971656 0.0047129095 -0.012900248 0.062885955 0.101447776 0.09044434 -0.024496153
0.06458722 0.122287124 0.0719551 -0.11070593 -0.006091982 -0.100085884 -0.121928126 0.0998836
-0.0334495 -0.004692033 -0.030419886 0.09881495 -0.060394943 0.0044033825 0.055028975 0.065506116
0.0036201924 -0.1056107 -0.029476523 -0.016213968 0.04691218 -0.0050102323 -0.10196361 -0.075414315
0.0032880306 -0.0098302215 0.11507854 -0.030248314 0.05845429 0.123868346 0.0590173 -0.06909621
0.034878507 -0.047575995 -0.07693344 0.0782561 -0.06332849 0.095086336 0.05185646 -0.010193393
-0.089933485 0.013469428 0.11280657 -0.124308646 -0.071952134 -0.00042583048 -0.06868446 0.080106705
0.116662025 0.11641052 -0.038896635 0.06989497 -0.028471947 -0.118262246 -0.010919571 -0.06507705
00000000: 5a75 f6bd 2815 de3c d4c6 8bbd 9c0e 53bd
00000010: 8081 263c 6aee d73d a861 11bd 96c0 e9bd
00000020: 38c4 47bd fc89 0abd d806 e33c c8d3 823c
00000030: 8453 ddbd 7c77 06bd 44f1 2bbd 62fc de3d
00000040: 6004 b9bd 520c 9e3d 9818 4fbd ee72 ba3d
00000050: 84a9 17bd 00bb 3c3a ecfd dd3d 38b9 803d
00000060: a00b 99bd ba38 9ebd a2b8 983d ca12 993d
00000070: d02f 273c 00f2 b7ba d4da 453d 209f e0bc
00000080: e899 573d bc93 713d eeb0 bf3d 20c1 c93d
00000090: f22b b33d f25e f63d a03d a2bb 40c6 f63c
000000a0: bcac 4abd 4002 f5bb 804a 6ebc ec3c e43d
000000b0: a0a9 d33c 1069 a23d 407f 243d 50ae 5ebd
000000c0: 28b4 f7bd a203 b6bd dc1c 913d 209e dd3b
000000d0: ec6b 1d3d 4851 96bd 6a8b 9e3d e05f b13c
000000e0: b2f7 b53d 3ad4 b03d a248 82bd 7830 383d
000000f0: 26b4 bbbd ae44 fdbd e0b1 6cbc 42a8 febd
00000100: e00b 353d b245 f63d 5acf 9cbd 741b b43d
00000110: 6872 123d 10b1 583c cc31 603d b6b7 f13d
00000120: e2e7 cdbd 0800 0c3d be52 c3bd 5e30 bf3d
00000130: f8ab 0bbd befc a13d 9806 84bc 6812 b83c
00000140: b4db 24bd f0f3 503c c450 1abd 78bf a23c
00000150: 38ef 533d 4897 8bbd c8db c9bd d05a 63bd
00000160: 82ba dcbd 9e88 ddbd 6661 f03d 42b4 8bbd
00000170: c015 9dbd fe7c f7bd 5c9c febd 8c74 15bd
00000180: 1459 883d b0df ad3c 2ea6 df3d 2443 50bd
00000190: 3090 db3d 3087 0f3c e086 983d 9082 bf3c
000001a0: 28d2 95bc 4061 513d 843e 803d 24ef babd
000001b0: 40f6 913b d61a eabd 44c4 a83d 80ea 823a
000001c0: 00c1 033c d817 8bbd f45f 51bd ec08 ba3d
000001d0: 5cc0 aa3d ea20 913d c2be ba3d 2c00 f2bd
000001e0: 64af 2ebd 0cd6 2b3d 4cc0 213d 5481 32bd
000001f0: 385c b83c 30ba f0bd 4641 a4bd cc0a d3bd
00000200: e000 173d 3cc5 3ebd 802c c23a 7e71 febd
00000210: b09f cbbc 002f 57bb 183d fbbc 88ff 81bc
00000220: fce4 5abd b4c8 e13d 5003 713c 9630 bf3d
00000230: d00d 48bd cc22 f83d 0087 053d ec67 0a3d
00000240: 30a8 05bd 009b 5d3d 181a 0b3d 10fc 8cbc
00000250: e05f 8abc ee8a eabd 14ed c5bd 8423 61bd
00000260: d0d4 a53d 4a56 ba3d 6c68 243d 6809 9dbd
00000270: 9ca7 a1bd 000a e8b9 3808 4e3d d0c0 5cbd
00000280: 58d3 413d 44a0 b3bd f4e1 213d c0d3 96bd
00000290: a086 afbc 3a9c ccbd 5043 1b3c bac5 e03d
000002a0: 9e81 fdbd 281b 663d a405 e93d 484b 32bd
000002b0: c878 31bd 1e5f fa3d 3e6a e23d d0c6 db3c
000002c0: 3c89 51bd 208c 073c 1863 85bc 2e90 963d
000002d0: fc90 1fbd 36b4 e8bd 801e 2fbd 98cc 28bd
000002e0: 10ac cfbd d0b2 f2bc 7ec3 ddbd 1c61 00bd
000002f0: 921e a3bd ccbb 0fbd c410 e53d fc9b 333d
00000300: 2a41 82bd c0cc ab3c c06e 9a3b 905b 53bc
00000310: 5aca 803d dac3 cf3d e23a b93d 28ac c8bc
00000320: 4e46 843d ac71 fa3d 325d 933d cab9 e2bd
00000330: 409f c7bb d4f9 ccbd 74b5 f9bd c68f cc3d
00000340: 5802 09bd a0bf 99bb 2033 f9bc 7e5f ca3d
00000350: b060 77bd 404a 903b 1066 613d 1228 863d
00000360: c040 6d3b 6c4a d8bd c078 f1bc 28d3 84bc
00000370: fc26 403d e02c a4bb 4cd2 d0bd d272 9abd
00000380: 007c 573b f00e 21bc 4cae eb3d 50cb f7bc
00000390: c46d 6f3d b0ae fd3d 20bc 713d 5082 8dbd
000003a0: c4dc 0e3d 0cdf 42bd 488f 9dbd bc44 a03d
000003b0: 5eb2 81bd a0bc c23d 7067 543d 3002 27bc
000003c0: 0c2f b8bd e0ae 5c3c 2207 e73d 8895 febd
000003d0: a45b 93bd 0042 dfb9 70aa 8cbd fc0e a43d
000003e0: 80ec ee3d a468 ee3d 1452 1fbd 1825 8f3d
000003f0: 003e e9bc 7a33 f2bd 00e8 32bc 1e47 85bd

fc.4.bias f4 [33]
0.106656715 0.10272318 -0.1194302 -0.09870279 0.07128243 0.45082337 -0.50997937 -0.21607816
0.11142332 0.35519886 -0.4623093 -0.20909631 -0.038923588 0.30838242 -0.16136324 -0.13716514
0.074861854 0.20245087 -0.34949213 -0.1392146 -0.0355897 0.1510638 -0.2376416 0.098386444
-0.31496355 0.0065371 -0.23997955 0.21385284 -0.29920304 -0.0039003633 0.022591295 0.46967041
0.10379547
00000000: d66e da3d 8860 d23d d297 f4bd b024 cabd
00000010: 86fc 913d 52d2 e63e 028e 02bf 9843 5dbe
00000020: e931 e43d a0dc b53e ceb3 ecbe 581d 56be
00000030: 576e 1fbd 4de4 9d3e 683c 25be 0575 0cbe
00000040: 2c51 993d 484f 4f3e a2f0 b2be 468e 0ebe
00000050: 81c6 11bd 78b0 1a3e 5258 73be d57e c93d
00000060: e742 a1be 2b35 d63b 33bd 75be 3dfc 5a3e
00000070: 2431 99be 3d9d 7fbb 6111 b93c a478 f03e
00000080: b892 d43d
