models/policy3.pt (torch_old, 99515 bytes, 6 tensors)

fc.0.weight f4 [128, 110]
000000 8f 40 1f bd 92 3d 96 be f9 f5 ec be a9 68 1a be
       -0.038879927 -0.2934385 -0.46281412 -0.15078987
000010 21 ef 14 bd 1e ba e1 3d 5e 37 07 be 95 04 0b be
       -0.036360864 0.11021827 -0.13204715 -0.13575967
000020 28 f0 a1 be 23 f7 b5 3e b6 f6 b8 bc 00 34 22 3d
       -0.31628537 0.35540113 -0.022578578 0.039600372
000030 b0 bd e9 3d 3a 82 51 3d c4 3f d8 bc 54 cb 0e 3d
       0.11413133 0.051149584 -0.026397593 0.034861878
000040 ff f5 9b be 1f ea 89 3c bb 26 96 bd c5 7d bf 3d
       -0.30461118 0.01683527 -0.07331606 0.093501605
000050 ea 77 5e bf 5f 19 33 bd b0 e3 e9 3c cd ec b3 3d
       -0.86901724 -0.043725368 0.028550953 0.087854005
000060 eb ea f6 bd 6c 7c de 3d d5 c7 7f bd 2b c1 5b 3d
       -0.12056526 0.10863575 -0.062446434 0.053651016
000070 a4 03 69 3e 40 1c 9e 3d 30 dd 37 3e 9a d3 83 3d
       0.22755295 0.07720232 0.1795547 0.06436844
000080 5c 2d 17 bd ff a9 88 3e bf b0 d3 3d 78 a6 c2 be
       -0.036908492 0.26692197 0.10336446 -0.3801763
000090 d1 3d a4 be 39 49 b7 3c d3 c3 0a 3e c3 6e 43 3e
       -0.32078412 0.022373782 0.13551264 0.19085221
0000a0 b8 7b 91 bd 80 2e 8d bc 46 9c 23 3e 33 09 0c 3d
       -0.071036756 -0.017234087 0.15977582 0.03418846
0000b0 43 05 f6 3d d3 27 a7 3e b1 61 60 3e 47 6a b3 bc
       0.12012722 0.3264757 0.21912266 -0.021901263
0000c0 b6 44 cc 3d 30 46 85 3d 4d 63 3a be 73 1b eb bc
       0.09974043 0.06507528 -0.18201943 -0.028699612
0000d0 f9 4d 6f 3d db 75 bd bc 32 cb 85 be 07 88 b9 bd
       0.05842397 -0.023127487 -0.26131588 -0.09059148
0000e0 d5 5f 91 bd ed 2d 55 3e fe eb ab bc ea fb eb bd
       -0.07098357 0.208183 -0.020986553 -0.11522658
0000f0 9b e0 b6 3d 53 ca 58 3d 62 95 32 3e 56 69 0c 3e
       0.08929559 0.052927326 0.17439798 0.13712057
000100 60 ac 80 bd ae c4 a3 bc f3 62 d4 bc ec b8 24 3d
       -0.06282878 -0.019991245 -0.025926089 0.040215418
000110 6f ee 9f bd 0e 82 91 3c 5d d5 94 3d 8b 53 e6 be
       -0.078091495 0.01776221 0.07267258 -0.44985613
000120 4f 23 98 bd f0 ce 12 3e f9 e2 1d 3d e3 05 2d be
       -0.074286096 0.14336753 0.038546536 -0.16896777
000130 10 84 5b 3e 33 df ae 3e 81 17 f5 3d e4 5c 8b 3e
       0.21437097 0.34154662 0.11967374 0.27219307
000140 29 c3 3a 3e 49 24 f9 3d 42 27 57 3e f9 27 08 3e
       0.1823851 0.12165124 0.2101107 0.13296498
000150 e1 e4 a4 3d 2d d0 ea 3c e0 6f 53 bf 88 d9 f8 3d
       0.08051468 0.02866372 -0.8259258 0.12150866
000160 ba df 53 3e 72 e6 10 3e 47 21 ec bc b2 e8 0d 3e
       0.20690814 0.14150408 -0.028824462 0.13858297
000170 01 64 cc 3d 4b 66 68 3e 20 ee 5c bf e5 72 4b 3d
       0.09980012 0.22695272 -0.8630085 0.04967012
000180 41 20 88 3e 52 9c ac 3e a0 33 9b bd 2a 6f 1d 3e
       0.26587108 0.33713013 -0.07578206 0.15374437
000190 9e 84 b6 3d 84 b4 89 be 87 11 c5 3e f6 20 64 3d
       0.089120135 -0.26895535 0.38489935 0.055695496
0001a0 eb b3 94 3d f1 bb 5c be b0 94 11 3d 8f b0 7e 3e
       0.07260879 -0.21556069 0.03554219 0.2487204
0001b0 cd 6d 3e 3e 02 f8 fb bc 66 9c 8a 3d 39 9a 09 3f
       0.18596573 -0.030757908 0.06768112 0.5375095
0001c0 06 a9 67 3e ca 6e 5d 3c 7f 15 c2 be d2 a1 c6 be
       0.22623071 0.013515184 -0.37907025 -0.38795334
0001d0 24 59 bb be 18 ba 1e bd b1 c4 41 3e 19 59 73 3e
       -0.36591446 -0.03875169 0.18922688 0.23764457
0001e0 2d 23 df 3d e1 97 13 bc 72 1b 2a 3f d1 0b 14 bd
       0.10895381 -0.009008379 0.6644813 -0.03614408
0001f0 b0 15 bc 3d 50 8d a6 bb cc 58 64 be 8c 9a 18 3f
       0.09183824 -0.0050827637 -0.22299498 0.5961082
000200 e8 a3 cb bc f6 71 b1 3d 3e a5 10 bf f0 92 90 bd
       -0.02485843 0.086643144 -0.5650214 -0.07059276
000210 ca 0c 0d bd 79 0e ee bd b0 75 4f be 7e 7d 47 bd
       -0.034436025 -0.11623854 -0.20259738 -0.048703663
000220 bb 9d 8c bc 6a da 05 3e aa 8a c6 3d 2c 05 ce 3d
       -0.017165055 0.130716 0.09694417 0.1005958
000230 d7 eb bd 3d 44 3c 7c be 5e 89 07 be 78 c1 58 3e
       0.092734985 -0.24632365 -0.13235995 0.21167552
000240 dd 53 a1 3d e4 da 02 be 72 74 c9 be 5b 2b b2 3d
       0.07877324 -0.12778813 -0.39346653 0.08699676
000250 df 9e 14 3d b7 be b4 3b cc cb 6a bd b8 10 2f be
       0.036284324 0.005515899 -0.057323262 -0.17096221
000260 8a 46 1a 3e e1 a7 33 3e 80 a7 07 3e c7 a1 23 3e
       0.15065971 0.1754451 0.1324749 0.15979682
000270 72 1e 89 3d 0d 64 32 be e9 52 da 3c 04 be 11 3e
       0.0669526 -0.17420979 0.026650863 0.14232641
000280 d7 aa 8d be b5 79 93 3d c6 1a 14 3d 4e 4f 95 3e
       -0.27669403 0.07200948 0.036158346 0.29162067
000290 dc 3b d5 bd a7 93 0d 3e 63 c1 2a 3e 00 92 7a 3d
       -0.10411808 0.13825856 0.16675334 0.061174393
0002a0 2a c1 e8 3d 01 2a 06 3e fd a4 40 3d c5 ae 3d bc
       0.11364968 0.1310196 0.047032345 -0.011577313
0002b0 08 28 e4 bd 23 0e 7d 3e 95 b9 0c bd 50 37 4e bd
       -0.11140448 0.24712424 -0.034356672 -0.05034572
0002c0 7f 25 5a be 66 a9 15 3e 42 1c b0 3e 1b 55 00 3e
       -0.21303366 0.14615402 0.3439656 0.12532465
0002d0 43 97 8f 3d d1 c1 7d be 82 74 5b 3c ff e8 32 bd
       0.07011273 -0.24780966 0.013394477 -0.043679234
0002e0 ff cb d3 be bb ba 6e bd c7 2d 43 bd ee 0a 87 3e
       -0.41366574 -0.05828355 -0.04765108 0.26375526
0002f0 b4 21 9b 3c e0 2e f2 bd c9 39 92 bd fa 58 80 bd
       0.01893697 -0.11825347 -0.07139928 -0.06266971
000300 b1 6b d2 3d 7f be 39 3e 6c 8b af 3c 08 35 7a 3c
       0.10274447 0.18139075 0.021428786 0.015271433
000310 b1 e1 35 be da 8b 8e 3c 93 05 96 3e 8d 4d ee bd
       -0.17761876 0.01740067 0.29301128 -0.116358854
000320 93 8f 35 3d 73 52 0f be c1 89 9e bc 66 da e4 bd
       0.044326376 -0.13996296 -0.019352796 -0.11174469
000330 96 6a 86 be 6b d9 10 3d 9e b7 c4 bb 48 86 b4 bc
       -0.26253194 0.035363596 -0.006003334 -0.022036687
000340 a5 06 77 bd dc 2e c3 bc 9e 65 ca be 11 48 05 be
       -0.06030907 -0.023826055 -0.39530653 -0.13015772
000350 90 25 84 3e 89 eb b0 bd 23 1b d6 3c 96 3f 91 be
       0.25809908 -0.08638675 0.026135987 -0.28368825
000360 de d1 6b 3d 25 35 83 3b 2a 38 1e 3d 2f 3b 66 3b
       0.05757319 0.004004138 0.03862778 0.003513049
000370 e5 1c 9d bd 4d 6c 89 bd da 2b 18 be 6d a0 22 be
       -0.07671527 -0.0671011 -0.14860478 -0.1588151
000380 96 e6 79 bd f9 10 7d be 79 ca 6b be 62 3f 26 be
       -0.06101092 -0.24713506 -0.23026456 -0.16235116
000390 7d e1 d1 bc 20 4a e5 3d b5 b8 05 3e 5d b2 30 bd
       -0.025620217 0.11195779 0.13058741 -0.04313885
0003a0 62 48 20 3f 56 33 5d 3d fe aa 37 bc 15 52 ec bc
       0.6261045 0.054004036 -0.011210201 -0.028847734
0003b0 6e 0d 82 be 0a 35 f7 3e 9a 31 ed bd e2 32 d2 3d
       -0.2540087 0.48282653 -0.11581726 0.102636114
0003c0 7f 7f b1 be f2 bd d7 bc c9 8a 01 be c9 a4 27 3d
       -0.34667584 -0.02633569 -0.12650599 0.040928636
0003d0 75 17 5a 3c d6 5c 0b 3e db a9 57 bb 19 d1 83 3d
       0.013311257 0.13609633 -0.0032907638 0.064363666
0003e0 37 fc 9e 3e bc 6a 91 3e bf 91 21 3e be 84 e5 bd
       0.310518 0.28401744 0.15778254 -0.11206959
0003f0 8a 27 6f bd 9f e2 ce 3d 9b 1e 87 3d be 1a 14 be
       -0.058387317 0.10101818 0.065976344 -0.14463326

fc.0.bias f4 [128]
000000 32 d6 17 be f9 17 8c bc b7 16 f1 bd 0a 2a 27 bd
       -0.14827803 -0.017101275 -0.11771911 -0.040811576
000010 6d 81 57 be 01 5d 79 3c 8e d6 20 3a 06 81 2e 3e
       -0.21045466 0.015219928 0.0006135487 0.17041406
000020 f5 7d f4 3d cb 69 f6 3d 84 08 97 bd 5d ab 88 3d
       0.11938087 0.12031897 -0.07374671 0.0667331
000030 50 61 9c bd 4f 2f 4c 3d 86 9d 45 3d 63 4f 8e bd
       -0.076357484 0.049849804 0.04824593 -0.069487356
000040 dc db 9c bd 6c db 46 bc 61 a5 1a be bd db a1 3c
       -0.07659122 -0.012137275 -0.1510215 0.0197581
000050 e5 c0 13 3e 76 81 d6 3d fb ad a3 bc ef 24 0e 3e
       0.14429052 0.104739115 -0.019980421 0.13881277
000060 b9 73 dc bd 39 31 ea bd 6e b8 1b bd 64 60 40 bc
       -0.1076426 -0.1143517 -0.038017683 -0.011741731
000070 fa 83 2b 3d 41 a6 b1 3d 72 bf aa bd d6 5f 2e be
       0.04187391 0.086742885 -0.083372965 -0.17028746
000080 77 ad 4c 3b 03 6e 02 be 34 0a c9 3c 09 9f 7f bd
       0.0031231323 -0.12737279 0.024540998 -0.062407527
000090 c6 25 9c 3d b3 39 65 be 7e c0 19 bd 14 3e 19 bc
       0.07624392 -0.22385292 -0.03753709 -0.0093531795
0000a0 07 f9 61 bd 17 61 44 3d 51 14 63 3d 3b ed 72 bd
       -0.05516913 0.047944155 0.055439297 -0.05930827
0000b0 05 f2 11 bc fd 5d 0f 3e 83 2b 83 3d be ac 91 3b
       -0.0089078 0.14000697 0.064047836 0.0044456413
0000c0 08 68 e7 3d 14 36 8c bd ba 7e 0d bd 63 59 5b bc
       0.11299139 -0.06846252 -0.034544684 -0.013388011
0000d0 99 93 fe 3d 69 6e 25 3e 8e 0b d6 3d ce b4 1f bd
       0.12430496 0.161554 0.10451423 -0.03899079
0000e0 c8 a9 7a 3c b7 c2 2f be 0f 64 b6 3d 7d 6c 83 bc
       0.015299268 -0.17164122 0.089058034 -0.016042942
0000f0 e7 dc 08 bd d3 12 85 bc ad 1d 8d bd 6c ee 20 3e
       -0.033413794 -0.016244328 -0.06890426 0.1571595
000100 9f bf 73 bd 23 02 64 bc 01 de 10 3e 90 b6 81 3d
       -0.059508916 -0.013916525 0.14147188 0.06333649
000110 68 c5 38 be 74 25 2e bd 75 75 2e bd 87 c5 fe bd
       -0.18044055 -0.042516187 -0.042592485 -0.12440019
000120 46 79 e7 3d 70 9c a6 bd e3 c7 3e bd 22 05 f4 ba
       0.11302428 -0.08135307 -0.046577346 -0.0018617252
000130 a7 cf b0 bd ed 7d 3f 3d 53 c9 df bc 13 ea ae bb
       -0.086333565 0.04675095 -0.027317679 -0.0053379624
000140 12 34 8e 3d 43 b4 86 3d b4 7b 86 bd e9 57 9e bb
       0.069435254 0.06577351 -0.06566563 -0.004832257
000150 f9 cd 39 be 6b 67 d7 3d f2 f6 99 3d fe a3 9a bd
       -0.18144979 0.10517772 0.07517804 -0.0755081
000160 22 4a b7 bd 8a 30 4e bd 38 22 b6 bd d1 6a 5d 3d
       -0.089496866 -0.05033926 -0.088932455 0.054056946
000170 e2 99 f9 bd ae d5 15 be 54 fa 41 3e f1 f5 b1 bd
       -0.12187554 -0.14632294 0.18943149 -0.08689488
000180 6a 3e a1 bd 93 c4 19 3d 35 6f e3 bb 8c 16 96 3d
       -0.07873233 0.037540983 -0.006940747 0.07328519
000190 0b f9 38 bd 4d 57 c6 3d 4c 81 f7 bc 16 06 dd 3d
       -0.04515938 0.0968462 -0.03021302 0.107921764
0001a0 d9 46 fe bd e7 b5 82 3d 89 e5 26 be 76 4e f7 39
       -0.12415857 0.06382351 -0.16298498 0.0004716997
0001b0 4a 27 f2 bd 73 71 29 3d 86 df 1c be a9 7e 19 bb
       -0.118239 0.04136796 -0.15319642 -0.0023421443
0001c0 19 09 dd bd 75 28 15 3c e8 e3 62 3c f8 84 fe bd
       -0.10792751 0.009103884 0.013848282 -0.124277055
0001d0 4d 5f f2 3d 37 c1 27 be 93 6b 2d be 76 f1 d6 bd
       0.118345834 -0.163823 -0.16935568 -0.10495274
0001e0 cb 89 0b 3e 9c 4f 17 be e8 9b f6 bd 33 22 0d be
       0.13626783 -0.14776462 -0.120414555 -0.13782577
0001f0 b6 85 4b 3d 00 93 c3 3c af c7 41 3d bf a0 e2 3d
       0.049688064 0.023873806 0.047309574 0.11065816

fc.2.weight f4 [64, 128]
000000 ad a8 9d 3e 23 85 5f 3f 11 a2 0e 3f 61 48 94 3e
       0.30792752 0.87312526 0.55716044 0.2896147
000010 68 51 66 3e 6a e4 9b be 09 f9 0a 3e f6 69 79 be
       0.22491992 -0.30447704 0.13571562 -0.24356827
000020 d2 83 a4 be 6f 4b 6d be 30 71 80 3d a6 91 46 be
       -0.3213182 -0.23173307 0.06271589 -0.19391498
000030 8d a3 41 3f 5e 8b 46 3e 5d 6a 28 3f 5e c4 9c be
       0.75640184 0.19389102 0.657873 -0.30618566
000040 66 40 09 3e c7 14 c8 be 87 07 24 be 44 c5 c5 3e
       0.13403472 -0.39078352 -0.16018496 0.38627064
000050 73 e2 15 be 46 3e 94 3d a2 1a 08 3e ff 7c c9 be
       -0.14637165 0.0723844 0.1329141 -0.39353177
000060 99 34 c6 3e c2 f7 90 be 7f 3e 65 be a6 11 0a bd
       0.38712004 -0.28314024 -0.22387122 -0.033708237
000070 cd a4 63 3c 0c 18 62 bd 7b c2 4a 3e 50 29 16 3e
       0.013894272 -0.055198714 0.19800751 0.14664197
000080 98 96 40 3e b8 24 81 3d 49 9a cf be d3 b1 71 3e
       0.18807447 0.06305832 -0.40547398 0.23602991
000090 2a 0b 0a be 8e 07 93 3e b1 0e e2 be aa af 49 bc
       -0.13480821 0.287167 -0.44151834 -0.012309948
0000a0 03 35 b6 3e bd 41 e9 3e 26 e6 ad be 2f 87 30 3f
       0.3558732 0.45557967 -0.33964652 0.68956274
0000b0 f1 4f ec be 48 19 5b 3d f6 b2 ab be aa 9f 82 3e
       -0.4615474 0.053490907 -0.33534974 0.2551244
0000c0 8b dd 14 bf f6 da 3f be ff 0f ca 3d 94 c0 07 be
       -0.5815055 -0.1873587 0.09866332 -0.13257056
0000d0 2b 16 ee bc 9e b3 70 be 84 4a ad be 73 98 41 3e
       -0.029063305 -0.23506019 -0.33845913 0.18905811
0000e0 2f d7 27 3f 0f 9d 4f 3e a8 5d 28 be 6d 38 81 3e
       0.6556272 0.20274757 -0.16441977 0.25238362
0000f0 81 cf 0b 3f 29 84 d0 bd e0 79 5a 3e 9d 2f 6c be
       0.546135 -0.101814575 0.21335554 -0.23065038
000100 5a 9c 3e 3e ed 63 4a 3e 5d 78 9b be 2f 05 f8 3e
       0.18614331 0.19764681 -0.30365267 0.48441455
000110 2d 4a c7 3e 86 3a aa 3e cd aa 85 3e db d6 e7 be
       0.3892378 0.33247775 0.26106873 -0.4528111
000120 e3 7c fe be da d9 18 bf 5a 47 de 3d fb 48 6e 3e
       -0.49704656 -0.59707415 0.10853453 0.23270027
000130 ac 44 83 be c5 50 84 3e 84 35 90 be fa 2a 06 be
       -0.2563833 0.25842872 -0.2816583 -0.13102332
000140 3e e0 8d 3d 09 db da be a3 2b a5 be d6 33 1f 3e
       0.069275364 -0.42745236 -0.32259855 0.15547118
000150 05 76 bb 3c e3 d1 4e 3e e4 82 43 3e e4 b9 dc bd
       0.022883425 0.20197253 0.190929 -0.10777643
000160 e4 96 e8 3c 68 cc 42 3e 62 d1 f0 bd 29 2d 92 3e
       0.028392263 0.19023287 -0.117586866 0.2855008
000170 3d 8c bf 3d cf 2b b2 3e 29 e0 02 bf 56 14 c1 3e
       0.0935292 0.34799048 -0.5112329 0.37710828
000180 1c bd 03 3e e4 6c 38 3e 09 b5 d3 3e 58 d9 0a be
       0.12865108 0.18010288 0.41349056 -0.13559473
000190 71 60 a1 bc 45 aa 10 bf 97 82 39 3e f1 af eb 3d
       -0.019699307 -0.5650981 0.18116222 0.115081675
0001a0 a2 3d 52 3e f2 36 2d bf 9c 3d f7 bd 3f 01 14 bd
       0.20531324 -0.67661965 -0.12072298 -0.036134
0001b0 4f 82 68 3d 23 33 65 be a2 09 42 3e 75 cb aa 3e
       0.056764897 -0.22382788 0.18948987 0.3335835
0001c0 2f 01 b3 3d c7 59 90 be 1d 03 b4 3d d1 d3 99 3e
       0.0874046 -0.28193495 0.08789656 0.30044416
0001d0 6e 52 2f be c6 3f d9 3e 71 34 33 3e dc fc f8 3d
       -0.17121288 0.42431468 0.17500474 0.12157604
0001e0 72 ae bc bd 34 39 4b 3f ad f1 34 3e 72 56 1c 3d
       -0.0921296 0.7938416 0.17670317 0.03816838
0001f0 6a c0 41 3d e3 c7 7e 3e 14 41 27 3e 73 e9 bc bd
       0.04730264 0.24880938 0.16333419 -0.092242144
000200 33 85 e4 be ab e3 ea be ec 15 a4 be 5e 13 e7 3d
       -0.44632873 -0.45876822 -0.32047975 0.11282991
000210 0d 21 7b bc 2b 22 06 3f 12 a3 bf 3e 33 11 bf 3d
       -0.015327704 0.52395886 0.374291 0.09329452
000220 3c 16 3c bd b4 83 b5 bc 72 fd 02 be 10 76 01 bf
       -0.04591964 -0.022157528 -0.12791994 -0.50570774
000230 aa b9 0b bf 7d 17 e9 be ee 8f 14 3c c7 86 aa 3e
       -0.54580176 -0.45525733 0.009067519 0.33305952
000240 e5 01 33 3e 8c 81 d9 3e 5b 4a 1d 3f 5a 84 19 bf
       0.17481191 0.4248165 0.6144158 -0.5996758
000250 43 28 b2 3e ef 21 46 be 4a 70 56 3e e2 60 6e 3d
       0.34796342 -0.19348882 0.20941272 0.058197863
000260 96 aa 74 be 21 e4 ab 3d cc 54 03 3e e8 26 bd 3e
       -0.23893198 0.083931215 0.12825316 0.36943746
000270 74 e5 c1 be 5d 20 08 3f e7 6e 91 be 9d 16 59 be
       -0.3787037 0.5317438 -0.28404924 -0.21200033
000280 0c e6 7f 3d d4 cc 86 3e 5b b7 e5 3e d1 b9 19 3e
       0.06247525 0.26328146 0.44866452 0.1501229
000290 19 83 56 be 0f 62 34 be 7c c8 3b 3e a0 23 b6 3d
       -0.20948447 -0.17615531 0.18338197 0.08893514
0002a0 6f 93 94 3e 1b ab 88 3e a8 f5 9c bd fc c2 8c be
       0.29018733 0.26693043 -0.07664043 -0.2749251
0002b0 89 14 04 3d 77 46 d3 be 4c c4 d7 3d 60 a4 21 be
       0.032246146 -0.41264698 0.105354875 -0.1578536
0002c0 c7 20 6f bc 6d 38 d2 3e 44 61 36 be c8 0b 41 3a
       -0.014595217 0.41058674 -0.17810541 0.0007364121
0002d0 06 a9 5b be 6b e0 2f bd ae c0 93 3e eb ef 05 3e
       -0.21451196 -0.04293863 0.2885794 0.13079803
0002e0 87 47 bb be 62 d8 90 3d 55 13 7a 3e aa 3a c1 bd
       -0.3657801 0.07072522 0.24421437 -0.094350174
0002f0 87 f0 80 bd 6a 38 a1 3e 0a 32 fd be 05 ee c9 bd
       -0.06295877 0.31488353 -0.4945224 -0.09859852
000300 05 30 aa be 40 31 c1 be 90 1f 9c 3e c6 d6 6b bf
       -0.3323976 -0.37732887 0.3049283 -0.92124593
000310 bc 58 c7 bc a2 03 85 be e1 14 ef 3d bf 1f 64 3f
       -0.024334304 -0.25979334 0.11673904 0.8911094
000320 f0 e2 d0 3e 32 3c 9a 3e ed 6d 07 bf b2 29 80 bf
       0.4079814 0.3012405 -0.5290211 -1.0012724
000330 85 94 0d be 29 ed 8e be 89 39 f1 3e d2 33 19 3f
       -0.13826187 -0.27915314 0.47114208 0.59844697
000340 ff d0 e5 bd 6f b3 7d 3e 13 cf 8c 3d e7 bc c9 be
       -0.112215035 0.2477548 0.06875434 -0.39401934
000350 b3 8e 0e 3e af e8 e9 bc 27 3f 6d 3e 1e f2 98 3e
       0.13921623 -0.028553335 0.23168622 0.2987222
000360 2f 7e bf 3e a9 72 9a 3e 36 72 9b 3e c7 30 4e bf
       0.37400958 0.30165604 0.30360574 -0.8054318
000370 e1 c0 89 bc 4b 01 f4 3d 6e f8 06 3f cc 38 f6 be
       -0.016815605 0.11914309 0.52722824 -0.48090208
000380 b2 73 da bc 83 ba 4d 3e ab 32 6e be 32 b1 01 3e
       -0.026666496 0.2009068 -0.23261516 0.12665251
000390 4b 2e c0 be 0c d8 b9 bd 3c 92 f5 3e f0 4c 93 bd
       -0.3753532 -0.09074411 0.4796313 -0.07192409
0003a0 71 d2 29 3e 7b 11 8f 3e 6d 07 df bd 04 95 79 be
       0.16584183 0.27943024 -0.10890088 -0.24373251
0003b0 6c ef 77 3c ce 11 cf 3d 8e 05 6e be 82 d5 80 be
       0.015132766 0.10110818 -0.23244306 -0.25162894
0003c0 e2 e5 53 3d 4b 84 0b 3e 33 b3 f3 be af d0 30 be
       0.051732905 0.13624685 -0.47597656 -0.17267106
0003d0 c9 44 ec be d3 0e e2 bd fa 98 91 3d 0e a4 19 3f
       -0.4614623 -0.11037984 0.07109256 0.6001595
0003e0 c0 bc 02 3f 30 7a 1b be cd 6e 6c 3d bd 81 0b 3f
       0.5106926 -0.1518333 0.057722855 0.5449484
0003f0 62 99 54 be b3 fc d2 3d 76 0e 04 bf 26 ce 22 bf
       -0.20761636 0.10302105 -0.51584566 -0.6359581

fc.2.bias f4 [64]
000000 dc 00 85 be 4a 45 1e 3e df 55 ac 3d 0d d9 6e 3c
       -0.25977218 0.15456119 0.08414816 0.014578116
000010 b3 00 7d bc 54 97 99 3d e6 b3 db bd e6 c3 4a 3d
       -0.015442061 0.07499567 -0.10727672 0.04950323
000020 0d ce ab 3b 02 6f 38 3e 13 a6 12 3d 8e d1 53 3e
       0.005243069 0.18011096 0.035802912 0.20685408
000030 72 1c 2d 3c ac ea 93 bd d8 88 32 bd 01 d8 94 bb
       0.010565864 -0.072224945 -0.043587536 -0.0045423512
000040 98 92 e6 3d 42 b6 87 3e f7 86 24 3c 10 e7 2b 3e
       0.11258429 0.2650624 0.010041944 0.16787362
000050 84 9c a9 3e 73 8d 84 3d ee f2 d7 3d b8 af d5 bd
       0.33127224 0.06472292 0.10544382 -0.10433906
000060 d5 a4 07 be 60 61 e0 bd f9 6b f3 bd 98 72 95 bd
       -0.13246472 -0.10956073 -0.118858285 -0.07297248
000070 8f 31 29 3e 2a b1 fa 3d 31 0b 8a 3d ea 9b a5 bd
       0.16522811 0.122408226 0.06740416 -0.08086379
000080 05 82 20 3e 31 cf 09 3d 1b 67 7f 3d cd 8f 24 3e
       0.15674599 0.03364486 0.06235419 0.1607048
000090 91 19 9e bd 73 9c 7b be fe 08 5c 3d be 9b e2 bb
       -0.0771972 -0.245714 0.053719513 -0.0069155386
0000a0 82 92 a8 be 0d d7 1f 3d bd 59 8c 3c c0 a6 b1 3d
       -0.32924277 0.039023448 0.017132634 0.08674383
0000b0 d0 8b 74 be 27 1d 62 3e 4b 1d 11 bd 14 20 0b 3e
       -0.23881459 0.22081433 -0.035428327 0.13586456
0000c0 08 18 cb bd 01 f3 90 3d 91 be 89 be d5 6f d1 3c
       -0.09916693 0.07077599 -0.26903203 0.025566021
0000d0 39 a4 79 be b1 28 7f be 74 62 8c be dc ae 99 bd
       -0.24379052 -0.24917866 -0.27418864 -0.07504055
0000e0 dd 85 1b 3e dd 21 02 3e 72 90 f1 3b 40 1d 50 be
       0.15187784 0.1270823 0.0073719556 -0.20323658
0000f0 c4 40 08 3c 91 d8 2f 3e 2e b5 4b 3e 90 38 45 be
       0.008316223 0.17172457 0.19893333 -0.19259858

fc.4.weight f4 [33, 64]
000000 5a 75 f6 bd 28 15 de 3c d4 c6 8b bd 9c 0e 53 bd
       -0.12034102 0.027109697 -0.06825033 -0.051527604
000010 80 81 26 3c 6a ee d7 3d a8 61 11 bd 96 c0 e9 bd
       0.010162711 0.10543521 -0.035493523 -0.11413686
000020 38 c4 47 bd fc 89 0a bd d8 06 e3 3c c8 d3 82 3c
       -0.048771113 -0.033823 0.027713224 0.015970126
000030 84 53 dd bd 7c 77 06 bd 44 f1 2b bd 62 fc de 3d
       -0.10806945 -0.032828793 -0.041978136 0.10887982
000040 60 04 b9 bd 52 0c 9e 3d 98 18 4f bd ee 72 ba 3d
       -0.090340376 0.07717194 -0.050560564 0.09103952
000050 84 a9 17 bd 00 bb 3c 3a ec fd dd 3d 38 b9 80 3d
       -0.037026897 0.0007199496 0.108394474 0.06285328
000060 a0 0b 99 bd ba 38 9e bd a2 b8 98 3d ca 12 99 3d
       -0.074729204 -0.077256635 0.07457091 0.07474287
000070 d0 2f 27 3c 00 f2 b7 ba d4 da 45 3d 20 9f e0 bc
       0.0102042705 -0.0014033914 0.048304394 -0.027419627
000080 e8 99 57 3d bc 93 71 3d ee b0 bf 3d 20 c1 c9 3d
       0.05263701 0.05897878 0.093599185 0.09851289
000090 f2 2b b3 3d f2 5e f6 3d a0 3d a2 bb 40 c6 f6 3c
       0.08748616 0.12029828 -0.004951194 0.03012383
0000a0 bc ac 4a bd 40 02 f5 bb 80 4a 6e bc ec 3c e4 3d
       -0.04948114 -0.007477075 -0.014544129 0.111444324
0000b0 a0 a9 d3 3c 10 69 a2 3d 40 7f 24 3d 50 ae 5e bd
       0.02583772 0.07930195 0.040160418 -0.054365456
0000c0 28 b4 f7 bd a2 03 b6 bd dc 1c 91 3d 20 9e dd 3b
       -0.12094909 -0.08887412 0.070855826 0.0067632347
0000d0 ec 6b 1d 3d 48 51 96 bd 6a 8b 9e 3d e0 5f b1 3c
       0.038433 -0.07339722 0.07741435 0.021652162
0000e0 b2 f7 b5 3d 3a d4 b0 3d a2 48 82 bd 78 30 38 3d
       0.08885135 0.08634229 -0.0636151 0.0449681
0000f0 26 b4 bb bd ae 44 fd bd e0 b1 6c bc 42 a8 fe bd
       -0.0916522 -0.12366615 -0.014446706 -0.124344364
000100 e0 0b 35 3d b2 45 f6 3d 5a cf 9c bd 74 1b b4 3d
       0.044200778 0.12025012 -0.07656737 0.08794299
000110 68 72 12 3d 10 b1 58 3c cc 31 60 3d b6 b7 f1 3d
       0.035753638 0.013225809 0.05473499 0.11802618
000120 e2 e7 cd bd 08 00 0c 3d be 52 c3 bd 5e 30 bf 3d
       -0.10053994 0.034179717 -0.09537266 0.09335397
000130 f8 ab 0b bd be fc a1 3d 98 06 84 bc 68 12 b8 3c
       -0.03409955 0.07909535 -0.016116425 0.022469714
000140 b4 db 24 bd f0 f3 50 3c c4 50 1a bd 78 bf a2 3c
       -0.040248588 0.012753472 -0.03767468 0.01986669
000150 38 ef 53 3d 48 97 8b bd c8 db c9 bd d0 5a 63 bd
       0.05174181 -0.06815964 -0.09856373 -0.055506527
000160 82 ba dc bd 9e 88 dd bd 66 61 f0 3d 42 b4 8b bd
       -0.10777761 -0.10817073 0.11737327 -0.06821491
000170 c0 15 9d bd fe 7c f7 bd 5c 9c fe bd 8c 74 15 bd
       -0.07670164 -0.12084387 -0.12432167 -0.0364881
000180 14 59 88 3d b0 df ad 3c 2e a6 df 3d 24 43 50 bd
       0.06657615 0.021224827 0.10920368 -0.05084528
000190 30 90 db 3d 30 87 0f 3c e0 86 98 3d 90 82 bf 3c
       0.10720861 0.008760259 0.074476 0.023377687
0001a0 28 d2 95 bc 40 61 51 3d 84 3e 80 3d 24 ef ba bd
       -0.018288687 0.051118135 0.06261924 -0.09127644
0001b0 40 f6 91 3b d6 1a ea bd 44 c4 a8 3d 80 ea 82 3a
       0.004454404 -0.114309 0.0824056 0.0009988099
0001c0 00 c1 03 3c d8 17 8b bd f4 5f 51 bd ec 08 ba 3d
       0.00804162 -0.06791657 -0.0511169 0.09083733
0001d0 5c c0 aa 3d ea 20 91 3d c2 be ba 3d 2c 00 f2 bd
       0.08337471 0.07086356 0.091184154 -0.11816439
0001e0 64 af 2e bd 0c d6 2b 3d 4c c0 21 3d 54 81 32 bd
       -0.042647734 0.041952178 0.03949003 -0.04358037
0001f0 38 5c b8 3c 30 ba f0 bd 46 41 a4 bd cc 0a d3 bd
       0.02250491 -0.117542624 -0.080202624 -0.10304794
000200 e0 00 17 3d 3c c5 3e bd 80 2c c2 3a 7e 71 fe bd
       0.03686607 -0.046574816 0.0014814287 -0.12423991
000210 b0 9f cb bc 00 2f 57 bb 18 3d fb bc 88 ff 81 bc
       -0.024856418 -0.003283441 -0.03066878 -0.015868917
000220 fc e4 5a bd b4 c8 e1 3d 50 03 71 3c 96 30 bf 3d
       -0.053441033 0.11024609 0.014710262 0.09335439
000230 d0 0d 48 bd cc 22 f8 3d 00 87 05 3d ec 67 0a 3d
       -0.048841298 0.12116012 0.03259945 0.033790514
000240 30 a8 05 bd 00 9b 5d 3d 18 1a 0b 3d 10 fc 8c bc
       -0.0326311 0.054102898 0.03396043 -0.017210037
000250 e0 5f 8a bc ee 8a ea bd 14 ed c5 bd 84 23 61 bd
       -0.01689142 -0.1145228 -0.0966436 -0.05496551
000260 d0 d4 a5 3d 4a 56 ba 3d 6c 68 24 3d 68 09 9d bd
       0.080972314 0.090984896 0.040138647 -0.0766781
000270 9c a7 a1 bd 00 0a e8 b9 38 08 4e 3d d0 c0 5c bd
       -0.07893297 -0.0004425794 0.050300807 -0.053894818
000280 58 d3 41 3d 44 a0 b3 bd f4 e1 21 3d c0 d3 96 bd
       0.047320694 -0.087708026 0.039522126 -0.07364607
000290 a0 86 af bc 3a 9c cc bd 50 43 1b 3c ba c5 e0 3d
       -0.021426499 -0.09990735 0.009476498 0.10975213
0002a0 9e 81 fd bd 28 1b 66 3d a4 05 e9 3d 48 4b 32 bd
       -0.12378238 0.056178242 0.11378029 -0.043528825
0002b0 c8 78 31 bd 1e 5f fa 3d 3e 6a e2 3d d0 c6 db 3c
       -0.043328077 0.122251734 0.1105542 0.0268282
0002c0 3c 89 51 bd 20 8c 07 3c 18 63 85 bc 2e 90 96 3d
       -0.051156268 0.0082731545 -0.016282603 0.07351719
0002d0 fc 90 1f bd 36 b4 e8 bd 80 1e 2f bd 98 cc 28 bd
       -0.038956627 -0.113624975 -0.042753696 -0.04121074
0002e0 10 ac cf bd d0 b2 f2 bc 7e c3 dd bd 1c 61 00 bd
       -0.1014024 -0.02962628 -0.10828303 -0.03134261
0002f0 92 1e a3 bd cc bb 0f bd c4 10 e5 3d fc 9b 33 3d
       -0.07964815 -0.035091206 0.111848384 0.04384993
000300 2a 41 82 bd c0 cc ab 3c c0 6e 9a 3b 90 5b 53 bc
       -0.06360085 0.020971656 0.0047129095 -0.012900248
000310 5a ca 80 3d da c3 cf 3d e2 3a b9 3d 28 ac c8 bc
       0.062885955 0.101447776 0.09044434 -0.024496153
000320 4e 46 84 3d ac 71 fa 3d 32 5d 93 3d ca b9 e2 bd
       0.06458722 0.122287124 0.0719551 -0.11070593
000330 40 9f c7 bb d4 f9 cc bd 74 b5 f9 bd c6 8f cc 3d
       -0.006091982 -0.100085884 -0.121928126 0.0998836
000340 58 02 09 bd a0 bf 99 bb 20 33 f9 bc 7e 5f ca 3d
       -0.0334495 -0.004692033 -0.030419886 0.09881495
000350 b0 60 77 bd 40 4a 90 3b 10 66 61 3d 12 28 86 3d
       -0.060394943 0.0044033825 0.055028975 0.065506116
000360 c0 40 6d 3b 6c 4a d8 bd c0 78 f1 bc 28 d3 84 bc
       0.0036201924 -0.1056107 -0.029476523 -0.016213968
000370 fc 26 40 3d e0 2c a4 bb 4c d2 d0 bd d2 72 9a bd
       0.04691218 -0.0050102323 -0.10196361 -0.075414315
000380 00 7c 57 3b f0 0e 21 bc 4c ae eb 3d 50 cb f7 bc
       0.0032880306 -0.0098302215 0.11507854 -0.030248314
000390 c4 6d 6f 3d b0 ae fd 3d 20 bc 71 3d 50 82 8d bd
       0.05845429 0.123868346 0.0590173 -0.06909621
0003a0 c4 dc 0e 3d 0c df 42 bd 48 8f 9d bd bc 44 a0 3d
       0.034878507 -0.047575995 -0.07693344 0.0782561
0003b0 5e b2 81 bd a0 bc c2 3d 70 67 54 3d 30 02 27 bc
       -0.06332849 0.095086336 0.05185646 -0.010193393
0003c0 0c 2f b8 bd e0 ae 5c 3c 22 07 e7 3d 88 95 fe bd
       -0.089933485 0.013469428 0.11280657 -0.124308646
0003d0 a4 5b 93 bd 00 42 df b9 70 aa 8c bd fc 0e a4 3d
       -0.071952134 -0.00042583048 -0.06868446 0.080106705
0003e0 80 ec ee 3d a4 68 ee 3d 14 52 1f bd 18 25 8f 3d
       0.116662025 0.11641052 -0.038896635 0.06989497
0003f0 00 3e e9 bc 7a 33 f2 bd 00 e8 32 bc 1e 47 85 bd
       -0.028471947 -0.118262246 -0.010919571 -0.06507705

fc.4.bias f4 [33]
000000 d6 6e da 3d 88 60 d2 3d d2 97 f4 bd b0 24 ca bd
       0.106656715 0.10272318 -0.1194302 -0.09870279
000010 2f 25 1d 3f e0 92 ce 3d 5e 0d f5 be e3 80 96 be
       0.6138486 0.10086608 -0.4786176 -0.29395208
000020 0d 99 4a 3e 3c 2b 6b 3e ba e9 d7 be a4 1a 27 be
       0.19784947 0.22965711 -0.42170507 -0.16318756
000030 f3 85 b7 bc aa ee 90 3e 8f ae 3b be 24 bd 80 bb
       -0.02240274 0.28307086 -0.18328308 -0.0039287973
000040 ad ae b5 bd c5 f8 eb 3d 53 9c ab be ae d0 9b bd
       -0.088712074 0.115220584 -0.33517703 -0.07608162
000050 b3 23 94 be 4c 87 9a 3e aa 06 cf bd 83 49 33 3e
       -0.28933486 0.30181348 -0.10108693 0.17508511
000060 a5 63 cd be 06 93 84 3e 50 55 5c be be 4b b3 3d
       -0.40115085 0.2589342 -0.21516919 0.08754681
000070 33 1d 04 bf 76 c2 a1 be ae fa 8e 3e 5d 8c 3f 3e
       -0.51607054 -0.31593674 0.27925628 0.18705888
000080 bc 2a 8c 3e
       0.27376354
