models/policy.pt (torch_old, 99515 bytes, 6 tensors)

fc.0.weight f4 [128, 110]
-0.0029636482 -0.003302355 -0.08585962 0.018057855 -0.07726656 0.08349526 -0.057829212 -0.078023165
-0.07074924 0.046412572 -0.0077682347 0.040641986 -0.0667204 -0.04835748 -0.039045464 -0.004543462
-0.07648072 0.07338215 -0.0011341658 0.047703944 0.09003687 0.05939727 0.0366171 0.11976332
-0.035000138 0.05310345 -0.03904477 0.09987978 0.08221613 -0.07067524 0.09437511 0.061080724
0.06956681 0.063981354 0.08390082 -0.0008260587 -0.07363094 -0.02536259 -0.059486475 0.011113826
-0.014640363 -0.06824649 -0.0017620407 0.116007306 0.015441136 0.012472392 -0.009442596 0.022370443
0.08997892 0.07141548 0.03519225 0.032210026 0.018691475 0.035537772 -0.0014332478 -0.06850466
-0.060753744 0.08220457 0.0047904532 -0.06597032 0.023406012 0.082305886 -0.08707295 -0.0728253
-0.04512433 -0.0013951639 -0.01485496 -0.013815575 -0.09314056 0.04503324 0.092818946 0.073084645
-0.05267456 -0.05725401 0.037195146 0.029833825 0.053241715 -0.08593083 0.0021244686 0.08036327
0.041184403 0.007139063 0.01800622 -0.006171204 -0.042692132 -0.038476415 -0.07107333 0.07644867
0.041878678 0.035348978 -0.075686894 0.07173409 0.025957746 0.07117304 -0.026362987 0.028244587
0.10620899 0.054867823 0.09107404 -0.0032837817 0.076471984 -0.07040937 0.0024082297 -0.047590334
-0.014265952 -0.015945638 -0.001647938 0.092826135 0.055295832 0.0060623866 0.11260412 -0.0131072365
0.07415936 0.011769548 -0.0058750664 0.007124548 -0.07638771 0.013484758 0.04278398 0.0790125
-0.014863575 0.036009405 0.096064955 -0.033865623 0.1068724 -0.041977163 0.061463676 0.0565385
0.020504927 0.08378241 -0.03648444 0.024312321 0.005234403 -0.07735735 -0.019497555 -0.069438435
0.028798187 0.018724773 0.01831293 -0.014392807 0.011315641 -0.018073969 0.031540077 0.114179164
0.03138762 -0.015208272 -0.05547466 0.0054210667 -0.07620429 -0.06984541 -0.06887501 -0.03055818
0.0030835287 0.069042884 0.03833534 0.076949246 -0.052859828 0.011628895 -0.07725604 0.046176355
0.02397112 0.09075144 -0.06494371 0.093272194 0.086622 0.07337307 0.019353962 0.093094915
0.06337697 0.062182844 -0.0074919257 -0.057555374 0.010020812 0.023262536 -0.058197904 -0.045337144
-0.07773321 -0.017449813 0.08705907 0.025856717 -0.005561218 0.010493351 0.06542841 -0.07160647
-0.0788314 -0.04023361 -0.06184401 0.049202066 0.06112023 -0.09774726 -0.0807031 -0.093276374
0.037530966 0.09473009 -0.06902327 -0.051512346 0.032354575 -0.057180878 0.08459047 0.026614146
-0.028902352 0.013855198 0.02223723 -0.05902782 -0.07563608 -0.0031423166 0.0071514226 0.0030490994
0.001291908 0.051809482 -0.02602196 -0.012528935 0.03438267 -0.06863914 0.014536885 -0.023639856
0.043795355 -0.0422938 -0.006056848 0.025355047 -0.118099585 -0.08575862 0.046324875 -0.040439952
0.049000334 -0.089424856 -0.03390706 -0.079223976 0.039536905 0.020351667 0.02351574 -0.025902517
-0.07815805 0.027003279 -0.0016351261 -0.073782235 0.03994753 -0.008144568 -0.090931244 0.0321279
0.055422556 -0.023727933 -0.064559355 0.002359995 0.07990941 0.073629454 -0.0729599 -0.062774055
0.0802447 0.02623816 0.04107315 -0.061907962 0.059428208 -0.09056174 -0.010890994 -0.005309548
00000000: c439 42bb 536c 58bb 2bd7 afbd 11ee 933c
00000010: ee3d 9ebd 90ff aa3d 53de 6cbd 9cca 9fbd
00000020: fae4 90bd 1c1b 3e3d ad8c febb 3678 263d
00000030: b4a4 88bd 7e12 46bd 23ee 1fbd 52e1 94bb
00000040: eca1 9cbd 6149 963d 4aa8 94ba 3665 433d
00000050: 4065 b83d 8d4a 733d d0fb 153d 7946 f53d
00000060: 4e5c 0fbd 0183 593d 69ed 1fbd c58d cc3d
00000070: ee60 a83d 2ebe 90bd bd47 c13d c82f 7a3d
00000080: 0b79 8e3d a808 833d 31d4 ab3d dc8b 58ba
00000090: d1cb 96bd 35c5 cfbc 17a8 73bd c416 363c
000000a0: 22de 6fbc d1c4 8bbd 46f4 e6ba 3d95 ed3d
000000b0: d2fc 7c3c 0159 4c3c 1eb5 1abc 3842 b73c
000000c0: de46 b83d 4742 923d c025 103d a9ee 033d
000000d0: dd1e 993c 0e90 113d d1db bbba 2c4c 8cbd
000000e0: ebd8 78bd df5a a83d 3cf9 9c3b 721b 87bd
000000f0: f7bd bf3c fd8f a83d 4e53 b2bd 6e25 95bd
00000100: 4ad4 38bd efdd b6ba 3862 73bc b95a 62bc
00000110: 7ac0 bebd c674 383d dc17 be3d 67ad 953d
00000120: 48c1 57bd 2e83 6abd f059 183d 1166 f43c
00000130: fc13 5a3d 81fc afbd ab3a 0b3b 8095 a43d
00000140: fab0 283d cdee e93b c881 933c d037 cabb
00000150: f2dd 2ebd 7299 1dbd e58e 91bd 1f91 9c3d
00000160: fa88 2b3d 17ca 103d bb01 9bbd 53e9 923d
00000170: 57a5 d43c 2cc3 913d 31f7 d7bc 3161 e73c
00000180: 1984 d93d 15bd 603d 0785 ba3d b734 57bb
00000190: 589d 9c3d ca32 90bd 64d3 1d3b 15ee 42bd
000001a0: bdbb 69bc 6da0 82bc a0ff d7ba a11b be3d
000001b0: e27d 623d fca6 c63b fd9c e63d bcbf 56bc
000001c0: dde0 973d 10d5 403c a183 c0bb 0a75 e93b
000001d0: 2971 9cbd 2def 5c3c 413e 2f3d 4ed1 a13d
000001e0: 5a86 73bc 997e 133d b4bd c43d aeb6 0abd
000001f0: ebdf da3d 3ff0 2bbd 56c1 7b3d ea94 673d
00000200: f3f9 a73c 1d96 ab3d b570 15bd a22a c73c
00000210: 5b85 ab3b 886d 9ebd 56b9 9fbc bd35 8ebd
00000220: 2dea eb3c b264 993c ff04 963c cfcf 6bbc
00000230: 3d65 393c dc0f 94bc 2b30 013d c4d6 e93d
00000240: 4e90 003d 1e2c 79bc 6639 63bd 34a3 b13b
00000250: ff10 9cbd 1c0b 8fbd 570e 8dbd 2655 fabc
00000260: 0715 4a3b 5b66 8d3d 8405 1d3d 9197 9d3d
00000270: 8c83 58bd 1f87 3e3c 6a38 9ebd 6b23 3d3d
00000280: 155f c43c e4db b93d 3501 85bd 7e05 bf3d
00000290: e066 b13d 9f44 963d 338c 9e3c 8ca8 be3d
000002a0: c9cb 813d 70b3 7e3d d47e f5bb 2fbf 6bbd
000002b0: 552e 243c 1391 be3c ed60 6ebd 71b3 39bd
000002c0: 9732 9fbd e9f2 8ebc 074c b23d 77d1 d33c
000002d0: e13a b6bb 4eec 2b3c 55ff 853d 6aa6 92bd
000002e0: 5b72 a1bd ffcb 24bd 2550 7dbd 1b88 493d
000002f0: 3559 7a3d b72f c8bd ab47 a5bd af07 bfbd
00000300: 12ba 193d d901 c23d 125c 8dbd 9cfe 52bd
00000310: 3b86 043d 7f36 6abd c53d ad3d e905 da3c
00000320: a0c4 ecbc ea00 633c da2a b63c 28c7 71bd
00000330: 17e7 9abd 53ef 4dbb 7b56 ea3b 66d3 473b
00000340: 3d55 a93a 2e36 543d 012c d5bc 2a46 4dbc
00000350: d8d4 0c3d ad92 8cbd 1d2c 6e3c 5fa8 c1bc
00000360: c262 333d 433c 2dbd 8678 c6bb 63b5 cf3c
00000370: 32de f1bd 37a2 afbd 27bf 3d3d 5da4 25bd
00000380: 93b4 483d 6124 b7bd 21e2 0abd 2e40 a2bd
00000390: 73f1 213d 8ab8 a63c 15a4 c03c 8431 d4bc
000003a0: 5411 a0bd fb35 dd3c ba51 d6ba 241b 97bd
000003b0: 05a0 233d cb70 05bc 293a babd 8b98 033d
000003c0: c302 633d 1561 c2bc b237 84bd 25aa 1a3b
000003d0: 8ba7 a33d 0acb 963d 006c 95bd af8f 80bd
000003e0: 5557 a43d 69f1 d63c 523c 283d 3493 7dbd
000003f0: fe6a 733d 6f78 b9bd 2470 32bc b8fb adbb

fc.0.bias f4 [128]
-0.089205764 -0.022207422 -0.06798273 -0.08507115 -0.085919164 -0.009598181 0.0381629 0.0469062
0.08726232 0.02045362 -0.02167142 -0.02907868 -0.054542497 -0.019536138 0.02195304 -0.049018975
-0.009825904 -0.08545072 -0.08199013 0.053513706 0.09672075 0.08045844 -0.10368677 0.06397954
-0.032179996 -0.06844793 -0.07680587 0.017422047 0.04199503 0.07217419 -0.050462563 -0.06936316
-0.058641907 -0.09151874 -0.03347523 0.04201102 0.047459435 -0.097118154 -0.07528472 -0.010732425
0.033006225 0.034951925 0.043156356 -0.07108416 -0.08369538 0.067343615 0.076761894 -0.0001642179
0.036779154 -0.04329163 -0.010646277 0.034811694 0.0823837 0.080152914 0.044754945 -0.013272051
0.055490635 -0.06848968 0.003200537 -0.014852674 -0.037661288 0.0048424476 -0.005751177 0.03243809
0.0041378303 0.007092412 0.10181862 0.066576354 -0.06961257 -0.08722072 -0.030261671 -0.06255403
0.06162481 -0.07760727 -0.062212493 -0.0013103274 -0.037357427 -0.0038894312 -0.013348674 0.0050191944
-0.02495417 0.027982289 -0.08408131 0.025809785 -0.08765318 0.04339698 0.070399344 -0.06998078
-0.041574635 -0.056464557 -0.028768938 0.0802202 -0.032880988 -0.03710913 0.07532447 -0.06525502
0.004283995 0.005123575 0.0190687 0.012284135 -0.064459056 0.08997015 -0.031143112 0.08030967
-0.037255134 0.050447427 -0.095649734 0.087028556 -0.059041526 -0.019476386 -0.071451806 0.013819819
-0.089991644 -0.070347205 -0.03129756 -0.062072773 0.0873896 -0.060121175 -0.08778429 -0.08009073
0.079692 -0.092186034 -0.048072126 -0.086037256 -0.0009228788 0.049554873 -0.0040850244 0.07715378
00000000: 83b1 b6bd 57ec b5bc 883a 8bbd c839 aebd
00000010: 63f6 afbd b041 1dbc b350 1c3d b720 403d
00000020: 96b6 b23d 5a8e a73c 4388 b1bc 6936 eebc
00000030: f467 5fbd 400a a0bc ddd6 b33c 1fc8 48bd
00000040: d4fc 20bc c900 afbd 71ea a7bd 3031 5b3d
00000050: 8715 c63d 65c7 a43d bb59 d4bd b407 833d
00000060: 2ccf 03bd 6e2e 8cbd 654c 9dbd aeb8 8e3c
00000070: fb02 2c3d 10d0 933d d5b1 4ebd 460e 8ebd
00000080: 7f32 70bd 2d6e bbbd 531d 09bd bf13 2c3d
00000090: d364 423d e2e5 c6bd e02e 9abd 0ed7 2fbc
000000a0: 8931 073d c029 0f3d b8c4 303d 9294 91bd
000000b0: 7c68 abbd 73eb 893d 5735 9d3d e831 2cb9
000000c0: bda5 163d 9052 31bd b96d 2ebc b596 0e3d
000000d0: c9b8 a83d 3627 a43d f650 373d 0473 59bc
000000e0: 264a 633d 5144 8cbd 1ac0 513b a158 73bc
000000f0: b942 1abd 65ad 9e3b 5f74 bcbb cddd 043d
00000100: a396 873b 7767 e83b 4886 d03d 2f59 883d
00000110: 0991 8ebd c7a0 b2bd 53e7 f7bc 541c 80bd
00000120: 4c6a 7c3d 8ff0 9ebd 87d2 7ebd 4bbf abba
00000130: 1a04 19bd d4e5 7ebb 66b4 5abc 0e78 a43b
00000140: b06c ccbc 1d3b e53c d232 acbd 0b6f d33c
00000150: 8383 b3bd 08c1 313d 882d 903d 1552 8fbd
00000160: 2a4a 2abd 6147 67bd d6ac ebbc 7d4a a43d
00000170: 37ae 06bd beff 17bd b743 9a3d 6da4 85bd
00000180: c160 8c3b aae3 a73b f635 9c3c 6643 493c
00000190: 1c03 84bd 4542 b83d d71f ffbc 6579 a43d
000001a0: d798 18bd f6a1 4e3d 02e4 c3bd 073c b23d
000001b0: 87d5 71bd f18c 9fbc 5355 92bd 866c 623c
000001c0: 8a4d b8bd 3212 90bd df31 00bd 0540 7ebd
000001d0: 52f9 b23d 9f41 76bd 40c8 b3bd 9c06 a4bd
000001e0: 8f35 a33d 08cc bcbd 47e7 44bd 4d34 b0bd
000001f0: 59ed 71ba 0dfa 4a3d abdb 85bb cd02 9e3d

fc.2.weight f4 [64, 128]
0.05666477 0.08018406 -0.008871994 0.09181674 -0.0004683297 -0.06515811 0.06414278 -0.035207856
0.041567404 -0.0036643266 -0.0070525273 -0.015300657 -0.03165678 0.045405857 0.028339969 0.08854811
-0.076653115 0.015813148 0.0013808513 -0.06746627 -0.08144651 0.06501763 0.09529949 -0.013686687
0.020966964 -0.050467677 -0.058879633 0.06853231 0.021378234 0.024181068 -0.037238404 0.05253058
0.031051653 0.09566235 -0.05030116 0.0839674 0.04981208 0.03407407 0.0465192 -0.08514395
0.09561026 0.05983569 0.07754463 0.02440709 -0.041625164 0.0243715 -0.056680072 -0.05351043
-0.114214756 0.09333458 0.029588036 0.028419368 -0.003038821 0.023478286 0.017756728 -0.005912155
0.039226077 0.012688353 0.062034618 -0.05983986 0.004844221 -0.0969001 -0.047667805 -0.007747773
0.06550182 -0.062059917 -0.06854194 0.04575509 0.07299459 0.062711045 -0.022228183 -0.036300592
-0.07174309 -0.07622034 0.047718383 0.08259494 0.020620069 0.058588322 -0.09801579 0.0130782
0.06465001 -0.055105273 -0.04809205 0.0409441 -0.0151481945 0.07926585 -0.10497398 0.080840796
-0.06861093 0.029706152 -0.021273477 0.031398907 -0.051517766 -0.0074752225 0.022778504 -0.03212742
0.013525704 0.0374117 0.04118631 0.083042055 0.023717819 -0.07742177 -0.0887532 0.043201223
-0.036454797 -0.08257313 -0.057098154 0.06001253 0.07408374 0.002140373 0.0015396647 0.018993182
-0.06896187 -0.05220994 -0.01870805 0.026226435 -0.055346336 0.049960364 0.048374753 -0.008986134
-0.054796264 0.007453889 -0.01897627 -0.07548917 -0.02096879 0.038924124 -0.04322909 0.0007175919
-0.09874621 0.09625332 0.0033414715 0.05169168 0.057328198 0.10322783 0.039742075 0.008734208
-0.058188822 0.0045644743 -0.09605961 -0.013558439 -0.10063816 -0.07422665 -0.05818657 0.012236718
0.06333899 0.093423575 0.08632987 0.05767082 0.087875694 0.07550273 0.019954527 -0.018812582
-0.017963046 -0.03268423 -0.02967775 0.060690288 -0.011592298 0.06213617 -0.057335805 -0.05050325
-0.013646076 0.07816644 0.1361768 -0.070327096 -0.09380923 -0.028237611 0.08080177 -0.01011584
0.046846155 0.018393766 -0.05121456 0.1119284 -0.068804145 0.045171577 -0.040637728 0.01168228
0.01507557 -0.057224248 -0.03983242 -0.07639806 -0.04683849 -0.08564712 -0.06393805 0.053475738
-0.06498826 0.035046984 0.07109711 0.06896324 -0.004000111 -0.033112753 -0.042529333 -0.089365385
-0.049564794 0.018085 0.0783004 -0.009871499 0.061581098 0.105577774 0.013125752 0.05201116
0.04506767 0.023241188 -0.09819895 -0.05567035 -0.03892814 0.028039627 0.057783965 0.07838003
0.032485604 0.008069794 -0.034406208 0.0814387 0.016027557 0.043217294 0.041472968 -0.032564968
0.0121236425 -0.06749376 -0.015600916 0.01245598 -0.027935797 -0.029458469 0.024919342 -0.04279496
-0.052845526 0.01935757 -0.016478952 -0.06366585 -0.10327955 -0.057020508 0.08693062 -0.063640095
0.012435919 0.037562497 -0.01980078 -0.05648687 0.060589083 0.08298503 -0.07550033 -0.04143923
0.011611365 -0.026756676 -0.0130948 -0.026387876 -0.087970376 -0.07533015 0.07441959 0.016338347
0.0028509013 -0.06367364 -0.0003173452 0.087551385 0.0121411225 0.029897615 0.08433 -0.03929003
00000000: 5119 683d 8a37 a43d d75b 11bc 6a0a bc3d
00000010: 268a f5b9 9d71 85bd 4a5d 833d 1d36 10bd
00000020: 9542 2a3d 3325 70bb e318 e7bb 9baf 7abc
00000030: 8aaa 01bd 7efb 393d 3929 e83c b658 b53d
00000040: 4ffc 9cbd 938a 813c aefd b43a c12b 8abd
00000050: 6ecd a6bd f727 853d 612c c33d 203e 60bc
00000060: e9c2 ab3c 32b7 4ebd c52b 71bd ab5a 8c3d
00000070: 6821 af3c 6017 c63c 4c87 18bd 4e2a 573d
00000080: 0960 fe3c 9fea c33d 9708 4ebd 1af7 ab3d
00000090: c007 4c3d 4191 0b3d eb8a 3e3d f45f aebd
000000a0: 50cf c33d 4516 753d b8cf 9e3d 61f1 c73c
000000b0: 267f 2abd bda6 c73c 5d29 68bd c12d 5bbd
000000c0: 6de9 e9bd 3326 bf3d 9c62 f23c bccf e83c
000000d0: f526 47bb 8955 c03c 8f76 913c c0ba c1bb
000000e0: 86ab 203d cfe2 4f3c 0318 7e3d a41a 75bd
000000f0: 45bc 9e3b 8f73 c6bd 513f 43bd 08e1 fdbb
00000100: d125 863d 8a32 7ebd b75f 8cbd b069 3b3d
00000110: 307e 953d a66e 803d e117 b6bc eeaf 14bd
00000120: 0bee 92bd 6919 9cbd 5a74 433d 8927 a93d
00000130: 6beb a83c 4ffa 6f3d 81bc c8bd f245 563c
00000140: 3967 843d 11b6 61bd 2bfc 44bd 00b5 273d
00000150: 2230 78bc 2256 a23d 99fc d6bd dc8f a53d
00000160: e383 8cbd 515a f33c b745 aebc 249c 003d
00000170: 4b04 53bd b6f2 f4bb fc99 ba3c 0b98 03bd
00000180: ea9a 5d3c 033d 193d fab2 283d f411 aa3d
00000190: df4b c23c 4e8f 9ebd 3dc4 b5bd c4f3 303d
000001a0: a051 15bd 1a1c a9bd c1df 69bd b3cf 753d
000001b0: 37b9 973d 8045 0c3b 93ce c93a 9797 9b3c
000001c0: e23b 8dbd 17da 55bd a041 99bc d2d8 d63c
000001d0: d7b2 62bd 3da3 4c3d 9b24 463d 943a 13bc
000001e0: 0c72 60bd c13f f43b 1f74 9bbc 119a 9abd
000001f0: bdc6 abbc e76e 1f3d fc10 31bd c71c 3c3a
00000200: 743b cabd 7620 c53d 97fc 5a3b a8ba 533d
00000210: f9d0 6a3d 1d69 d33d 96c8 223d ec19 0f3c
00000220: 6757 6ebd 9691 953b e7ba c4bd 3724 5ebc
00000230: 611b cebd 2404 98bd 0a55 6ebd 847c 483c
00000240: dfb7 813d dc54 bf3d b7cd b03d 3d38 6c3d
00000250: 2cf8 b33d 2da1 9a3d ad77 a33c d81c 9abc
00000260: 3d27 93bc e6df 05bd c11e f3bc 6196 783d
00000270: 9fed 3dbc 7f82 7e3d f3d8 6abd 7fdc 4ebd
00000280: cb93 5fbc ba15 a03d ee71 0b3e a707 90bd
00000290: 0e1f c0bd 9052 e7bc 667b a53d e8bc 25bc
000002a0: c1e1 3f3d 86ae 963c 5cc6 51bd b83a e53d
000002b0: 30e9 8cbd d505 393d bf73 26bd 0967 3f3c
000002c0: 86ff 763c f963 6abd 5227 23bd 9676 9cbd
000002d0: b7d9 3fbd c267 afbd f4f1 82bd 6009 5b3d
000002e0: 9118 85bd 6d8d 0f3d 5d9b 913d 993c 8d3d
000002f0: 5d13 83bb 3da1 07bd 3d33 2ebd 3305 b7bd
00000300: 7404 4bbd fe26 943c f65b a03d 11bc 21bc
00000310: 763c 7c3d 2939 d83d 650d 573c a709 553d
00000320: e198 383d 4e64 be3c 881c c9bd 9806 64bd
00000330: 1d73 1fbd 5cb3 e53c e1ae 6c3d b685 a03d
00000340: a00f 053d 2b37 043c 86ed 0cbd 55c9 a63d
00000350: 394c 833c 9e04 313d 8fdf 293d d862 05bd
00000360: 3ea2 463c 2b3a 8abd fc9a 7fbc 2b14 4c3c
00000370: 9dd9 e4bc e352 f1bc a623 cc3c c549 2fbd
00000380: 8d74 58bd c493 9e3c defe 86bc 3e63 82bd
00000390: 3b84 d3bd 568e 69bd ae08 b23d bd55 82bd
000003a0: 06c0 4b3c 22db 193d 3f35 a2bc c75e 67bd
000003b0: 422c 783d 0ef4 a93d eb9f 9abd 2fbc 29bd
000003c0: 983d 3e3c d130 dbbc 928b 56bc 632b d8bc
000003d0: d029 b4bd b246 9abd 4c69 983d ffd7 853c
000003e0: 30d6 3a3b 5367 82bd 5a61 a6b9 244e b33d
000003f0: 8feb 463c d8eb f43c 35b5 ac3d 95ee 20bd

fc.2.bias f4 [64]
-0.0752554 0.06346176 -0.052870642 0.013182274 -0.0044025932 0.05680122 0.020385234 -0.01545206
-0.052512843 0.06062155 0.06497189 0.055111945 0.015925497 0.018381428 0.045052547 -0.068355165
0.013968692 0.06045782 -0.06547854 0.01785068 0.10626933 0.04563408 -0.057347957 -0.054233905
0.006013005 -0.033720307 0.048088633 -0.06272594 0.08494195 0.028415063 0.06508172 -0.06133293
0.0674277 0.029330436 -0.00012512668 0.019936508 -0.048197504 -0.06992203 -0.028395554 -0.0620083
-0.090330824 -0.06792344 -0.06599176 -0.0064876205 0.049092792 0.066774115 0.022323817 0.02868141
0.031928815 0.041746266 -0.055911183 -0.02651235 -0.029033612 -0.05748058 -0.08144131 -0.038759053
-0.061662305 0.070466615 0.026468012 -0.043091025 -0.07161829 0.0660176 0.07689253 -0.057482857
00000000: 811f 9abd 3df8 813d e38e 58bd 77fa 573c
00000010: a143 90bb 65a8 683d effe a63c a32a 7dbc
00000020: b517 57bd 4d4e 783d fb0f 853d 10bd 613d
00000030: 3076 823c a694 963c 0589 383d cbfd 8bbd
00000040: f1dc 643c 9ea2 773d 9d19 86bd 973b 923c
00000050: bca3 d93d cdea 3a3d b1e5 6abd 5f24 5ebd
00000060: be08 c53b 4e1e 0abd 96f8 443d 7576 80bd
00000070: 0cf6 ad3d b5c6 e83c 9149 853d 3d38 7bbd
00000080: 8917 8a3d 6246 f03c 7034 03b9 e351 a33c
00000090: bf6a 45bd 4833 8fbd cb9d e8bc 6afc 7dbd
000000a0: 5eff b8bd 721b 8bbd b026 87bd 1b96 d4bb
000000b0: 8615 493d dec0 883d 70e0 b63c 47f5 ea3c
000000c0: cac7 023d 22fe 2a3d 2003 65bd 6e30 d9bc
000000d0: e6d7 edbc c270 6bbd b4ca a6bd d0c1 1ebd
000000e0: 9d91 7cbd cd50 903d 72d3 d83c 3780 30bd
000000f0: 9cac 92bd 3c34 873d d579 9d3d 2573 6bbd

fc.4.weight f4 [33, 64]
-0.12394378 0.01666083 -0.08223297 -0.039382152 0.03544327 0.082371086 -0.027713202 -0.09496969
-0.064685196 -0.030591758 0.026273444 0.019797185 -0.11116155 -0.030650971 -0.050959494 0.09938711
-0.1176055 0.088989116 -0.032833505 0.15165657 -0.022637669 0.033273306 0.12649366 0.051102113
-0.08119042 -0.08307451 0.10652972 0.077657826 0.031658515 -0.015776243 0.07118794 -0.024461258
0.055545725 0.065214105 0.09697471 0.07284687 0.07475784 0.09971921 0.028421309 0.025049258
-0.060456492 -0.033581547 -0.04441352 0.1297687 0.030396085 0.070836134 0.05109031 -0.07054581
-0.1411765 -0.08724128 0.07935021 -0.011465888 0.013130858 -0.10790042 0.051158886 0.01150335
0.067319065 0.09294194 -0.0612956 0.023487061 -0.11018437 -0.124298535 -0.007655987 -0.14795512
0.027983038 0.11640573 -0.05610117 0.10632552 0.034605116 0.035571303 0.071123905 0.116131105
-0.11594488 0.02313995 -0.08754006 0.1119523 -0.040489573 0.097477525 -0.032572728 0.0036485645
-0.04783573 0.02750191 -0.025284873 0.014747622 0.06256873 -0.082820155 -0.10420967 -0.055743646
-0.1217973 -0.12120461 0.11996638 -0.08479043 -0.096473664 -0.13732328 -0.11993666 -0.046401978
0.08207806 0.0023813944 0.12628882 -0.077592306 0.08839937 0.0041016 0.09678365 0.04098161
-0.036449242 0.03108319 0.06346101 -0.074727885 -0.01571933 -0.098891474 0.09387752 -0.0040786997
0.0040285164 -0.04942847 -0.06690031 0.079838656 0.06663066 0.054964624 0.07349906 -0.09388929
-0.05875124 0.059820175 0.020949826 -0.04508014 0.0014358979 -0.109546684 -0.059855185 -0.12164991
0.07075863 -0.07083718 -0.026330082 -0.15829162 -0.0032191088 -0.03984169 -0.06564993 0.012642521
-0.013959629 0.14476827 0.025171302 0.07375467 -0.06356197 0.0942853 0.06254389 0.06628658
-0.014414359 0.018032357 -0.002926828 -0.029721102 -0.04813375 -0.10056946 -0.0923108 -0.048183847
0.11836743 0.12834467 0.059460223 -0.051581226 -0.06790027 0.03016901 0.024675827 -0.030984784
0.013705533 -0.05450166 0.008524545 -0.086521186 0.010398654 -0.069015294 -0.018157583 0.10180866
-0.090356715 0.08381032 0.087148644 -0.0805074 -0.011907836 0.10281147 0.0755131 0.06282128
-0.062994875 -0.023309646 0.02301635 0.096253105 -0.0051233596 -0.08354431 -0.010457921 -0.049721353
-0.07965449 -0.062072955 -0.07922945 -0.0023045887 -0.048244927 -0.069358364 0.086892456 0.072539754
-0.03649929 -0.031300433 -0.0077213463 -0.042591996 0.10675067 0.089539796 0.06646904 0.011279629
0.10171105 0.15147486 0.11461509 -0.15034841 -0.04429973 -0.13130827 -0.092436075 0.13015178
0.022332978 -0.03545231 -0.062192705 0.1267213 -0.08953189 0.033498272 0.09780345 0.08085477
0.03010209 -0.07340995 -0.02780079 -0.020454152 0.04574386 0.00067628914 -0.08520087 -0.056675054
-0.022591729 0.0149120735 0.10390591 -0.034455083 0.07470715 0.17557861 0.028273514 -0.055202104
0.057969227 -0.032683298 -0.105293326 0.055036683 -0.044846464 0.09491254 0.023631435 0.017606279
-0.113459155 -0.007104903 0.13568754 -0.10040406 -0.04071102 0.020880692 -0.051435392 0.06854749
0.13938756 0.09716977 -0.017619612 0.118616655 -0.017796423 -0.16081963 -0.03111719 -0.06364002
00000000: 3dd6 fdbd 4b7c 883c c269 a8bd 2e4f 21bd
00000010: f62c 113d 2cb2 a83d cc06 e3bc 787f c2bd
00000020: ac79 84bd 919b fabc 683b d73c b52d a23c
00000030: aba8 e3bd bf17 fbbc e7ba 50bd 788b cb3d
00000040: 27db f0bd ed3f b63d 6d7c 06bd dc4b 1b3e
00000050: a272 b9bc 9749 083d 8e87 013e 7350 513d
00000060: 2a47 a6bd f822 aabd 412c da3d 110b 9f3d
00000070: 5cac 013d 2e3d 81bc fcca 913d fa62 c8bc
00000080: ea83 633d f98e 853d ad9a c63d bd30 953d
00000090: a31a 993d 9639 cc3d ced3 e83c 1a34 cd3c
000000a0: 3aa1 77bd ce8c 09bd f3ea 35bd 16e2 043e
000000b0: 3601 f93c 8912 913d 1344 513d 527a 90bd
000000c0: 9390 10be 8eab b2bd 5d82 a23d 6bdb 3bbc
000000d0: cf22 573c e5fa dcbd fb8b 513d 8c78 3c3c
000000e0: 94de 893d 5858 be3d 1811 7bbd f067 c03c
000000f0: 58a8 e1bd 3b90 febd 13df fabb 8c81 17be
00000100: af3c e53c 2166 ee3d 57ca 65bd 32c1 d93d
00000110: 18be 0d3d 37b3 113d 69a9 913d 25d6 ed3d
00000120: 8274 edbd fe8f bd3c 3448 b3bd 3f47 e53d
00000130: 65d8 25bd 4ca2 c73d fb6a 05bd c11c 6f3b
00000140: 66ef 43bd b04b e13c 3922 cfbc 03a0 713c
00000150: 0924 803d 9d9d a9bd e16b d5bd 7353 64bd
00000160: dd70 f9bd 1f3a f8bd efb0 f53d 9ba6 adbd
00000170: fc93 c5bd 799e 0cbe 5aa1 f5bd 0010 3ebd
00000180: 8b18 a83d 2b11 1c3b db51 013e b7e8 9ebd
00000190: bb0a b53d b766 863b 8236 c63d 55dc 273d
000001a0: cd4b 15bd 2da2 fe3c d9f7 813d ef0a 99bd
000001b0: d3c5 80bc 9d87 cabd db42 c03d 9da6 85bb
000001c0: a501 843b 8275 4abd 0803 89bd 7382 a33d
000001d0: a875 883d 9622 613d ad86 963d 0749 c0bd
000001e0: 24a5 70bd 0006 753d f89e ab3c f4a5 38bd
000001f0: bd34 bc3a 035a e0bd b62a 75bd 9723 f9bd
00000200: e7e9 903d 1513 91bd 2fb2 d7bc 3317 22be
00000210: aff7 52bb 0a31 23bd 7873 86bd 9422 4f3c
00000220: eeb6 64bc 223e 143e 0c34 ce3c b00c 973d
00000230: c72c 82bd a718 c13d 0317 803d 42c1 873d
00000240: 342a 6cbc 98b8 933c 07d0 3fbb ab79 f3bc
00000250: e527 45bd 5cf7 cdbd 720d bdbd 6d5c 45bd
00000260: a06a f23d c96c 033e 908c 733d d646 53bd
00000270: 4c0f 8bbd 0025 f73c f624 ca3c cdd3 fdbc
00000280: 2c8d 603c 223d 5fbd 88aa 0b3c 0532 b1bd
00000290: 1e5f 2a3c e457 8dbd 36bf 94bc 0f81 d03d
000002a0: f10c b9bd bfa4 ab3d fd7a b23d 10e1 a4bd
000002b0: 1619 43bc d28e d23d 9da6 9a3d 71a8 803d
000002c0: 7503 81bd dff3 bebc c98c bc3c 5920 c53d
000002d0: dbe1 a7bb 4719 abbd b357 2bbc 9ea8 4bbd
000002e0: e521 a3bd 3640 7ebd 0d43 a2bd 9508 17bb
000002f0: 799c 45bd c20b 8ebd acf4 b13d b98f 943d
00000300: 4880 15bd e234 00bd 5903 fdbb f274 2ebd
00000310: 18a0 da3d a460 b73d ec20 883d 31ce 383c
00000320: e24d d03d 3a1c 1b3e 51bb ea3d eff4 19be
00000330: a273 35bd ad75 06be 204f bdbd 8246 053e
00000340: a6f3 b63c 7136 11bd c7bd 7ebd 3ac3 013e
00000350: 7f5c b7bd 7c35 093d 2d4d c83d 3097 a53d
00000360: a998 f63c f557 96bd 7bbe e3bc 778f a7bc
00000370: ea5d 3b3d ff48 313a cb7d aebd 1a24 68bd
00000380: 4a12 b9bc c551 743c 9fcc d43d c620 0dbd
00000390: 1000 993d e1ca 333e db9d e73c 9a1b 62bd
000003a0: 2471 6d3d ecde 05bd 07a4 d7bd 256e 613d
000003b0: edb0 37bd 8161 c23d b696 c13c 0b3b 903c
000003c0: 465d e8bd 3fd0 e8bb adf1 0a3e a5a0 cdbd
000003d0: 99c0 26bd fc0d ab3c ebad 52bd a062 8c3d
000003e0: 9dbb 0e3e f200 c73d 0157 90bc 4aed f23d
000003f0: cec9 91bc e7ad 24be 7ae9 febc b355 82bd

fc.4.bias f4 [33]
0.12247555 0.11651094 -0.15423197 -0.12569319 -0.020363038 -0.035414364 -0.08662029 0.06652736
0.08865794 0.019197572 -0.10282472 0.08010524 -0.016541798 -0.06420099 0.02764692 -0.024269838
0.020714602 -0.058426984 -0.06291348 -0.13115324 -0.046861507 0.05788697 0.023584602 0.009517275
-0.019983737 0.10949977 -0.10134052 -0.030047048 0.02576083 0.048128318 -0.04582084 0.076609924
0.051523488
00000000: 76d4 fa3d 4a9d ee3d fcee 1dbe b7b5 00be
00000010: 63d0 a6bc a70e 11bd fb65 b1bd 7f3f 883d
00000020: 4b92 b53d 3a44 9d3c c495 d2bd 370e a43d
00000030: aa82 87bc cf7b 83bd cb7b e23c 8ad1 c6bc
00000040: abb1 a93c 2251 6fbd c8d8 80bd 094d 06be
00000050: daf1 3fbd e31a 6d3d 7f34 c13c 58ee 1b3c
00000060: efb4 a3bc 6a41 e03d 9e8b cfbd 3a25 f6bc
00000070: 6008 d33c 3322 453d a2ae 3bbd aae5 9c3d
00000080: 4b0a 533d
