models/policy_m4.pt (torch_old, 99515 bytes, 6 tensors)

fc.0.weight f4 [128, 110]
000000 8f 40 1f bd 80 fb 4e 3b 04 6d 2f be bc 4c 03 be
       -0.038879927 0.003158301 -0.1713143 -0.1282224
000010 84 87 80 3c 05 44 2f 3e b4 aa 77 be be 1a ac be
       0.015689619 0.17115791 -0.24186212 -0.33614153
000020 99 cf 8f be d7 06 a8 3e 7b e8 2a 3d bb 53 33 3d
       -0.28088072 0.32817718 0.041725617 0.043781023
000030 e8 f7 ca bd e2 89 b7 3d f2 46 87 3d f1 36 fa bd
       -0.099105656 0.08961846 0.066053286 -0.122175105
000040 a4 49 66 3d e8 44 df 3d a9 95 54 3d 41 fb a6 3e
       0.056222573 0.10901815 0.05190054 0.32613567
000050 15 16 29 3e 06 7b 00 3e 39 77 1e 3e 99 83 2c 3e
       0.1651233 0.1254693 0.15475167 0.16847076
000060 e5 3b 49 3e 60 0c 70 3c 20 9f 87 3d 30 9d 87 3e
       0.19651754 0.014651388 0.066221476 0.26487112
000070 8a 02 42 3e a8 80 e7 3d 56 b0 9e 3e e1 25 84 3e
       0.18946281 0.11303836 0.3099391 0.2581015
000080 45 54 67 3e f4 3c ab bd 7d a2 57 3e 69 d2 64 3d
       0.2259074 -0.08361235 0.21058078 0.055864725
000090 7f a6 9d bd 37 9f d5 bd 11 d5 49 be 6b 8f 94 3c
       -0.07697772 -0.104307584 -0.19710185 0.018134793
0000a0 14 7f 8d 3d 9c 9c 82 3d 46 1e 61 3d 14 fc 81 3e
       0.06909004 0.06377527 0.05496051 0.25387633
0000b0 b3 24 b2 3d 84 67 a1 bb f3 3c bc bc 2f 0c 67 bc
       0.08698406 -0.00492567 -0.022978282 -0.014102026
0000c0 45 8f 94 bd 57 d5 39 bc 14 f0 67 bd ef 4e 46 3e
       -0.07253889 -0.011342368 -0.05662544 0.19366048
0000d0 93 9f 3e bb 96 9e fa bd ac 8b f5 3d c9 66 f0 bd
       -0.0029086813 -0.12237279 0.11989531 -0.11738355
0000e0 00 f2 33 be de 0a 1b 3e 79 c2 23 3e c0 ed 19 3e
       -0.17572784 0.15140864 0.15992154 0.150321
0000f0 88 a5 84 bd a9 94 21 3e 50 db e9 bd 45 3b af bd
       -0.06476885 0.15779366 -0.11418784 -0.08556227
000100 38 b5 d3 bd 46 ec e3 3d 84 9f 12 bc 99 c0 19 be
       -0.10337299 0.1112905 -0.008949164 -0.15014876
000110 76 5d 6e bd ca 3f 4e 3e b3 88 83 bd 3d 5d 83 3e
       -0.0581946 0.20141521 -0.06422558 0.25657073
000120 ed da 09 be b4 20 56 bd 1e ac d8 3d 87 38 70 3d
       -0.1346242 -0.052277282 0.10579704 0.05864766
000130 36 d4 8d 3d 7c 94 a4 3d 8e 35 a8 3d b2 a7 b2 3d
       0.06925242 0.08036134 0.0821334 0.087233916
000140 19 d7 11 be 4e 98 ef bd 18 bc 63 3e b4 88 e3 3d
       -0.1424221 -0.11698972 0.22239721 0.111100584
000150 e0 30 b0 bc 15 88 09 be c3 dd 52 3c 72 68 68 3e
       -0.02150768 -0.13430817 0.012870255 0.22696093
000160 36 22 d2 3d cd 6b 06 3d 40 b4 82 be 4f e8 1b 3d
       0.102604315 0.03281765 -0.25528145 0.038063344
000170 e0 60 f8 3d 11 0a f0 3d 02 c3 84 3b fa 4e e0 3c
       0.121278524 0.1172067 0.004051567 0.027381409
000180 23 79 67 3e e3 cb 17 3e ff 57 06 3e 4f e2 45 bb
       0.22604804 0.1482387 0.13119505 -0.0030194705
000190 d9 15 d5 3d f5 0a b7 bd ec 06 a4 bd c1 97 cd bd
       0.10404558 -0.08937637 -0.08009133 -0.100387104
0001a0 e5 ee 1f 3c bd e8 c2 bd 01 9b 70 3d f9 c0 c0 3d
       0.009761547 -0.095170476 0.058741573 0.094118066
0001b0 7e 41 c6 3c fc 10 f8 bd 66 9c 8a 3d 2e 22 48 bd
       0.024201151 -0.121126145 0.06768112 -0.04886072
0001c0 81 49 d7 3c 39 b0 6c bd 61 c9 22 be 09 dd 1a be
       0.026280167 -0.057785247 -0.15897132 -0.1512338
0001d0 ef 88 93 be 66 bd 1b be 8d 75 68 3d d1 6a c8 3e
       -0.2881541 -0.15208969 0.05675273 0.39143994
0001e0 8f 91 44 bd 38 4f 29 3e bc c9 3a 3e 0a 7b e2 3b
       -0.047990378 0.16534126 0.18241018 0.00691164
0001f0 e0 e8 10 3e 85 40 f1 bd 4f e8 79 3e 01 36 30 3d
       0.14151335 -0.11779884 0.24405025 0.043020252
000200 97 58 00 3e 60 6c a3 3e bc f3 8e 3d 6b e1 e6 3d
       0.12533794 0.3191862 0.069800824 0.11273464
000210 1e fb d8 3d 50 17 5d bd d8 e4 2a 3e 8e a3 89 be
       0.10594772 -0.05397731 0.1668886 -0.26882595
000220 6c 33 48 3e d3 6e 1a 3e a6 e3 7e bc e1 95 a8 3d
       0.19550866 0.15081339 -0.015557205 0.08231712
000230 d0 dc 6a 3d de 19 78 3e a2 4d 55 3e ae a0 4c bd
       0.05733949 0.24228618 0.20830396 -0.049957924
000240 42 6f 87 3e 87 47 fa 3b b8 fd c8 bd 85 4a 4b be
       0.2645207 0.0076379213 -0.09814018 -0.19852646
000250 bf b5 b9 bd cf be 94 bd f6 99 34 3d 20 47 2a 3e
       -0.090678684 -0.07262956 0.04409214 0.16628695
000260 76 31 16 3e 69 5e 4a 3e ae 34 c7 3d 46 26 03 3e
       0.14667305 0.19762577 0.09726845 0.12807569
000270 79 53 5d bd 43 76 98 bc bc 00 30 be c0 52 a0 3d
       -0.054034684 -0.01861108 -0.1718778 0.07828283
000280 1d e7 f1 bc 51 d6 be 3d dc d4 3d 3a 84 68 e3 bd
       -0.029529149 0.09318221 0.00072414964 -0.11103919
000290 34 3a 37 3e 82 6f 91 bd 0c de dc bc 7d 2e 1d 3e
       0.17893296 -0.071013466 -0.026961349 0.15349765
0002a0 9e af fe 3d 50 0e 36 3e 65 a1 4e be 09 09 06 3d
       0.1243584 0.17778897 -0.20178755 0.03272346
0002b0 e1 69 50 be 44 00 f1 bd 41 52 a2 be 1b fc b3 bd
       -0.2035289 -0.11767629 -0.3170338 -0.0878832
0002c0 62 bc ac bd 2e 10 11 be c9 85 fc 3d 14 dc bd 3d
       -0.08434369 -0.14166328 0.12330205 0.09270492
0002d0 23 10 1f be f4 1f 84 3e 98 a9 2a 3e 7a 9d 02 be
       -0.155335 0.25805628 0.16666257 -0.12755385
0002e0 f3 9b b5 bd 0c d4 90 bd 9c 61 b9 bd 42 9f 80 3d
       -0.088676356 -0.07071695 -0.09051821 0.06280376
0002f0 e3 3a 3c 3e e2 3a 18 be d0 e2 2e be 37 74 72 be
       0.18381839 -0.14866212 -0.1707871 -0.23677145
000300 39 c2 31 3e 3b 57 50 3e 9f 8b 23 be 95 b9 0a be
       0.17359246 0.20345776 -0.1597123 -0.13547356
000310 51 7e 1d 3d 75 4c 1f be 06 c2 df 3d a2 d6 04 3e
       0.038450543 -0.1555651 0.10925679 0.12972501
000320 7b 13 3d be e4 8a bb bc f1 90 15 3e 8a a9 66 be
       -0.18464462 -0.022893377 0.14606072 -0.22525612
000330 d9 bf 48 be a1 9e 9e 3c 77 08 a3 ba f3 65 95 3c
       -0.19604434 0.01936275 -0.0012438436 0.01823709
000340 f8 4f 31 3e 44 42 fc 3d 10 e4 af bd 63 27 02 3e
       0.17315662 0.12317327 -0.08588421 0.12710337
000350 a2 5c 4e bd 76 8b 31 be cd 54 11 3e cf 58 9a 3d
       -0.05038131 -0.17338356 0.14192505 0.0753647
000360 50 91 1b 3e 75 2f 0c 3c 07 b6 c7 bc f1 68 9a bd
       0.15192151 0.0085562365 -0.02437879 -0.07539547
000370 e5 1c 9d bd 0a fd 8d bd 64 93 d7 3d 3b c4 c3 3d
       -0.07671527 -0.06933029 0.105261594 0.09558912
000380 f7 e4 ae 3e 6f 94 41 bd 89 f1 31 be 3c d7 9e be
       0.3415906 -0.047260698 -0.17377295 -0.31023586
000390 37 b1 38 be 6b 32 9a 3d 55 8a 35 bd 1e 73 a3 3d
       -0.18036352 0.07529148 -0.044321377 0.07980941
0003a0 24 bb 85 bd d4 a1 36 3e 48 51 d3 bc 10 f2 54 be
       -0.06529835 0.1783517 -0.025795594 -0.20795465
0003b0 96 e6 28 3d 8f 1e 73 bd 59 82 22 bd fc 1a 54 3e
       0.04123553 -0.059355315 -0.03967509 0.20713419
0003c0 9b 6d ae bc 86 14 e3 bc 30 9d bc 3c 5e 6a a7 3d
       -0.021292498 -0.027719747 0.023024172 0.08174585
0003d0 14 f3 59 3e ac c2 1b 3e b5 3e 2b be e2 77 85 bd
       0.21284133 0.1521098 -0.1672314 -0.065170065
0003e0 b4 93 84 3e b6 9b cf 3e 78 2a a0 3e 5b df 8b 3d
       0.2589394 0.40548486 0.312824 0.06829711
0003f0 aa f4 a2 3e c9 0b d6 bd 73 25 4d 3d 59 e0 07 3d
       0.3182729 -0.104514666 0.050084542 0.03317294

fc.0.bias f4 [128]
000000 79 93 0e be 72 13 89 3d 1d 67 69 be b3 ce 3a be
       -0.13923444 0.06693162 -0.22793241 -0.18242912
000010 70 fb d6 bd b9 62 8a 3d a8 7b cc 3d 4e 61 19 3e
       -0.10497177 0.06757111 0.09984523 0.14978525
000020 31 f2 a2 3d 24 6a cb 3d 70 6f ea bd 1d f2 ff ba
       0.079563506 0.09932354 -0.11447036 -0.0019527111
000030 32 0b c1 bd 97 1c 50 3d f0 0f 04 3e c2 95 1c be
       -0.094259635 0.050808515 0.12896705 -0.15291503
000040 62 24 93 bd 5b b2 37 bd 4e 3a ce bd c2 de 80 3d
       -0.07184674 -0.044847827 -0.100697145 0.06292488
000050 e3 ef 57 3e 6f d3 7a 3e 43 f7 43 be 53 ab 0d 3e
       0.21087603 0.24494718 -0.19137292 0.13834886
000060 f2 89 eb bd 9f 9f 83 be 46 e4 29 be bc 7a 4b 3d
       -0.1150092 -0.2570772 -0.16590986 0.049677595
000070 8c c7 3c 3d 07 9f 17 3e 95 55 64 be 75 51 2b be
       0.04608874 0.14806758 -0.22298272 -0.16730292
000080 6b 29 13 bd 55 88 67 be 95 95 70 bd b5 55 84 ba
       -0.03592817 -0.226106 -0.058736403 -0.0010096343
000090 33 44 37 3d 20 91 28 bf d3 de 22 be ae 18 d9 bc
       0.044742774 -0.65846443 -0.15905313 -0.026501026
0000a0 bc f6 93 bc c6 be 77 3d be d4 1e 3e 1e 77 8a bd
       -0.018061988 0.06048467 0.15510842 -0.06761001
0000b0 6b 40 5c bd 0d ad 4a 3e 62 4f 9f 3d 7a 43 9c 3d
       -0.05377237 0.19792576 0.07778813 0.07630058
0000c0 eb 03 7e 3d e9 89 f2 bd 61 a4 a4 bc 23 1f 6a bd
       0.062015455 -0.118427105 -0.020097913 -0.0571586
0000d0 35 b1 05 3e e9 1b 74 3e 88 5c 0c 3e 4c e4 d6 bc
       0.1305588 0.23838772 0.13707173 -0.026231907
0000e0 e3 ca c0 3c 53 5a 4e be eb a6 0b 3e c5 f3 88 3d
       0.023534244 -0.20151643 0.13637893 0.0668712
0000f0 ab cf 67 3d d2 e6 90 bd 8e 53 f2 bc 33 ae a0 3d
       0.056594532 -0.070752755 -0.029580858 0.07845726
000100 49 92 03 be 6e e1 a0 bd 60 7f f4 3d b6 0d 28 3e
       -0.12848772 -0.07855497 0.11938357 0.1641148
000110 a0 fe e7 bc a4 9b 11 be e0 a9 ae bd c9 56 f0 bd
       -0.028319657 -0.14219528 -0.08528495 -0.11735303
000120 f3 fe ef 3d a5 8f 74 be 5b 4a 00 be 38 5f 13 3d
       0.117185496 -0.23882921 -0.12528364 0.03597948
000130 b0 0e ae bd 16 51 82 3d 86 ef d9 bd 2b f9 a7 3d
       -0.08498895 0.06363122 -0.106413886 0.08201822
000140 39 91 25 be e8 31 3e 3d 75 dc 4b be 5c e9 da 3d
       -0.1616868 0.046434313 -0.19908316 0.10689041
000150 e2 75 1d be 8f 52 70 3c 3e 26 2c 3e 4a 3f 6a be
       -0.15377 0.014668121 0.16811463 -0.22875705
000160 3f 78 ec bd b0 ba 27 bd ec a8 1a be 18 e8 28 3e
       -0.115463726 -0.040949523 -0.15103501 0.16494787
000170 49 fa 26 be 94 55 1a be b1 13 48 3e ac 4d e8 bd
       -0.16306414 -0.15071708 0.19538762 -0.1134294
000180 15 b7 c9 bd 8b d0 f7 bc e6 f0 18 3d e3 70 11 3e
       -0.09849373 -0.030250808 0.037339114 0.14203219
000190 67 d7 3b be a4 b9 13 3d cc f1 c6 bd 67 85 5a 3e
       -0.18343888 0.036065713 -0.09714088 0.21339951
0001a0 ff 58 37 3d 4d 80 00 3e c5 0e 35 be c8 d0 0d 3e
       0.044762608 0.12548943 -0.17681415 0.13849175
0001b0 08 e3 23 be 2b e4 f4 3d 05 dd 7a be 01 3b a8 3d
       -0.16004574 0.11957582 -0.24498375 0.08214379
0001c0 73 a5 4a be 0c eb 59 3b 62 8f 5e 3c 10 73 23 be
       -0.19789676 0.003325167 0.01358399 -0.15961862
0001d0 aa 94 08 3e cb af 09 be 20 ca ac bb ab 25 09 be
       0.13337961 -0.13445966 -0.0052731186 -0.13393275
0001e0 ab e8 74 3e 3e 5f ef bd 87 bf 62 be 2a d7 5b be
       0.23916881 -0.11688088 -0.22143374 -0.21468797
0001f0 12 87 69 3d df 97 0f 3d aa 6a b3 3c f1 a1 98 3d
       0.05701358 0.035056945 0.021901447 0.07452763

fc.2.weight f4 [64, 128]
000000 96 e2 98 3e 26 70 e5 3e 7d a8 16 3d ac 54 59 bd
       0.2986037 0.44812125 0.036781777 -0.053059265
000010 3f fb 30 3d 0d f8 e1 bd a5 f0 21 3e d3 2f ab bc
       0.043208357 -0.1103364 0.15814455 -0.020896828
000020 bc d8 66 3e 27 41 14 be 52 b8 0e be 05 79 08 bf
       0.22543615 -0.14477979 -0.139375 -0.5330966
000030 37 ad c6 3d b4 02 be 3d b9 25 58 3e 9f 68 b4 be
       0.09701007 0.09277859 0.2110814 -0.3523607
000040 4a fa 31 be 68 76 06 bf ab 7d f5 3d 5a 4a 77 3e
       -0.17380634 -0.52524424 0.1198686 0.24149457
000050 e8 a1 03 be d7 5d 47 3d 9b 25 e1 be 84 3f de bc
       -0.12854731 0.048673477 -0.43974003 -0.027129896
000060 1a b2 0d 3e 57 d0 f9 bd fe 0a 02 be 9c 28 7a 3e
       0.13837472 -0.12197941 -0.12699506 0.24429554
000070 86 41 7d be 6e 39 88 3e b0 90 ae be 02 dc 0f 3e
       -0.24732026 0.26606315 -0.34094763 0.1404877
000080 b9 8f a1 bd 35 32 e3 3c 5a 24 14 be 2a b9 39 3d
       -0.07888741 0.027733902 -0.14466992 0.0453426
000090 fe 2f f6 3c 03 70 d0 ba 43 0c ec be 60 6f bb be
       0.030052181 -0.0015902523 -0.46103105 -0.3660841
0000a0 a5 ab 4a 3e 29 0a a4 3e 42 a2 41 3e 60 9e 37 3d
       0.1979204 0.32039002 0.18909553 0.044828773
0000b0 3b a3 73 be 97 13 0c be 3e 11 1b be 83 4d 4c bd
       -0.23792736 -0.13679348 -0.15143296 -0.04987861
0000c0 8d 3e fb be 8d 77 06 3d f2 98 69 3e 5f 18 a0 3d
       -0.4907116 0.032828856 0.2281225 0.078171484
0000d0 36 72 07 be c0 5a 26 3e c5 cc cb bb 6a b0 26 bd
       -0.13227162 0.16245556 -0.006219479 -0.040695585
0000e0 06 e8 c4 3e 30 f8 b9 3e fe 6e 1c 3e 60 d6 c7 3d
       0.3845827 0.36322165 0.15276715 0.09757686
0000f0 18 57 b4 3e e3 e6 12 be f9 e6 c4 3e ce f4 ba be
       0.35222697 -0.14345889 0.38457468 -0.36514896
000100 ec d3 a2 3d 34 8d 6e 3d 06 4f 12 be 50 4d bc 3e
       0.07950577 0.05824013 -0.14287958 0.36777735
000110 9e ff 54 3f 04 fe 09 3e b3 53 0b 3e 13 91 fe be
       0.8320254 0.13475806 0.13606147 -0.49720058
000120 91 d1 e0 bd 20 29 7a be ba d7 7e bc 6a d8 54 bc
       -0.109774716 -0.2442975 -0.015554363 -0.01299105
000130 c2 ac 0c be e9 75 63 bd 4f 8c 76 be 48 b9 d7 bd
       -0.13737777 -0.05553237 -0.24076961 -0.105333865
000140 21 bd 90 bd 6b 39 d2 3d 31 24 3b 3e 32 78 ff 3e
       -0.070673235 0.10264858 0.18275525 0.4989639
000150 8c 92 17 3e b8 43 00 be 4a c8 d1 3e 6e 66 d1 bd
       0.14801997 -0.12525833 0.4097312 -0.10224615
000160 95 29 da be ab 3e 0d bf b8 2f 2a be 9a 62 f4 3d
       -0.4260985 -0.5517375 -0.16619766 0.11932869
000170 32 d0 04 3e 0e 12 06 3e e4 87 1c bf 2d c5 89 bd
       0.12970045 0.13092825 -0.6114485 -0.067270614
000180 50 e5 5d 3e e4 e0 87 bd 74 b3 6f 3e 81 6c 99 3e
       0.21669507 -0.06634691 0.234083 0.29965594
000190 cc 46 d6 be ad 9e e1 bd fc 25 be be 36 62 ea 3d
       -0.4185089 -0.11016593 -0.37138355 0.114445135
0001a0 a4 57 18 3e 5c ec 50 be 09 cf 25 bd 09 9e ea 3e
       0.14877182 -0.20402664 -0.040480647 0.45823696
0001b0 47 06 f5 bb a0 04 0a 3c c4 c2 6a 3b df 92 01 bc
       -0.007477555 0.008423954 0.0035821656 -0.007908552
0001c0 6b 8e 0c 3e 8c 3c 8d be a7 5c 50 3e 4e c3 8a 3e
       0.13726203 -0.27585256 0.20347844 0.2710213
0001d0 a8 f4 c0 bc cb 9a fb ba 84 33 8e 3e e5 e8 7c 3e
       -0.023554161 -0.0019195912 0.27773678 0.24698217
0001e0 36 da 0c 3e 54 b4 0d 3e a7 80 4c 3a aa 0c 91 bd
       0.13755116 0.13838321 0.0007801153 -0.070824936
0001f0 d7 bd c0 bc b3 e5 28 3e 7c 1c d0 bc 83 e8 59 be
       -0.023528023 0.16493873 -0.025404207 -0.21280102
000200 de 32 3b bf 7a 5f 47 be 72 65 4f be 36 48 1a 3d
       -0.7312449 -0.19470015 -0.20253542 0.037666522
000210 25 68 44 bd f1 a2 91 3e 39 5a 47 3e 5d 67 3f bd
       -0.047950882 0.28444627 0.19468011 -0.046729434
000220 6f 73 c6 be 9e 25 84 3e aa c6 09 bf a3 5a 1d 3e
       -0.38759944 0.2580995 -0.5381876 0.15366606
000230 3d c6 7b be 32 bc 18 be 15 75 24 3e 95 e6 8b bd
       -0.2458734 -0.14915541 0.16060288 -0.068310894
000240 8b 5b a0 3e 41 9e 6e 3f b2 2a c2 bd 50 e6 21 be
       0.31319842 0.93210226 -0.094808 -0.15810513
000250 82 55 a5 3e 28 ae bd 3e 3d 17 be 3d f2 ad 99 bd
       0.322918 0.37046933 0.09281776 -0.075038806
000260 2a 9c b2 bd 63 a8 b7 bd cf 4c 66 bd 19 1a bc 3e
       -0.08721192 -0.08967664 -0.056225594 0.3673866
000270 41 62 1c bf ab 2b 0d 3f 11 ba f1 be 98 84 8d 3c
       -0.61087424 0.5514476 -0.4721227 0.01727514
000280 ec 1d 19 3f 55 7c 40 3e de 0f 81 3e 49 7f 71 bd
       0.5981128 0.18797429 0.25207418 -0.05895928
000290 99 ab 06 bd df eb b6 bd 47 77 a0 3e 71 74 96 bc
       -0.032878492 -0.089317076 0.31341 -0.01836607
0002a0 d0 50 a6 bd 15 37 5c be c9 85 cc be 6e 24 89 bc
       -0.081208825 -0.21505387 -0.3994582 -0.016741004
0002b0 33 3d e6 bb ab 39 28 3f 5c 09 33 3d 8d f4 3a 3e
       -0.0070263385 0.65712994 0.043710098 0.18257351
0002c0 ed 64 47 3e 34 81 69 be 27 40 d9 be b0 7f 81 bf
       0.19472094 -0.22803193 -0.42431757 -1.0117092
0002d0 b3 fe 90 be 82 a2 9c be b8 49 60 3e fe 17 82 3e
       -0.2831932 -0.30592734 0.21903121 0.2540893
0002e0 1e 8b 8d be a4 1b 80 be 32 03 f8 3e 0d 2e b3 3e
       -0.276452 -0.25021088 0.48439938 0.3499607
0002f0 f5 1c 87 3d 38 c5 94 be f2 a5 15 bf 01 8e be 3e
       0.0659732 -0.29056716 -0.5845634 0.37217715
000300 66 b7 28 bf a2 8c 61 be e4 56 8e 3d b5 6e 21 3d
       -0.65904844 -0.22026303 0.06950167 0.03941222
000310 e2 ee e0 bd fc d6 55 3d fc d9 bf bd c8 0c 9f be
       -0.10983063 0.05220698 -0.09367749 -0.3106444
000320 57 1f 43 3e 2c 9c 18 be 69 24 cb be fd 4f 05 be
       0.19054924 -0.14903325 -0.39676216 -0.13018794
000330 89 64 b1 bb b6 b5 3d be 5a 1a c5 bd f7 3c 63 3f
       -0.005413596 -0.18526348 -0.09624167 0.887649
000340 56 df 08 3e d6 76 9b 3d c4 e3 9c 3c 49 d6 4c 3d
       0.13366446 0.075910255 0.019151576 0.050009046
000350 12 90 1a bf 2e 63 98 bc f1 10 63 3e bf 32 ce bd
       -0.60376084 -0.01860198 0.22174431 -0.10068273
000360 cd bf 85 be 40 4b cd 3e 05 ee 0b be ca 67 41 be
       -0.26122895 0.40096474 -0.13665016 -0.18887249
000370 24 93 6d be ff 86 b1 be 9b bc 4d 3f 89 0e ca be
       -0.23200661 -0.34673306 0.80365914 -0.39464214
000380 11 8f 0e bf 88 61 86 3c 04 44 9a 3e 85 2b 92 bd
       -0.5568705 0.016403928 0.30130017 -0.07137207
000390 1b b9 0c 3d f7 2d 1c be 3d 24 3e 3e d4 26 94 b9
       0.034356218 -0.15251909 0.18568511 -0.0002825769
0003a0 b6 79 36 3c 4e 23 49 3e 08 34 66 be 6f f5 12 bf
       0.011137417 0.19642374 -0.22480786 -0.5740575
0003b0 d6 10 4b bd a0 b2 db 3d ca ba 10 be 9d 10 3a 3e
       -0.049576603 0.107274294 -0.14133754 0.181704
0003c0 12 5a 3d be c0 c1 51 3e 0a 54 60 be bf a7 33 bf
       -0.1849139 0.20484066 -0.21907058 -0.70177835
0003d0 e2 e3 a1 be 80 77 be ba 9e 67 b2 3e 92 a6 f5 bd
       -0.31619173 -0.0014531463 0.3484468 -0.119946614
0003e0 35 53 85 3e f7 6b 4a be e3 a1 01 be 22 f7 81 3e
       0.26040044 -0.19767748 -0.12659411 0.2538386
0003f0 54 d0 08 3d 71 bd f8 3c 60 00 e3 3e 80 86 3a bb
       0.033401802 0.03036377 0.44336224 -0.0028461516

fc.2.bias f4 [64]
000000 ee 87 49 bc 48 bd 2c 3e fe 66 42 bd 62 d0 7e 3d
       -0.012300475 0.1686908 -0.047461502 0.062210448
000010 ee 43 74 bb 12 a2 9c 3e d2 21 49 3e 52 8e 91 bd
       -0.0037271935 0.305924 0.19641808 -0.071072236
000020 f3 32 15 be 34 92 21 3e 27 d8 4d 3d 51 f7 16 3e
       -0.14570217 0.15778428 0.050254967 0.14742781
000030 5e 43 d8 3d ee be 03 3e 0e e3 77 be 69 75 ca bd
       0.10559724 0.12865803 -0.24207708 -0.098856755
000040 36 2c 65 3b f4 e1 8d 3e 69 e7 9b bd 18 07 e5 3d
       0.0034968979 0.2771145 -0.07612497 0.11182994
000050 60 22 f0 3e 1d dc ba bd b2 3c 8f 3c 1b 92 f3 bc
       0.46901226 -0.091240145 0.017484996 -0.029732754
000060 f6 19 24 be fe e6 37 be bf 29 a0 be 7c 63 46 be
       -0.16025528 -0.1795921 -0.3128185 -0.19373888
000070 61 9d d3 bd a8 37 87 bd fd d3 d0 bb ce 56 91 3d
       -0.10332752 -0.066024125 -0.006372927 0.07096635
000080 96 af 2c 3e 19 3b 02 be b0 ef 89 3e 66 51 67 3c
       0.16863856 -0.12717856 0.2694068 0.014118528
000090 54 62 da bd f5 52 60 be a2 fd 94 3d 03 ff a1 bd
       -0.10663286 -0.21906646 0.07274939 -0.07909968
0000a0 89 a7 56 be 02 b1 e9 bd f1 39 8e bc ae 44 6a 3d
       -0.20962347 -0.11410715 -0.017361613 0.057194404
0000b0 f8 07 b7 bd 51 9e 17 3c 23 66 13 bd 93 7c a4 3d
       -0.08937067 0.009254054 -0.035986077 0.08031573
0000c0 ec 0e 0c be 1d bf 0f be db ae 32 bd d0 3e f6 3c
       -0.13677567 -0.14037748 -0.043623786 0.030059248
0000d0 21 7b 1a 3d 33 d2 32 be 9e 7d 6e be 00 83 91 3d
       0.03771508 -0.17462997 -0.23290107 0.071050644
0000e0 c1 78 1a be 37 f5 20 3e 05 04 6a be 01 17 ab bd
       -0.15085126 0.15718542 -0.22853096 -0.08353997
0000f0 fb de a2 bd 90 27 1d be 8a c7 90 3e ca 71 82 be
       -0.079526864 -0.15347123 0.28277236 -0.2547744

fc.4.weight f4 [33, 64]
000000 5a 75 f6 bd 28 15 de 3c d4 c6 8b bd 9c 0e 53 bd
       -0.12034102 0.027109697 -0.06825033 -0.051527604
000010 80 81 26 3c 6a ee d7 3d a8 61 11 bd 96 c0 e9 bd
       0.010162711 0.10543521 -0.035493523 -0.11413686
000020 38 c4 47 bd fc 89 0a bd d8 06 e3 3c c8 d3 82 3c
       -0.048771113 -0.033823 0.027713224 0.015970126
000030 84 53 dd bd 7c 77 06 bd 44 f1 2b bd 62 fc de 3d
       -0.10806945 -0.032828793 -0.041978136 0.10887982
000040 60 04 b9 bd 52 0c 9e 3d 98 18 4f bd ee 72 ba 3d
       -0.090340376 0.07717194 -0.050560564 0.09103952
000050 84 a9 17 bd 00 bb 3c 3a ec fd dd 3d 38 b9 80 3d
       -0.037026897 0.0007199496 0.108394474 0.06285328
000060 a0 0b 99 bd ba 38 9e bd a2 b8 98 3d ca 12 99 3d
       -0.074729204 -0.077256635 0.07457091 0.07474287
000070 d0 2f 27 3c 00 f2 b7 ba d4 da 45 3d 20 9f e0 bc
       0.0102042705 -0.0014033914 0.048304394 -0.027419627
000080 e8 99 57 3d bc 93 71 3d ee b0 bf 3d 20 c1 c9 3d
       0.05263701 0.05897878 0.093599185 0.09851289
000090 f2 2b b3 3d f2 5e f6 3d a0 3d a2 bb 40 c6 f6 3c
       0.08748616 0.12029828 -0.004951194 0.03012383
0000a0 bc ac 4a bd 40 02 f5 bb 80 4a 6e bc ec 3c e4 3d
       -0.04948114 -0.007477075 -0.014544129 0.111444324
0000b0 a0 a9 d3 3c 10 69 a2 3d 40 7f 24 3d 50 ae 5e bd
       0.02583772 0.07930195 0.040160418 -0.054365456
0000c0 28 b4 f7 bd a2 03 b6 bd dc 1c 91 3d 20 9e dd 3b
       -0.12094909 -0.08887412 0.070855826 0.0067632347
0000d0 ec 6b 1d 3d 48 51 96 bd 6a 8b 9e 3d e0 5f b1 3c
       0.038433 -0.07339722 0.07741435 0.021652162
0000e0 b2 f7 b5 3d 3a d4 b0 3d a2 48 82 bd 78 30 38 3d
       0.08885135 0.08634229 -0.0636151 0.0449681
0000f0 26 b4 bb bd ae 44 fd bd e0 b1 6c bc 42 a8 fe bd
       -0.0916522 -0.12366615 -0.014446706 -0.124344364
000100 e0 0b 35 3d b2 45 f6 3d 5a cf 9c bd 74 1b b4 3d
       0.044200778 0.12025012 -0.07656737 0.08794299
000110 68 72 12 3d 10 b1 58 3c cc 31 60 3d b6 b7 f1 3d
       0.035753638 0.013225809 0.05473499 0.11802618
000120 e2 e7 cd bd 08 00 0c 3d be 52 c3 bd 5e 30 bf 3d
       -0.10053994 0.034179717 -0.09537266 0.09335397
000130 f8 ab 0b bd be fc a1 3d 98 06 84 bc 68 12 b8 3c
       -0.03409955 0.07909535 -0.016116425 0.022469714
000140 b4 db 24 bd f0 f3 50 3c c4 50 1a bd 78 bf a2 3c
       -0.040248588 0.012753472 -0.03767468 0.01986669
000150 38 ef 53 3d 48 97 8b bd c8 db c9 bd d0 5a 63 bd
       0.05174181 -0.06815964 -0.09856373 -0.055506527
000160 82 ba dc bd 9e 88 dd bd 66 61 f0 3d 42 b4 8b bd
       -0.10777761 -0.10817073 0.11737327 -0.06821491
000170 c0 15 9d bd fe 7c f7 bd 5c 9c fe bd 8c 74 15 bd
       -0.07670164 -0.12084387 -0.12432167 -0.0364881
000180 14 59 88 3d b0 df ad 3c 2e a6 df 3d 24 43 50 bd
       0.06657615 0.021224827 0.10920368 -0.05084528
000190 30 90 db 3d 30 87 0f 3c e0 86 98 3d 90 82 bf 3c
       0.10720861 0.008760259 0.074476 0.023377687
0001a0 28 d2 95 bc 40 61 51 3d 84 3e 80 3d 24 ef ba bd
       -0.018288687 0.051118135 0.06261924 -0.09127644
0001b0 40 f6 91 3b d6 1a ea bd 44 c4 a8 3d 80 ea 82 3a
       0.004454404 -0.114309 0.0824056 0.0009988099
0001c0 00 c1 03 3c d8 17 8b bd f4 5f 51 bd ec 08 ba 3d
       0.00804162 -0.06791657 -0.0511169 0.09083733
0001d0 5c c0 aa 3d ea 20 91 3d c2 be ba 3d 2c 00 f2 bd
       0.08337471 0.07086356 0.091184154 -0.11816439
0001e0 64 af 2e bd 0c d6 2b 3d 4c c0 21 3d 54 81 32 bd
       -0.042647734 0.041952178 0.03949003 -0.04358037
0001f0 38 5c b8 3c 30 ba f0 bd 46 41 a4 bd cc 0a d3 bd
       0.02250491 -0.117542624 -0.080202624 -0.10304794
000200 e0 00 17 3d 3c c5 3e bd 80 2c c2 3a 7e 71 fe bd
       0.03686607 -0.046574816 0.0014814287 -0.12423991
000210 b0 9f cb bc 00 2f 57 bb 18 3d fb bc 88 ff 81 bc
       -0.024856418 -0.003283441 -0.03066878 -0.015868917
000220 fc e4 5a bd b4 c8 e1 3d 50 03 71 3c 96 30 bf 3d
       -0.053441033 0.11024609 0.014710262 0.09335439
000230 d0 0d 48 bd cc 22 f8 3d 00 87 05 3d ec 67 0a 3d
       -0.048841298 0.12116012 0.03259945 0.033790514
000240 30 a8 05 bd 00 9b 5d 3d 18 1a 0b 3d 10 fc 8c bc
       -0.0326311 0.054102898 0.03396043 -0.017210037
000250 e0 5f 8a bc ee 8a ea bd 14 ed c5 bd 84 23 61 bd
       -0.01689142 -0.1145228 -0.0966436 -0.05496551
000260 d0 d4 a5 3d 4a 56 ba 3d 6c 68 24 3d 68 09 9d bd
       0.080972314 0.090984896 0.040138647 -0.0766781
000270 9c a7 a1 bd 00 0a e8 b9 38 08 4e 3d d0 c0 5c bd
       -0.07893297 -0.0004425794 0.050300807 -0.053894818
000280 58 d3 41 3d 44 a0 b3 bd f4 e1 21 3d c0 d3 96 bd
       0.047320694 -0.087708026 0.039522126 -0.07364607
000290 a0 86 af bc 3a 9c cc bd 50 43 1b 3c ba c5 e0 3d
       -0.021426499 -0.09990735 0.009476498 0.10975213
0002a0 9e 81 fd bd 28 1b 66 3d a4 05 e9 3d 48 4b 32 bd
       -0.12378238 0.056178242 0.11378029 -0.043528825
0002b0 c8 78 31 bd 1e 5f fa 3d 3e 6a e2 3d d0 c6 db 3c
       -0.043328077 0.122251734 0.1105542 0.0268282
0002c0 3c 89 51 bd 20 8c 07 3c 18 63 85 bc 2e 90 96 3d
       -0.051156268 0.0082731545 -0.016282603 0.07351719
0002d0 fc 90 1f bd 36 b4 e8 bd 80 1e 2f bd 98 cc 28 bd
       -0.038956627 -0.113624975 -0.042753696 -0.04121074
0002e0 10 ac cf bd d0 b2 f2 bc 7e c3 dd bd 1c 61 00 bd
       -0.1014024 -0.02962628 -0.10828303 -0.03134261
0002f0 92 1e a3 bd cc bb 0f bd c4 10 e5 3d fc 9b 33 3d
       -0.07964815 -0.035091206 0.111848384 0.04384993
000300 2a 41 82 bd c0 cc ab 3c c0 6e 9a 3b 90 5b 53 bc
       -0.06360085 0.020971656 0.0047129095 -0.012900248
000310 5a ca 80 3d da c3 cf 3d e2 3a b9 3d 28 ac c8 bc
       0.062885955 0.101447776 0.09044434 -0.024496153
000320 4e 46 84 3d ac 71 fa 3d 32 5d 93 3d ca b9 e2 bd
       0.06458722 0.122287124 0.0719551 -0.11070593
000330 40 9f c7 bb d4 f9 cc bd 74 b5 f9 bd c6 8f cc 3d
       -0.006091982 -0.100085884 -0.121928126 0.0998836
000340 58 02 09 bd a0 bf 99 bb 20 33 f9 bc 7e 5f ca 3d
       -0.0334495 -0.004692033 -0.030419886 0.09881495
000350 b0 60 77 bd 40 4a 90 3b 10 66 61 3d 12 28 86 3d
       -0.060394943 0.0044033825 0.055028975 0.065506116
000360 c0 40 6d 3b 6c 4a d8 bd c0 78 f1 bc 28 d3 84 bc
       0.0036201924 -0.1056107 -0.029476523 -0.016213968
000370 fc 26 40 3d e0 2c a4 bb 4c d2 d0 bd d2 72 9a bd
       0.04691218 -0.0050102323 -0.10196361 -0.075414315
000380 00 7c 57 3b f0 0e 21 bc 4c ae eb 3d 50 cb f7 bc
       0.0032880306 -0.0098302215 0.11507854 -0.030248314
000390 c4 6d 6f 3d b0 ae fd 3d 20 bc 71 3d 50 82 8d bd
       0.05845429 0.123868346 0.0590173 -0.06909621
0003a0 c4 dc 0e 3d 0c df 42 bd 48 8f 9d bd bc 44 a0 3d
       0.034878507 -0.047575995 -0.07693344 0.0782561
0003b0 5e b2 81 bd a0 bc c2 3d 70 67 54 3d 30 02 27 bc
       -0.06332849 0.095086336 0.05185646 -0.010193393
0003c0 0c 2f b8 bd e0 ae 5c 3c 22 07 e7 3d 88 95 fe bd
       -0.089933485 0.013469428 0.11280657 -0.124308646
0003d0 a4 5b 93 bd 00 42 df b9 70 aa 8c bd fc 0e a4 3d
       -0.071952134 -0.00042583048 -0.06868446 0.080106705
0003e0 80 ec ee 3d a4 68 ee 3d 14 52 1f bd 18 25 8f 3d
       0.116662025 0.11641052 -0.038896635 0.06989497
0003f0 00 3e e9 bc 7a 33 f2 bd 00 e8 32 bc 1e 47 85 bd
       -0.028471947 -0.118262246 -0.010919571 -0.06507705

fc.4.bias f4 [33]
000000 d6 6e da 3d 88 60 d2 3d d2 97 f4 bd b0 24 ca bd
       0.106656715 0.10272318 -0.1194302 -0.09870279
000010 6c 05 22 bd a2 0e 82 bd 66 37 89 bd c0 7d 5e 3d
       -0.039555952 -0.06350447 -0.067000195 0.054319143
000020 35 aa bc 3e 97 6a 2f 3f ef 24 0c bf 3c 05 ea be
       0.36848608 0.6852202 -0.54743856 -0.4570712
000030 fc aa 2c 3d 50 39 2a 3e 2c 4d ee bd 1b 05 96 be
       0.04215525 0.16623425 -0.11635813 -0.2930077
000040 f7 b2 2c bd 77 e0 92 3e a4 75 6f be 73 c5 8b be
       -0.04216286 0.28686878 -0.2338472 -0.2729908
000050 34 d4 df bd d1 18 05 3e fe f6 80 bc 24 36 4f be
       -0.109291464 0.12997748 -0.015742775 -0.20235497
000060 f7 31 61 be 30 b7 8b 3e 3c e3 ff bb f5 c4 dc bc
       -0.21991716 0.27288198 -0.007809071 -0.026949385
000070 83 d6 37 be 77 2a ac 3c 47 7b ab 3e ec 15 ad 3e
       -0.17952923 0.021016343 0.3349249 0.33805788
000080 9f b5 c5 bd
       -0.09653782
