models/policy.pt (torch_old, 99515 bytes, 6 tensors)

fc.0.weight f4 [128, 110]
0	0xbc763353	-0.015026885
1	0xbd364c0e	-0.044506125
2	0xbe1b9f38	-0.15197456
3	0x3cf7539e	0.030191239
4	0xbdb7c537	-0.089731626
5	0x3d287b08	0.041132957
6	0xbdbf9a7f	-0.0935564
7	0xbdd2c79f	-0.10291981
8	0xbdbbcc89	-0.09169871
9	0x3d953b33	0.07286682
10	0x3ac7860c	0.0015222444
11	0x3d7806d8	0.0605534
12	0xbda2e065	-0.07952956
13	0xbd4fdb22	-0.05074609
14	0xbc8d2b71	-0.017232629
15	0x3c7000c7	0.014648623
16	0xbe035314	-0.1282466
17	0x3df2826d	0.11841283
18	0x3c628ab9	0.013827019
19	0x3d741e4b	0.059599202
20	0x3dbec8c4	0.09315637
21	0x3cbe36b0	0.023219436
22	0x3d180ab4	0.037119582
23	0x3e150dba	0.14556018
24	0xbd6c5650	-0.0576995
25	0x3d6dd1f7	0.058061566
26	0xbcac1e01	-0.0210104
27	0x3dd2efb2	0.102996245
28	0x3df8eb5e	0.12154268
29	0xbd832067	-0.06402665
30	0x3de77a96	0.11302678
31	0x3dcf3da4	0.10119179
32	0x3dc90d00	0.09816933
33	0x3dc04ed0	0.09390032
34	0x3de967c9	0.113967486
35	0x3d4a4faa	0.04939238
36	0xbd20609b	-0.03915463
37	0xba239a14	-0.0006240916
38	0xbd11db88	-0.035609752
39	0x3d2bce28	0.041944653
40	0xbc55f593	-0.013059038
41	0xbd9a45ec	-0.07532868
42	0x3be81a31	0.0070832004
43	0x3dea61ac	0.11444411
44	0xbc0e6c77	-0.008692852
45	0x3d25e33b	0.040499907
46	0xbcbb4d37	-0.022863967
47	0x3c22137b	0.00989234
48	0x3da3d397	0.07999342
49	0x3dca186e	0.09867941
50	0x3d450d26	0.048108242
51	0x3d2c0c71	0.042004053
52	0x3c7807a4	0.01513854
53	0x3d0eb022	0.034835942
54	0x3c73268d	0.014840734
55	0xbd741feb	-0.05960075
56	0xbd9d5097	-0.07681387
57	0x3dcf8931	0.10133589
58	0xbc2e8a10	-0.010653034
59	0xbd227e8f	-0.039671477
60	0x3d9af2d1	0.07565845
61	0x3dd33fae	0.1031488
62	0xbd7507a7	-0.05982175
63	0xbd901806	-0.07035832
64	0xbc9ed951	-0.019390734
65	0x3d222885	0.039589424
66	0x3d000626	0.031255864
67	0x3d4326f6	0.047644578
68	0xbd06f371	-0.032947008
69	0x3d479a6f	0.048731264
70	0x3e2ca0cf	0.16858219
71	0x3e102778	0.14077556
72	0xbce3986f	-0.027782647
73	0xbc3ae7ce	-0.011407806
74	0x3d71fd85	0.059079666
75	0x3d62c708	0.055365592
76	0x3d21a66d	0.039465357
77	0xbdb038b1	-0.08604563
78	0xbd1e28a1	-0.038612965
79	0x3dc92a1a	0.09822483
80	0x3d66b4a4	0.056324616
81	0x3bd278dd	0.0064230994
82	0x3cb0407c	0.021515124
83	0xbc71cef8	-0.014758818
84	0xbce84665	-0.02835388
85	0xbd8d77ca	-0.069076136
86	0xbdb1b8b9	-0.08677811
87	0x3d5d1cd1	0.05398256
88	0x3c44a587	0.012002355
89	0x3d1710e6	0.03688135
90	0xbd20df3f	-0.039275404
91	0x3da4dbb7	0.0804972
92	0x3d26b224	0.040697232
93	0x3d91aa68	0.071125805
94	0xbd65ec19	-0.056133363
95	0x3d88d9bf	0.06682157
96	0x3db429ce	0.08797036
97	0x3d9853cf	0.0743786
98	0x3dd1397a	0.10216041
99	0xbb2ae087	-0.002607377
100	0x3d97743f	0.07395219
101	0xbd582fe6	-0.052780055
102	0x3ceb584e	0.02872863
103	0x3cac67ac	0.021045528
104	0x3c88284b	0.016620776
105	0x3ca91b34	0.020642854
106	0x39c7d988	0.0003811831
107	0x3d99efc3	0.07516434
108	0x3cff9ede	0.031203683
109	0x3cf5ab5b	0.029988935
110	0x3e3d472a	0.18484178
111	0x3c26adb0	0.010173246
112	0x3e38f776	0.18063149
113	0x3c713029	0.014720955
114	0xbc68a2b1	-0.014198945
115	0x3d0a7eba	0.033812262
116	0xbdb0a6cb	-0.08625563
117	0x3ae66940	0.0017578974
118	0x3d974579	0.07386298
119	0x3d5ff5a3	0.054677617
120	0xbd4439c9	-0.04790667
121	0x3d908f57	0.0705859
122	0x3dcb88a7	0.09938174
123	0xbc950225	-0.0181895
124	0x3d9232dc	0.07138607
125	0xbca1c18b	-0.019745609
126	0x3de6d7a0	0.11271596
127	0x3d439590	0.047750056
128	0x3d25ab18	0.04044637
129	0x3df3b439	0.11899609
130	0xbd8b1842	-0.06791736
131	0xbaa727a8	-0.0012752907
132	0x3cae456c	0.021273337
133	0xbdb7d252	-0.08975662
134	0xbc35104b	-0.011051248
135	0xbd2280ab	-0.03967349
136	0x3d859625	0.065227784
137	0x3d608af3	0.054820012
138	0x3d3b18ae	0.045677833
139	0x3d0671d4	0.0328234
140	0x3db8fd13	0.09032645
141	0xbc3927bd	-0.011300978
142	0x3d50b35e	0.050952308
143	0x3de8163a	0.113323644
144	0xbc66c4a3	-0.014084968
145	0xbd1caa22	-0.03824819
146	0xbdc9ee2b	-0.0985988
147	0xbcad8a2b	-0.021184048
148	0xbde098ea	-0.10966666
149	0xbdd9b25c	-0.106297225
150	0xbdbc3db0	-0.091914535
151	0xbd781af8	-0.060572594
152	0x3ce1d9b7	0.027569635
153	0x3dd3b100	0.103364944
154	0xb9a2c452	-0.00031045318
155	0x3b0713d1	0.0020611177
156	0xbdaac38a	-0.08338077
157	0xba22b94d	-0.00062074215
158	0xbd814a16	-0.06312959
159	0x3c87a761	0.016559305
160	0xbb240e71	-0.0025033022
161	0x3d9ddf1f	0.077085726
162	0xbd915d9b	-0.07097932
163	0x3d68c734	0.0568306
164	0x3c4b7407	0.0124178
165	0x3bcdbde5	0.0062787407
166	0xbcf1ffd9	-0.029540943
167	0x3d8a2152	0.067446366
168	0xbc01b5e0	-0.007916898
169	0xbd1101d3	-0.03540213
170	0xbd693666	-0.056936644
171	0xbdfca7e7	-0.12336712
172	0x3ba97f90	0.0051726773
173	0xbba13d22	-0.0049206177
174	0xbdcca8b2	-0.099931136
175	0xbdd05f73	-0.101744555
176	0xbdfbb07b	-0.1228952
177	0xbdbc49ed	-0.09193788
178	0x3b13cbf5	0.0022551988
179	0x3be81e48	0.007083688
180	0xbddf4b2f	-0.10903012
181	0xbcbc95fa	-0.023020733
182	0x3d9c9d64	0.076472074
183	0xbdb3a19d	-0.0877106
184	0xbdbe87ae	-0.093032226
185	0xbab8e1fc	-0.0014105435
186	0xbdb81a24	-0.08989361
187	0x3de78ee0	0.11306548
188	0x3dbc71e4	0.092014104
189	0xbdcbb165	-0.09945945
190	0xbd8cfca8	-0.06884128
191	0xbe0ad332	-0.13557127
192	0x3d46eb2d	0.048564125
193	0x3de362b0	0.111028075
194	0xbd8d3968	-0.06895715
195	0xbdbd1731	-0.09232939
196	0x3c91b088	0.017784372
197	0xbd79ee2a	-0.061018147
198	0x3dd43401	0.103614815
199	0x3d2437b3	0.04009218
200	0xbd4cd072	-0.050003476
201	0x3d06aae7	0.03287783
202	0x3c95fc06	0.01830865
203	0xbdbee977	-0.09321874
204	0xbdab5aa2	-0.08366896
205	0x3bca32c9	0.006170605
206	0xbbaa3ed4	-0.005195478
207	0x3a5a3f58	0.0008325479
208	0x3bdb0230	0.0066836104
209	0x3ce53d83	0.027983433
210	0xbcf55122	-0.029945914
211	0xbcda46e3	-0.02664513
212	0x3bcaa06c	0.0061836746
213	0xbd38e83c	-0.04514335
214	0xbd103ea4	-0.03521599
215	0xbd89ef54	-0.06735101
216	0x3d8fc830	0.070206046
217	0xbd2b9b6a	-0.04189626
218	0xbc8cbdf2	-0.017180417
219	0x3c22d1db	0.009937729
220	0xbdeee976	-0.11665623
221	0xbdce54ab	-0.10074743
222	0x3b0ce48e	0.0021498534
223	0xb63286a0	-2.660243e-06
224	0x3dc44101	0.09582711
225	0xbd91919e	-0.071078524
226	0xbd6d48ba	-0.057930686
227	0xbdd27f03	-0.10278132
228	0x3c51feb8	0.012817077
229	0x3d04bb41	0.03240514
230	0x3d37baeb	0.044855993
231	0xbd16c1fc	-0.03680609
232	0xbd9e03a9	-0.07715542
233	0x3c5e6b80	0.013575435
234	0xbcfac50f	-0.030611543
235	0xbd699347	-0.05702522
236	0x3d0bb028	0.034103543
237	0x3c83a312	0.016068969
238	0xbe0e0323	-0.13868384
239	0x3d6c75a6	0.057729386
240	0x3d46ae81	0.048506264
241	0xbca75548	-0.020426407
242	0xbd260bba	-0.040538527
243	0xbb84bc61	-0.004050777
244	0x3e02bfc3	0.12768464
245	0x3d98e06c	0.0746468
246	0xbd83199f	-0.06401371
247	0x3c1653ea	0.00917528
248	0x3de51e1d	0.11187384
249	0x3d4488d5	0.047982056
250	0x3dd35308	0.10318571
251	0xbcd1e3fd	-0.025621409
252	0x3d6a6657	0.057226505
253	0xbd2d8bf5	-0.0423698
254	0x3c7fc258	0.0156103
255	0x3c0df2c2	0.008663835

fc.0.bias f4 [128]
0	0xbdbff20c	-0.09372339
1	0xbd05d4eb	-0.032673758
2	0xbdb79734	-0.089643866
3	0xbde8fe42	-0.11376621
4	0xbdc26caa	-0.09493382
5	0xbbb1b7b8	-0.0054235123
6	0x3d2a0784	0.041511074
7	0x3d3ba6b6	0.045813285
8	0x3d9a60e6	0.07538013
9	0x3d28c01b	0.04119883
10	0xbd18ee0f	-0.037336405
11	0xbc82e9d5	-0.01598064
12	0xbd457200	-0.048204422
13	0xbca05c93	-0.019575393
14	0x3cadb10a	0.021202583
15	0xbd3b3b4c	-0.045710847
16	0xbbeb0143	-0.0071717813
17	0xbdc42c88	-0.09578806
18	0xbddd0221	-0.10791422
19	0x3d07295e	0.032998435
20	0x3de8647a	0.113472894
21	0x3d93a501	0.07209206
22	0xbdf3f379	-0.11911673
23	0x3d844c29	0.06459839
24	0xbd7425ab	-0.059606235
25	0xbd54dab5	-0.051966388
26	0xbcc5566d	-0.024089063
27	0x3c04f67d	0.008115408
28	0x3cdf5242	0.027260903
29	0x3dc31c88	0.09526926
30	0xbd7fcc34	-0.062450603
31	0xbda420b7	-0.08014052
32	0xbd227ad0	-0.039667904
33	0xbddb6284	-0.1071215
34	0xbcd0d938	-0.025494203
35	0x3d1aff99	0.037841413
36	0x3d95ad80	0.07308483
37	0xbe070e29	-0.13188995
38	0xbd6ef741	-0.05834127
39	0x3c33972e	0.010961337
40	0x3b4c4700	0.003117025
41	0x3cca599a	0.024700928
42	0x3d19ffd2	0.037597485
43	0xbd993e43	-0.074825786
44	0xbd8149a1	-0.06312872
45	0x3d6a871d	0.05725776
46	0x3db34c41	0.08754779
47	0xbc8aa2ad	-0.016923273
48	0x3d3f9e48	0.04678181
49	0xbd2a6259	-0.041597698
50	0xbcd6dee6	-0.026229333
51	0x3d241544	0.040059343
52	0x3dd0f546	0.10203032
53	0x3ded7e43	0.11596348
54	0x3d8c0ca8	0.068383515
55	0xbd07a887	-0.033119705
56	0x3d42990a	0.04750923
57	0xbdd4b8e3	-0.10386827
58	0x3c604e17	0.013690493
59	0xbc338729	-0.010957518
60	0xbd5004ee	-0.05078595
61	0x3ca71903	0.020397669
62	0xbbebd024	-0.007196443
63	0x3d441415	0.047870714
64	0xbc926805	-0.017871866
65	0x3bd38602	0.006455184
66	0x3e09b91a	0.13449517
67	0x3d6225fc	0.055212006
68	0xbdc523a4	-0.096259385
69	0xbddda45f	-0.10822367
70	0xbd50901a	-0.050918676
71	0xbd843178	-0.06454748
72	0x3d5527a3	0.052039754
73	0xbdaf2c94	-0.085534245
74	0xbd9c1db2	-0.076228514
75	0xbbd1e08b	-0.0064049414
76	0xbd0206ef	-0.031744894
77	0xbc0806f4	-0.008302439
78	0xbcde8c07	-0.02716638
79	0x3c1e468d	0.009660375
80	0xbc3ae31d	-0.011406687
81	0x3d09c956	0.033639275
82	0xbd84f88f	-0.06492721
83	0x3b88a4bd	0.004170029
84	0xbde11765	-0.1099079
85	0x3d79f876	0.061027966
86	0x3d69e144	0.057099596
87	0xbdbbf165	-0.09176902
88	0xbd4ef3b2	-0.050525375
89	0xbd3c6fae	-0.046004944
90	0xbd3df9bd	-0.046380747
91	0x3da1fbdb	0.07909366
92	0xbd4de247	-0.050264623
93	0xbd748aec	-0.0597028
94	0x3db1f07d	0.086884476
95	0xbdd51728	-0.10404807
96	0x3bd462db	0.006481511
97	0xbb4d28bc	-0.0031304797
98	0x3cd1cde7	0.025610877
99	0x3c05ee03	0.008174422
100	0xbd6d2112	-0.057892866
101	0x3df2f659	0.11863393
102	0xbd4dc285	-0.050234336
103	0x3dccb745	0.099958934
104	0xbd57d1e9	-0.05269042
105	0x3db8bb40	0.0902009
106	0xbdf5ca07	-0.12001424
107	0x3dcb8997	0.099383526
108	0xbd83bd4c	-0.0643259
109	0x3b71eefa	0.0036916123
110	0xbda7d1ed	-0.08194337
111	0x3cb4f927	0.022091461
112	0xbdbba6db	-0.091626845
113	0xbd35408b	-0.044251006
114	0xbcdba9bf	-0.02681434
115	0xbdbe66e8	-0.092969716
116	0x3dda2c62	0.106529966
117	0xbdaeaae9	-0.08528692
118	0xbdd1c7e4	-0.10243204
119	0xbda4918f	-0.080355756
120	0x3df3c3bc	0.11902568
121	0xbdd5f1a5	-0.10446481
122	0xbd9b54f6	-0.075845644
123	0xbdbb74bc	-0.09153125
124	0x3c4f4b18	0.012652181
125	0x3c947259	0.018120931
126	0x3b7c2635	0.0038474922
127	0x3d73a69e	0.05948507

fc.2.weight f4 [64, 128]
0	0x3dbf8bdf	0.0935285
1	0x3dbcf54c	0.09226474
2	0x3d21a448	0.03946331
3	0x3e2124f3	0.15736751
4	0x3c95b833	0.01827631
5	0xbdd0a24c	-0.10187206
6	0x3d0685db	0.0328425
7	0xbd69d68e	-0.05708938
8	0x3d16fb1b	0.036860567
9	0xbc94cd90	-0.018164426
10	0x3cb661f3	0.022263503
11	0xbc9e5add	-0.019330436
12	0xbc36e3f3	-0.011162746
13	0x3d97620d	0.073917486
14	0x3d378e70	0.044813573
15	0x3db119f3	0.086475275
16	0xbd8b84da	-0.06812449
17	0x3d9f4399	0.07776565
18	0x3cb04145	0.021515498
19	0xbd1ed797	-0.03877982
20	0xbde96936	-0.113970205
21	0x3d9c7652	0.07639755
22	0x3deb0f45	0.11477522
23	0xbb36decd	-0.0027903796
24	0x3d193f87	0.0374141
25	0xbd208a47	-0.03919437
26	0xbdac6238	-0.08417171
27	0x3d802545	0.062571086
28	0x3d5534df	0.052052375
29	0xbcca6fc5	-0.024711499
30	0xbc9e5e3b	-0.019332042
31	0x3d6e5894	0.058189943
32	0x3dab666a	0.08369143
33	0x3e0c72cc	0.13715667
34	0xbd82b470	-0.06382072
35	0x3dfd2c23	0.12361934
36	0x3c9e0e02	0.019293789
37	0x3d7468bf	0.059670206
38	0x3bc775ad	0.006087026
39	0xbdde0cbb	-0.10842272
40	0x3df2b21c	0.11850378
41	0x3d9c01fc	0.07617566
42	0x3d8b74b6	0.0680937
43	0x3d43c76d	0.04779761
44	0xbce9c0d0	-0.028534323
45	0x3b0f1aa8	0.0021835957
46	0xbd94b9ae	-0.07261978
47	0xbd3aff7c	-0.045653805
48	0xbe34b6f2	-0.17647913
49	0x3df2a96d	0.11848722
50	0x3b15d469	0.0022862202
51	0x3c172628	0.009225406
52	0xbd3b28b8	-0.04569313
53	0xbb972470	-0.004612498
54	0xbcc6df66	-0.024276447
55	0x3ca0939d	0.019601637
56	0x3d9e624a	0.07733591
57	0x3ccc7fd7	0.024963303
58	0x3d767962	0.060174353
59	0xbc56c420	-0.013108283
60	0x3d3c8c1f	0.046032067
61	0xbe0f7ee3	-0.14013247
62	0xbd90194e	-0.070360765
63	0xbd103bae	-0.035213165
64	0x3dc8d8b6	0.09806959
65	0xbd3ea560	-0.046544433
66	0xbdd22e22	-0.102627054
67	0x3d92c8c5	0.071672
68	0x3dd3a4c2	0.103341594
69	0x3e087395	0.13325341
70	0xbb4d2ec4	-0.0031308392
71	0xbd17c0b0	-0.037048995
72	0xbdd67be2	-0.104728475
73	0xbd7022c6	-0.058626913
74	0x3d410b99	0.0471302
75	0x3df474e3	0.11936357
76	0x3d2d0dd1	0.042249504
77	0x3d8bd7be	0.06828259
78	0xbde557c2	-0.11198379
79	0xbcca696d	-0.024708474
80	0x3d970db5	0.07375661
81	0xbd877a87	-0.06615167
82	0xbd3bf6da	-0.045889713
83	0xbc1c38ca	-0.009535024
84	0x3cb76e58	0.022391483
85	0x3d0e47a6	0.034736298
86	0xbdb72251	-0.08942092
87	0x3dcc18fe	0.099657044
88	0xbd71e4ce	-0.059056096
89	0x3d7f93af	0.0623967
90	0xbcda3a99	-0.02663927
91	0x3cb38b34	0.021916963
92	0xbccb2aba	-0.024800647
93	0xb96f31ec	-0.00022811414
94	0x3c5b04a5	0.013367807
95	0xbae66c9f	-0.0017579979
96	0xbc07807d	-0.00827038
97	0x3c732f72	0.014842855
98	0xbca2df6f	-0.019881932
99	0x3d9fa318	0.077947795
100	0x3d4dd69b	0.05025349
101	0xbde7a7ac	-0.11311278
102	0xbdc069c4	-0.09395173
103	0x3cb8c0d1	0.02255288
104	0xbd31adad	-0.04337852
105	0xbdda26c0	-0.10651922
106	0xbcc45dfa	-0.023970593
107	0xbbcd03b9	-0.0062565473
108	0x3d94b165	0.07260398
109	0xbc6f0295	-0.014588018
110	0x3d71e2ef	0.05905431
111	0x3cc2cf23	0.023780411
112	0xbd612b6b	-0.054973047
113	0xbd855a3f	-0.06511354
114	0xbbcbb9e1	-0.006217227
115	0x3d117630	0.035513103
116	0xbd0ed57b	-0.03487156
117	0x3db453f9	0.08805079
118	0x3da22b95	0.07918469
119	0x3bda0305	0.006653192
120	0xbdd0f66d	-0.10203252
121	0x3dab9f3d	0.08379982
122	0xbb3e9c9c	-0.0029085046
123	0xbd8e9360	-0.06961703
124	0xbc7bbe75	-0.015365233
125	0xbc635b5d	-0.013876763
126	0xbd22a10d	-0.03970437
127	0x3d319f08	0.043364555
128	0xbe14dd97	-0.14537655
129	0x3e243cfa	0.16038886
130	0xbb6869a5	-0.003546336
131	0x3dc1d6a4	0.094647676
132	0x3d7ecec5	0.06220891
133	0x3e5bc72a	0.21462694
134	0x3c8179a6	0.015805077
135	0xbb8dbeed	-0.0043257386
136	0xbe0d1601	-0.13777925
137	0x3c9e6ab9	0.019337999
138	0xbe15714f	-0.14594005
139	0xbc22e242	-0.009941639
140	0xbe1c701c	-0.15277141
141	0xbe0390b0	-0.12848163
142	0xbd031157	-0.03199896
143	0x3dc3ff36	0.09570162
144	0x3d7a56da	0.061117984
145	0x3dd9d24e	0.106358156
146	0x3e0b49bc	0.13602346
147	0x3cffe704	0.031238087
148	0x3de9664b	0.11396464
149	0x3d763a8a	0.06011442
150	0x3dad94aa	0.08475621
151	0xbc9664ca	-0.018358607
152	0xbd0b4122	-0.033997662
153	0xbcf8ad3a	-0.030356038
154	0xbd17ac92	-0.03702981
155	0x3d292d11	0.041302744
156	0xbc46424a	-0.0121007655
157	0x3e12635f	0.1429572
158	0xbcf5c497	-0.030000968
159	0xbd669076	-0.056290112
160	0x3dbf6737	0.093458585
161	0x3e3a8c3f	0.18217562
162	0x3e46d608	0.19417584
163	0xbe059c8d	-0.13048
164	0xbe4d285f	-0.20034932
165	0xbcc5a134	-0.02412472
166	0x3e14ef13	0.14544325
167	0xbc4783fe	-0.0121774655
168	0x3dec914f	0.11551153
169	0xbd69dd89	-0.057096038
170	0xbdd71453	-0.105019234
171	0x3dfc03ab	0.12305387
172	0xbdbc37a2	-0.091902986
173	0x3da63995	0.08116452
174	0xbdab9c01	-0.08379365
175	0x3d65f611	0.05614287
176	0xbd993e27	-0.07482558
177	0x3bc467d8	0.0059938245
178	0xbd3c987f	-0.04604387
179	0xbe0e8835	-0.13919146
180	0xbe49d95d	-0.19711824
181	0xbdc963a4	-0.09833458
182	0xbd24804c	-0.040161416
183	0x3d83c985	0.06434921
184	0xbe057e66	-0.13036498
185	0x3d054939	0.032540534
186	0x3dd39ab1	0.103322394
187	0x3cc913dd	0.024545604
188	0x3c772cee	0.015086396
189	0xbe07d5bb	-0.13265125
190	0xbdb2a588	-0.08722979
191	0xbd9b97e8	-0.07597333
192	0xbc62aec0	-0.013835609
193	0x3c9e8a0a	0.019352932
194	0x3d9b4de6	0.07583217
195	0xbd93d7a3	-0.07218864
196	0x3da53d94	0.08068386
197	0x3e3a27b3	0.18179207
198	0x3d24e290	0.04025513
199	0x3e016e49	0.12639727
200	0x3e14ab17	0.1451839
201	0xba03864c	-0.0005017265
202	0xbe4bb5da	-0.1989359
203	0xbdf6972f	-0.12040555
204	0xbb92866b	-0.0044715903
205	0xbd49df59	-0.049285267
206	0x3dbcc226	0.092167184
207	0x3dd9125b	0.10599204
208	0x3ce537b0	0.027980655
209	0x3c802bb0	0.015645832
210	0xbb59f9ec	-0.0033260537
211	0x3df45df6	0.11931984
212	0x3c8da3de	0.017290052
213	0x3cbe83f4	0.02325628
214	0x3d0ae7e2	0.033912547
215	0xb985471c	-0.00025420717
216	0xbcd617e2	-0.026134435
217	0xbd9e5416	-0.07730882
218	0x3d9018b7	0.07035964
219	0xbc17d428	-0.009266891
220	0xbd35565c	-0.04427181
221	0x3d9521fd	0.072818734
222	0xbd093cf1	-0.033505384
223	0xbd2805de	-0.04102122
224	0xbdac8182	-0.08423139
225	0x3d9f5281	0.07779408
226	0xbce128b4	-0.02748523
227	0xbcce44ed	-0.02517935
228	0xbe0c5582	-0.13704494
229	0xbdaddc36	-0.084892675
230	0x3e45db9c	0.19322056
231	0xbd464142	-0.04840208
232	0x3d62783b	0.055290442
233	0x3d215541	0.039387945
234	0xbd16ddd4	-0.036832646
235	0xbd3deab1	-0.046366397
236	0x3d45d018	0.048294157
237	0x3d837b21	0.06419969
238	0xbe184eca	-0.14873806
239	0xbd75a161	-0.059968356
240	0xbb073900	-0.002063334
241	0xbd206879	-0.039162133
242	0xbd008e07	-0.031385448
243	0xbdbc9cea	-0.092096165
244	0xbe142b0b	-0.14469545
245	0xbdc784d8	-0.09742135
246	0x3d95253b	0.07282492
247	0x3d12a147	0.035798337
248	0x3c704dc7	0.014666981
249	0xbe081ad9	-0.13291492
250	0x3cb19ebd	0.021682138
251	0x3dd67161	0.10470844
252	0x3b6af7eb	0.0035853337
253	0x3ac27322	0.0014835338
254	0x3de0ef17	0.10983103
255	0xbdae94fb	-0.085245095

fc.2.bias f4 [64]
0	0xbddc0542	-0.1074319
1	0x3d4d281e	0.050087087
2	0xbca6775a	-0.020320583
3	0x3d25ba62	0.04046095
4	0xbbde2f8e	-0.0067805713
5	0x3daca1a7	0.0842927
6	0x3bc13fbe	0.0058974912
7	0xbc64e5a0	-0.0139707625
8	0xbda0878d	-0.07838354
9	0x3d24ef06	0.040267013
10	0x3d975518	0.07389277
11	0x3da8bffb	0.08239742
12	0xbb977489	-0.0046220464
13	0x3caf0c1b	0.021368077
14	0x3cb983cd	0.022645855
15	0xbda9f49f	-0.08298611
16	0x3caaad6b	0.020834645
17	0x3d91833a	0.071051076
18	0xbd1d028e	-0.038332514
19	0x3d38e601	0.045141224
20	0x3e1b15d3	0.15145044
21	0x3d006a55	0.031351406
22	0xbd971e99	-0.07378883
23	0xbd59b456	-0.053150497
24	0xbcbfc582	-0.023409609
25	0xbd995106	-0.07486157
26	0x3d399fda	0.045318462
27	0xbdb614b6	-0.08890669
28	0x3d98fb19	0.07469768
29	0x3cc865e8	0.024462655
30	0x3dad84a3	0.08472564
31	0xbd2c5c45	-0.042080183
32	0x3d68e7f3	0.05686183
33	0x3cd668a1	0.026172938
34	0xba3c9bbc	-0.0007194837
35	0x3c8a41c9	0.016877072
36	0xbd2a0a80	-0.04151392
37	0xbda319e2	-0.07963921
38	0xbc52c3be	-0.012864051
39	0xbd5c39ce	-0.053766064
40	0xbdd8ca93	-0.10585513
41	0xbd9e482a	-0.07728608
42	0xbd5d4778	-0.054023236
43	0xbb32a15c	-0.0027256822
44	0x3d1bedff	0.038068768
45	0x3d888f6e	0.06667982
46	0x3d2f6771	0.04282326
47	0x3d79f0f5	0.06102081
48	0x3cdb14f3	0.026743388
49	0x3d6660ff	0.056244846
50	0xbdbd04b3	-0.09229412
51	0xbd0ec286	-0.03485348
52	0xbd42e2e7	-0.047579672
53	0xbdafa52a	-0.085764244
54	0xbdda501d	-0.10659812
55	0xbc9b7cc5	-0.018980393
56	0xbdd0da7f	-0.10197925
57	0x3d9d312e	0.07675396
58	0x3cb84975	0.022495965
59	0xbd477654	-0.04869683
60	0xbdb614be	-0.08890675
61	0x3dc103fa	0.094245866
62	0x3de224d5	0.110421814
63	0xbd81593a	-0.06315847

fc.4.weight f4 [33, 64]
0	0xbe2209f4	-0.1582411
1	0x3df831d7	0.12118881
2	0xbd536964	-0.05161418
3	0xbcc76f8b	-0.02434518
4	0xbd794d9e	-0.060865037
5	0x3ddfdea7	0.109311394
6	0xbc6b1ba1	-0.014349849
7	0xbe2831a8	-0.16425192
8	0xbd8943e8	-0.06702405
9	0xbda5dbec	-0.080985874
10	0xbb0ed1c4	-0.002179251
11	0x3d833f67	0.064085774
12	0xbc923c02	-0.01785088
13	0x3c6fef30	0.014644429
14	0x3d571074	0.052505925
15	0x3dde04f3	0.10840788
16	0xbd97ff6f	-0.07421767
17	0x3d8c3f4c	0.068480104
18	0xbc627911	-0.01382281
19	0x3d7a8b43	0.061167967
20	0xbc98c9f9	-0.018650996
21	0xbca5f7a0	-0.020259678
22	0x3e41790b	0.1889383
23	0x3db252ba	0.08707185
24	0xbe043ba0	-0.1291337
25	0xbdce9375	-0.10086719
26	0x3d8fab0d	0.07015047
27	0x3d1f16b7	0.038840022
28	0xbdaac1e4	-0.08337763
29	0xbd812beb	-0.06307205
30	0x3d8e097d	0.069354035
31	0xbc10ba95	-0.008833547
32	0x3e3b10a0	0.1826806
33	0x3d0b024d	0.03393774
34	0x3dd6d0c1	0.104890354
35	0x3e46845c	0.19386429
36	0x3df8914f	0.121370904
37	0x3e126e06	0.14299783
38	0x3cf5cedb	0.030005863
39	0x3c1c67ca	0.00954623
40	0xbd3acd4b	-0.04560594
41	0x3c6eccee	0.014575226
42	0x3c13df4f	0.009025409
43	0x3df9febe	0.12206791
44	0x3dca3d00	0.09874916
45	0xbd1c878d	-0.03821521
46	0x3d9ea91d	0.077470995
47	0xbe010197	-0.12598263
48	0xbd4154f0	-0.047200143
49	0xbd2b4154	-0.04181035
50	0x3cf7fd92	0.030272279
51	0x3dcc917a	0.09988685
52	0x3cc480dc	0.023987226
53	0xbd586b02	-0.052836426
54	0x3e13ae82	0.14422038
55	0x3d5ec82c	0.054390118
56	0x3d8669aa	0.065631226
57	0x3da0d6d5	0.07853476
58	0xbdba239b	-0.090888225
59	0x3c94b893	0.018154418
60	0xbdda01dd	-0.10644887
61	0xbdb50d16	-0.088403866
62	0xbc58d7a6	-0.013235008
63	0xbe2ab50d	-0.16670628
64	0x3a73a631	0.0009294479
65	0x3e0d5d1f	0.13805054
66	0x3a87008c	0.0010299846
67	0x3df5c27b	0.11999985
68	0x3cd015fa	0.025401104
69	0x3db4254a	0.08796175
70	0x3de89a24	0.11357525
71	0x3dc7a681	0.09748555
72	0xbe269bca	-0.16270366
73	0xbb613158	-0.0034361687
74	0x3bb26e62	0.0054452876
75	0x3e3061e8	0.17224848
76	0xbe4ed735	-0.20199282
77	0x3cb700df	0.022339283
78	0xbd9f85ec	-0.077892154
79	0xbd3f0e3d	-0.046644438
80	0xbd06d336	-0.03291627
81	0x3d6dfb2f	0.058100875
82	0x3c0397ac	0.008031767
83	0xbc358bb5	-0.011080672
84	0x3db94728	0.09046775
85	0xbe0f0b72	-0.1396921
86	0xbd71a6e8	-0.058997065
87	0xbdc1a4cc	-0.09455261
88	0xbe286e65	-0.16448362
89	0xbe2bf56b	-0.16792838
90	0x3dc63b52	0.09679283
91	0xbe184c3c	-0.14872831
92	0xbe311548	-0.17293274
93	0xbd9bee5d	-0.076138236
94	0xbdde6460	-0.10858989
95	0xbd8ea6b0	-0.06965387
96	0x3dfeccf2	0.12441434
97	0xbccd46cc	-0.025058173
98	0x3e27e0fe	0.16394421
99	0x3cc4b5e1	0.024012508
100	0x3d0c8c38	0.03431341
101	0xbda16a58	-0.078816116
102	0x3e083a23	0.13303427
103	0x3dbcde10	0.092220426
104	0xbd58edf8	-0.05296132
105	0xbc9a0bba	-0.01880442
106	0x3d894a6b	0.06703647
107	0xbd79fc11	-0.061031405
108	0x3d1a1137	0.037614074
109	0xbe0f1c9d	-0.13975759
110	0x3e21b602	0.15792087
111	0xbd62d75b	-0.05538116
112	0x3c2df954	0.0106185265
113	0xbce88b3f	-0.02838671
114	0xbddbf409	-0.107399054
115	0xbc500d83	-0.012698534
116	0x3c30815d	0.01077303
117	0x3c8ac5d4	0.016940035
118	0xbd2c9973	-0.042138528
119	0xbd02975d	-0.031882633
120	0xbde2a317	-0.11066263
121	0x3dd37ef4	0.10326949
122	0xbc52ab4e	-0.012858225
123	0xbd2158c4	-0.039391294
124	0xbd378c15	-0.044811327
125	0xbe005499	-0.12532271
126	0x3b40662a	0.002935777
127	0xbe14bfb5	-0.14526255
128	0x3e024b53	0.12724046
129	0xbe195929	-0.14975418
130	0xbd83159c	-0.06400606
131	0xbe9061b1	-0.28199533
132	0xbbe93e54	-0.007118026
133	0xbe036535	-0.12831576
134	0xbda6615e	-0.0812404
135	0x3d6b9057	0.0575107
136	0x3cf54176	0.02993844
137	0x3e484cd6	0.1956056
138	0x3e345dc1	0.1761389
139	0x3d98ec10	0.074669
140	0xbe84119c	-0.25794685
141	0xbd1479a9	-0.036248837
142	0x3d9b0750	0.07569754
143	0x3d820aaf	0.06349694
144	0xbd849773	-0.06474199
145	0xbd5041a3	-0.050843846
146	0xbd992b15	-0.0747892
147	0xbe931d3e	-0.28733248
148	0xbe049152	-0.1294606
149	0xbdce3b07	-0.10069852
150	0xbe0dc236	-0.13843617
151	0xbe5d3907	-0.21603785
152	0x3e31d9f5	0.173683
153	0x3e53578c	0.20638865
154	0x3e1d1002	0.15338138
155	0xbdb34360	-0.08753085
156	0xbe82e909	-0.25568417
157	0x3e45f986	0.19333467
158	0xbe462707	-0.19350825
159	0xbe542ecc	-0.20720977
160	0x3dc677f5	0.09690849
161	0x3b7e6ed6	0.0038823388
162	0xbca88d88	-0.0205753
163	0xbc507dc5	-0.012725298
164	0x3cccedef	0.0250158
165	0xbe8558ba	-0.26044255
166	0xbded7ca1	-0.11596037
167	0x3e9ed099	0.31018522
168	0xbbfa9168	-0.0076467283
169	0xbba58b7e	-0.005052029
170	0xba384d05	-0.000703052
171	0xbe2d8d3b	-0.16948406
172	0x3e40a0ee	0.1881139
173	0x3e10ca37	0.14139639
174	0x3d38dc09	0.045131717
175	0xbca19dba	-0.01972853
176	0xbe0f1d58	-0.13976038
177	0xbda1642b	-0.07880434
178	0x3da36adb	0.079793654
179	0x3d00a0db	0.031403404
180	0x3d8bf7d4	0.06834379
181	0xbc7614d2	-0.015019612
182	0x3c91f649	0.017817633
183	0xbd0daf36	-0.034590922
184	0xbd1add89	-0.03780893
185	0xbdb54ef5	-0.088529505
186	0xbdc729b2	-0.097247496
187	0x3ddbd3f7	0.107337885
188	0x3cf151cb	0.029457947
189	0xbe05bb91	-0.13059832
190	0x3d2b53d5	0.041827995
191	0x3e22d0e9	0.15900005
192	0x3d252405	0.040317554
193	0xbdea3286	-0.11435418
194	0xbd8fc7bb	-0.070205174
195	0xbdb363ec	-0.08759293
196	0x3e67d3dc	0.22639412
197	0x3d6d4cbb	0.057934504
198	0x3e018b78	0.1265086
199	0x3dd67cad	0.10472999
200	0x3e3e6a9a	0.18595353
201	0x3e725abe	0.23667428
202	0x3e0958b7	0.13412748
203	0xbe8dee14	-0.27720702
204	0xbdd54dc4	-0.10415223
205	0xbe48b2d6	-0.1959947
206	0xbd87b3de	-0.06626104
207	0x3e3c8892	0.18411472
208	0xbd2099e7	-0.039209273
209	0xbd72e3c3	-0.05929924
210	0xbe005999	-0.12534179
211	0x3e1aacc7	0.15104972
212	0xbe1c0124	-0.1523481
213	0x3e204fae	0.15655395
214	0x3cb7f7f0	0.022457093
215	0x3e88063d	0.2656726
216	0x3dd2b66b	0.102887
217	0xbc416221	-0.011803181
218	0x3d2a2763	0.04154147
219	0x3d805db5	0.06267873
220	0x3e51178d	0.2041914
221	0xbdaf6403	-0.085639976
222	0xbd1ec84a	-0.03876523
223	0xbbdb5d0a	-0.0066944407
224	0xbde7a8ab	-0.11311468
225	0x3da22c98	0.07918662
226	0x3d12aa60	0.035807014
227	0xbe0f9c81	-0.14024545
228	0x3d3f9327	0.046771195
229	0x3eb30aeb	0.34969267
230	0x3e16f52a	0.1474196
231	0xbe2d2edc	-0.16912407
232	0x3dbd4844	0.09242299
233	0x3c944556	0.018099468
234	0xbe52c296	-0.20582041
235	0xbbb3a645	-0.0054824674
236	0xbd110f12	-0.035414763
237	0xbd284199	-0.041078184
238	0xbc80367e	-0.015650984
239	0x3de3f8df	0.11131453
240	0xbe5069b6	-0.20352826
241	0xbd90169c	-0.070355624
242	0x3e5255ac	0.20540494
243	0xbdf23407	-0.1182633
244	0xbb8428b5	-0.004033173
245	0xbca63dd5	-0.020293156
246	0xbd372094	-0.044708803
247	0xbd0c41d3	-0.034242462
248	0x3e556c61	0.20842125
249	0x3d3b2399	0.045688245
250	0x3d550fd4	0.052017048
251	0x3e1322fe	0.14368817
252	0x3adc6c93	0.0016817026
253	0xbe8bdee1	-0.2731848
254	0xbdd88b3e	-0.10573433
255	0xbb11f084	-0.0022268603

fc.4.bias f4 [33]
0	0x3e023c03	0.12718205
1	0x3e17377f	0.14767264
2	0xbe4db210	-0.20087457
3	0xbe34d5de	-0.17659709
4	0x3c0083e1	0.007843942
5	0x3b7f5ea9	0.0038966334
6	0xbdeba704	-0.11506465
7	0x3d07a6a6	0.033117913
8	0x3e025a62	0.12729791
9	0x3d6ab5ac	0.057302162
10	0xbe093e4f	-0.13402675
11	0x3d61308b	0.054977935
12	0xbcd39a20	-0.025830328
13	0xbd1bcdb8	-0.038037986
14	0x3c8b2667	0.016986085
15	0xbd03a5d1	-0.032140557
16	0x3d021d96	0.031766497
17	0xbcae936e	-0.021310534
18	0xbd9a43f7	-0.075324945
19	0xbe11d7a9	-0.14242424
20	0xbcf9ece1	-0.03050846
21	0x3d7ab9f5	0.0612125
22	0x3cb206ec	0.021731816
23	0x3cceadda	0.025229383
24	0xbc820fe3	-0.015876716
25	0x3db60c09	0.08889014
26	0xbdd65183	-0.10464766
27	0xbd33b2c3	-0.043871652
28	0x3c85941c	0.016305976
29	0x3c9cef59	0.019157099
30	0xbd0490f5	-0.032364804
31	0x3e03d117	0.1287273
32	0x3d87f6c2	0.06638862
