models/policy2.pt (torch_old, 99515 bytes, 6 tensors)

fc.0.weight f4 [128, 110]
-0.038879927 -0.05557839 -0.26467493 0.05479871 -0.14254536 -0.049798407 -0.1647805 -0.2193223
-0.13843885 0.3780937 -0.06613994 0.14534459 -0.28488404 -0.058624055 -0.025437495 -0.06928003
-0.4373458 -0.9106568 -0.027890682 -0.073995285 0.5997013 0.1640946 0.057671096 0.058017105
-0.10900827 0.0308628 -0.06349759 0.081791766 -0.010892977 -0.08622154 0.08872294 0.11423359
-0.046607822 0.0706151 0.1499311 -0.17095304 -0.26729873 0.05913865 -0.066914134 0.17883019
-0.4471696 0.087524414 0.100053124 -0.02330514 0.08023258 -0.122720025 0.069495924 -0.003873504
0.15196614 0.03816226 0.28954467 0.04486469 0.09221101 -0.21018496 0.22989555 0.059995472
-0.00054333586 0.1560331 0.07058651 -0.02553395 0.10318175 0.13139199 0.049610313 -0.04490166
0.043874487 0.15561038 0.21360548 0.11075595 0.063641824 0.27608424 0.3060524 -0.05548587
-0.0031063333 0.15650678 0.121529184 -0.16690549 0.1538904 -0.17139623 0.031338286 0.08878605
0.13377687 0.076923184 0.19131967 0.17899168 -0.21065892 0.02850811 -0.10175897 0.18738608
-0.19530842 -0.03545583 -0.022998897 0.015870012 -0.11481821 -0.33396977 -0.29989922 -0.013432174
0.04378754 0.32651976 0.14986232 0.029248409 0.1663089 -0.13636468 0.22129463 -0.033644307
0.022339553 0.12970087 0.08826066 -0.12473426 0.08396419 0.023390101 0.06768112 -0.22204286
-0.35741952 0.09878743 -0.111386985 -0.25157937 -0.26876447 -0.14761291 0.08976309 0.376681
0.10731323 0.19517508 0.30445206 0.017201226 0.084902756 -0.048492834 0.24108185 -0.4813151
0.05407718 0.08488716 0.056452237 0.13557905 0.049912974 -0.020276206 0.07148069 0.08326259
0.06916535 0.17519687 -0.0419671 0.15893634 0.16341771 -0.047522638 0.047642063 0.19421947
0.24585257 0.039787635 -0.2638687 0.084513 -0.19063842 0.11396082 -0.3909643 -0.14030696
0.070994854 0.20743954 0.09356874 0.0042109806 0.009460312 -0.15008694 -0.059587516 0.045206014
0.40307575 0.08983191 0.03961754 0.009378093 0.3353979 0.16499119 0.0352183 0.08503443
0.055270582 0.051397618 -0.045682345 -0.04841735 -0.027558127 0.17382935 -0.13993613 -0.0055764723
0.29875517 -0.015697282 0.24136007 0.10611478 0.086311765 0.006977591 0.043130606 -0.007424919
-0.014509111 0.24524379 0.002279551 0.2360211 -0.00494849 -0.1652506 -0.062110707 -0.13538261
0.13231105 0.26477492 0.07518226 -0.008072134 -0.1352084 -0.36367083 0.1873163 -0.025773069
-0.013140405 0.091253415 -0.10347289 -0.40128508 -0.09200619 -0.07043865 -0.041089714 -0.09612925
0.00636972 0.06806804 0.115081444 0.15026449 0.3555234 -0.08503794 0.034074523 0.11590736
0.06511682 -0.1294854 -0.056866445 0.026809556 -0.07671527 -0.22180775 -0.6226819 -0.20723797
0.20610301 -0.07417077 -0.13056038 -0.29077676 -0.032458045 0.15235715 0.12669459 -0.06838246
-0.21716423 0.081067696 -0.022828214 -0.046159655 -0.009339319 -0.7323475 -0.057040177 0.071330674
0.70231634 0.17372625 -0.03055394 0.28216925 0.23529896 0.26299343 -0.02801381 0.10357356
0.24684592 0.28914475 0.20618919 0.14151907 0.17187597 0.03203795 0.17012165 -0.18346307
00000000: 8f40 1fbd 2aa6 63bd 7983 87be 9d74 603d
00000010: 69f7 11be 6af9 4bbd 38bc 28be 0696 60be
00000020: eac2 0dbe 7f95 c13e 6074 87bd 36d5 143e
00000030: 52dc 91be c71f 70bd 4b62 d0bc b0e2 8dbd
00000040: caeb dfbe ce20 69bf 007b e4bc d78a 97bd
00000050: 0686 193f 6a08 283e 8738 6c3d 58a3 6d3d
00000060: ba3f dfbd fcd3 fc3c 060b 82bd 7182 a73d
00000070: 7578 32bc eb94 b0bd 5fb4 b53d 4df3 e93d
00000080: d8e7 3ebd a69e 903d 8a87 193e 500e 2fbe
00000090: 61db 88be 5e3b 723d 470a 89bd 431f 373e
000000a0: 6af3 e4be 0040 b33d a7e8 cc3d 6cea bebc
000000b0: fb50 a43d a354 fbbd e153 8e3d 9dda 7dbb
000000c0: 039d 1b3e 0850 1c3d 333f 943e 0ac4 373d
000000d0: 20d9 bc3d ba3a 57be bd69 6b3e d0bd 753d
000000e0: a76e 0eba 24c7 1f3e a98f 903d 932c d1bc
000000f0: f450 d33d 9f8b 063e 2f34 4b3d ceea 37bd
00000100: bcb5 333d 5458 1f3e 65bb 5a3e 04d4 e23d
00000110: a556 823d ea5a 8d3e e6b2 9c3e 2745 63bd
00000120: a093 4bbb 5043 203e 4be4 f83d 46e9 2abe
00000130: 7295 1d3e 7e82 2fbe 935c 003d 76d5 b53d
00000140: cefc 083e e789 9d3d 4ee9 433e 9849 373e
00000150: f9b6 57be d789 e93c 0267 d0bd 23e2 3f3e
00000160: eefe 47be 223a 11bd 2f68 bcbc d401 823c
00000170: cf25 ebbd 16fe aabe 648c 99be 9f12 5cbc
00000180: 905a 333d 992d a73e 8275 193e 5c9a ef3c
00000190: e14c 2a3e 2fa3 0bbe 0f9b 623e 9dce 09bd
000001a0: 7001 b73c 4ed0 043e 01c2 b43d ad74 ffbd
000001b0: 6bf5 ab3d 999c bf3c 669c 8a3d 345f 63be
000001c0: b1ff b6be 1051 ca3d dc1e e4bd 03cf 80be
000001d0: 7f9b 89be d727 17be b6d5 b73d 55dc c03e
000001e0: 0ac7 db3d fadb 473e 24e1 9b3e 96e9 8c3c
000001f0: 7fe1 ad3d 6ca0 46bd 29de 763e ef6e f6be
00000200: 0880 5d3d 52d9 ad3d 763a 673d 3cd5 0a3e
00000210: 8c71 4c3d 491a a6bc 7864 923d 9485 aa3d
00000220: 90a6 8d3d cf66 333e b2e5 2bbd 35c0 223e
00000230: f956 273e 19a7 42bd 5324 433d 78e1 463e
00000240: c7c0 7b3e 5cf8 223d cc19 87be 2715 ad3d
00000250: b836 43be 4a64 e93d 792c c8be a1ac 0fbe
00000260: c065 913d 086b 543e f8a0 bf3d 44fc 893b
00000270: 6dff 1a3c 64b0 19be 0a12 74bd f129 393d
00000280: f25f ce3e cbf9 b73d 0046 223d 93a6 193c
00000290: 46b9 ab3e 73f3 283e 1041 103d 8826 ae3d
000002a0: 6863 623d 4f86 523d 691d 3bbd 4551 46bd
000002b0: 95c1 e1bc 5200 323e 6b4b 0fbe d7ba b6bb
000002c0: 70f6 983e 9697 80bc 1827 773e b552 d93d
000002d0: 39c4 b03d 47a4 e43b b8a9 303d bc4c f3bb
000002e0: 9fb7 6dbc 3021 7b3e 8564 153b 84af 713e
000002f0: f126 a2bb 7437 29be cc67 7ebd bda1 0abe
00000300: 8c7c 073e 9490 873e 28f9 993d fc40 04bc
00000310: 1274 0abe 1033 babe d8cf 3f3e 0b22 d3bc
00000320: da4a 57bc 12e3 ba3d 98e9 d3bd 3d75 cdbe
00000330: be6d bcbd 2442 90bd b04d 28bd 6adf c4bd
00000340: 16b9 d03b 4267 8b3d d2af eb3d efde 193e
00000350: 2a07 b63e 5f28 aebd ba91 0b3d d760 ed3d
00000360: f85b 853d d297 04be caec 68bd b79f db3c
00000370: e51c 9dbd 9221 63be 1568 1fbf 3136 54be
00000380: ab0c 533e d8e6 97bd 9fb1 05be b1e0 94be
00000390: baf2 04bd 8303 1c3e 3abc 013e 1a0c 8cbd
000003a0: 4d60 5ebe d206 a63d 3c02 bbbc e811 3dbd
000003b0: f103 19bc 207b 3bbf f6a2 69bd d115 923d
000003c0: 01cb 333f 4be5 313e 424c fabc 7d78 903e
000003d0: 36f2 703e 13a7 863e 387d e5bc 601e d43d
000003e0: 2dc5 7c3e c80a 943e 4223 533e 60ea 103e
000003f0: 4100 303e 3a3a 033d 5f34 2e3e bedd 3bbe

fc.0.bias f4 [128]
-0.07649267 -0.01699451 -0.1183986 -0.14348668 -0.09680763 0.0050488035 0.10324393 0.11953449
0.13126585 0.026816666 0.0059022824 -0.03489746 0.011066788 0.04070853 -0.0066975243 -0.03965956
-0.0147689525 -0.13920183 -0.11245213 0.07989219 0.110336885 0.122827 -0.14912194 0.16920839
-0.0060047754 -0.09056332 -0.08530424 -0.01835628 0.069440775 0.11864932 -0.0883716 -0.081024244
-0.09194185 -0.1622561 -0.032337744 -0.013186091 0.025005372 -0.050936174 -0.13773419 -0.034545403
-0.048082046 0.08147433 0.13810313 -0.083498366 -0.011458354 0.055674523 0.045691546 0.0085693905
0.06885148 -0.07366516 0.0141088385 0.07789829 0.1511576 0.16141401 0.053593624 0.023619533
0.09623112 -0.016544932 0.0028931515 -0.03438375 -0.017003033 0.04344368 -0.013932112 0.071294405
-0.050343268 0.057275955 0.13272165 0.067084886 -0.14456 -0.103352726 -0.04355924 -0.10182582
0.012194606 -0.023530077 0.0127324965 -0.014855195 -0.059833385 0.09028959 -0.012427006 -0.020212255
-0.03085053 0.091315344 -0.14958206 0.01233965 -0.0867768 0.02231825 0.08490323 -0.064778626
-0.013541156 -0.060350526 -0.13012156 0.12533225 -0.06346119 -0.06553362 0.13233459 -0.08427415
0.010351606 0.018172946 0.011578883 0.061522577 -0.040050387 0.0422214 -0.021860216 0.09899419
-0.077761784 0.027654486 -0.1708238 0.023858432 -0.10351136 -0.009213894 -0.09963298 -0.03478976
-0.041729584 -0.036967237 -0.032059826 -0.05966573 0.13994744 -0.09098225 -0.092219256 -0.0741389
0.0848307 -0.06573874 -0.06273401 -0.09599206 0.0999716 0.110560805 -0.06830761 0.09009628
00000000: 30a8 9cbd 1238 8bbc f77a f2bd 2cee 12be
00000010: 1443 c6bd 6f70 a53b 8e71 d33d 80ce f43d
00000020: 8e6a 063e a0ae db3c ef67 c13b a4f0 0ebd
00000030: 7951 353c fdbd 263d e876 dbbb 1072 22bd
00000040: 7af9 71bc ed8a 0ebe 4d4d e6bd 849e a33d
00000050: 4ef8 e13d b98c fb3d 6cb3 18be f744 2d3e
00000060: b5c3 c4bb 4379 b9bd fdb3 aebd e95f 96bc
00000070: f736 8e3d 6afe f23d 2bfc b4bd 0af0 a5bd
00000080: 024c bcbd 7726 26be 9574 04bd 790a 58bc
00000090: 11d8 cc3c 73a2 50bd 310a 0dbe 7b7f 0dbd
000000a0: aef1 44bd 03dc a63d e86a 0d3e 3101 abbd
000000b0: d2bb 3bbc f80a 643d 0f27 3b3d a166 0c3c
000000c0: 0102 8d3d c2dd 96bd c228 673c 2389 9f3d
000000d0: 0fc9 1a3e b749 253e fd84 5b3d c07d c13c
000000e0: d214 c53d 3d89 87bc 079b 3d3b fad5 0cbd
000000f0: f249 8bbc 00f2 313d 8343 64bc cd02 923d
00000100: be34 4ebd 319a 6a3d 2fe8 073e cd63 893d
00000110: 8907 14be 98aa d3bd 2c6b 32bd 0e8a d0bd
00000120: e2cb 473c 26c2 c0bc f69b 503c 3463 73bc
00000130: da13 75bd c0e9 b83d a49a 4bbc 2c94 a5bc
00000140: 40ba fcbc 8a03 bb3d 0a2c 19be 3e2c 4a3c
00000150: 09b8 b1bd c3d4 b63c bfe1 ad3d a8aa 84bd
00000160: badb 5dbc 1d32 77bd 963e 05be 1957 003e
00000170: f1f7 81bd 7e36 86bd b882 073e ed97 acbd
00000180: c899 293c 6edf 943c 5bb5 3d3c 19ff 7b3d
00000190: e00b 24bd 59f0 2c3d 3214 b3bc 77bd ca3d
000001a0: 9241 9fbd a98b e23c 6fec 2ebe c272 c33c
000001b0: c4fd d3bd dff5 16bc 600c ccbd b57f 0ebd
000001c0: a4ec 2abd f56a 17bd 2a51 03bd 0d64 74bd
000001d0: 624e 0f3e e754 babd 73dd bcbd 23d6 97bd
000001e0: b8bb ad3d 08a2 86bd b07a 80bd 7c97 c4bd
000001f0: e9bd cc3d b46d e23d dce4 8bbd 6684 b83d

fc.2.weight f4 [64, 128]
0.37209588 0.61045426 -0.1644546 0.10550325 -0.20070815 0.0060232934 0.18662702 -0.06816416
0.48763615 -0.1273816 0.3439989 -0.06794532 0.5574422 0.0719457 -0.058587614 0.42922625
-0.4356147 -0.21057515 0.3835237 1.0647756 -0.29951593 0.84234893 -0.60089815 0.14574198
0.16664514 -0.44302872 -0.18570371 0.036055855 0.5966548 0.13277864 0.02693476 0.07643291
-1.1253326 -0.26267087 -0.25015563 0.24195723 -0.20638321 0.00057818583 -0.79535383 -0.48740393
0.16469191 0.47563985 0.34910774 0.10260877 0.0075926296 -0.013030388 -0.37016785 0.49156803
-1.2034113 -0.038050577 0.21377297 0.061227996 0.8841172 0.10711682 -0.055552427 0.2612603
0.57679844 0.05796636 0.2663178 -0.38048735 1.2987732 0.35505894 -0.76517266 0.263386
0.31025127 -0.010461228 -0.20530511 0.14719754 0.10009602 -0.07172716 -0.21856911 -0.20633928
-0.8161586 0.2098207 0.5667541 -0.029959476 0.4829408 0.2436804 -0.009086176 -0.1897829
0.1653635 0.43609077 -0.96920896 0.10447678 0.02251106 -0.83883363 0.15198112 0.14627816
0.50558585 0.12384471 -0.17402272 0.74631333 -0.17586456 0.11814851 -0.20251903 0.005381608
0.9323832 0.16234823 -0.21744789 0.36555433 0.21587603 -0.66661984 0.27893466 0.018664584
-0.4524365 -0.19391051 -0.04780856 -0.24438952 0.062349543 -0.020671258 0.03738254 -0.11617555
-0.06066604 -0.1476139 -0.46086904 -0.019941732 0.69542646 0.35241807 -0.11022438 -0.033889744
-0.54397976 0.51181597 0.21441883 0.18250978 -0.10840044 0.7547756 -0.3905605 -0.12984724
-0.4509794 -0.28832722 -0.2582289 -0.023494191 -0.014058435 1.1000278 0.21921685 0.04313286
-0.1632745 0.08201785 -0.5466794 -0.011457431 -0.56540585 -0.19669417 0.04314306 0.30927974
0.2532949 0.5323293 0.3470399 -0.28205335 0.21454795 -0.19588423 0.39063132 0.062910885
-0.13259517 -0.0103761535 0.044463787 0.41095906 -0.45740053 0.34759128 -0.044691846 -0.077930406
0.37571034 0.2988574 0.92365015 0.0053173015 -0.25096628 -0.12251282 0.4749445 0.1062334
-0.09683308 0.030805536 0.09835925 -0.23921713 0.32160187 -0.18400013 -0.14875278 -0.288104
0.1115918 0.09448457 -0.16161856 -0.19550839 -0.23952222 -0.028932102 0.7466698 0.032685217
-0.8253437 -0.031013427 0.4013139 -0.13015063 -0.27334636 0.06435452 -0.2738303 0.5104054
-0.17748736 -0.18932283 -0.029310286 -1.2372346 -0.026935672 -0.09356166 -0.0015648465 0.54636467
0.17569853 0.04879521 -0.24007565 -1.1602151 -0.06881055 4.3727145e-05 0.21727423 0.3174829
0.1714272 0.23560812 0.07008484 -0.3646536 0.020000933 -0.028525217 0.14706586 0.035393506
-0.1951453 0.57126105 -0.0651716 -0.37495956 -0.60054934 -0.06105578 0.8922121 -0.32583386
-0.34050062 0.17497325 -0.21685939 -0.0688959 -0.20725337 -0.22071935 0.424617 0.072322
-0.20216468 0.35770416 -0.1096901 0.14858283 0.008375856 0.0052429307 -0.19432583 -0.39545894
-0.08486595 0.17495689 -0.22596586 -0.55947125 -0.4003364 -0.30687833 0.108303554 0.30075577
0.7331625 -0.32898077 -0.043548252 0.24035811 0.106312685 0.034752958 0.00030215268 -0.2723055
00000000: 5a83 be3e bb46 1c3f c966 28be 1712 d83d
00000010: 7086 4dbe 0c5f c53b 271b 3f3e a799 8bbd
00000020: 72ab f93e 5270 02be a020 b03e ea26 8bbd
00000030: 88b4 0e3f 4458 933d 91f9 6fbd 8bc3 db3e
00000040: e408 dfbe 03a1 57be 385d c43e 914a 883f
00000050: 275a 99be 2ea4 573f 76d4 19bf 633d 153e
00000060: 06a5 2a3e a9d4 e2be 1d29 3ebe 4eaf 133d
00000070: 5ebe 183f 20f7 073e 49a6 dc3c dc88 9c3d
00000080: e60a 90bf cc7c 86be 6614 80be a3c3 773e
00000090: 1f56 53be 6591 173a 4f9c 4bbf 028d f9be
000000a0: ffa4 283e 1187 f33e 40be b23e 8c24 d23d
000000b0: 98cb f83b 697d 55bc a486 bdbe ceae fb3e
000000c0: 6209 9abf ecda 1bbd 4de7 5a3e 35ca 7a3d
000000d0: 8155 623f 1060 db3d f18a 63bd e9c3 853e
000000e0: 10a9 133f 226e 6d3d cf5a 883e 3dcf c2be
000000f0: 333e a63f 49ca b53e 5be2 43bf 88da 863e
00000100: 41d9 9e3e 9265 2bbc 813b 52be f4ba 163e
00000110: 24ff cc3d b0e5 92bd 95d0 5fbe 9b4a 53be
00000120: c5ef 50bf 3ddb 563e cc16 113f 936d f5bc
00000130: 0444 f73e 5b87 793e 2fde 14bc 7356 42be
00000140: 0d55 293e 4a47 df3e 141e 78bf ecf7 d53d
00000150: 1d69 b83c cdbd 56bf f0a0 1b3e f1c9 153e
00000160: 136e 013f 4ca2 fd3d 0333 32be 640e 3f3f
00000170: d715 34be d9f7 f13d 2661 4fbe 3358 b03b
00000180: aab0 6e3f 9d3e 263e a9aa 5ebe f029 bb3e
00000190: 9b0e 5d3e 99a7 2abf 86d0 8e3e 78e6 983c
000001a0: c2a5 e7be 7a90 46be e9d2 43bd 3f41 7abe
000001b0: 3c62 7f3d c556 a9bc 6f1e 193d 72ed edbd
000001c0: f47c 78bd 1928 17be 07f7 ebbe d85c a3bc
000001d0: 7807 323f 2470 b43e 52bd e1bd f9cf 0abd
000001e0: 4242 0bbf 5f06 033f 9c90 5b3e d8e3 3a3e
000001f0: 0d01 debd f938 413f 8cf7 c7be adf6 04be
00000200: c6e6 e6be a09f 93be 9436 84be e476 c0bc
00000210: 5a55 66bc b6cd 8c3f 627a 603e 15ac 303d
00000220: 6e31 27be f9f8 a73d 2ef3 0bbf f3b7 3bbc
00000230: 70be 10bf 326a 49be c7b6 303d ea59 9e3e
00000240: deaf 813e bc46 083f 37af b13e 4c69 90be
00000250: 75b2 5b3e e095 48be d400 c83e 6cd7 803d
00000260: 07c7 07be be00 2abc a91f 363d 3a69 d23e
00000270: 6730 eabe 7cf7 b13e cc0e 37bd fa99 9fbd
00000280: 1b5d c03e d603 993e 5674 6c3f c23c ae3b
00000290: a77e 80be 00e8 fabd ed2b f33e e690 d93d
000002a0: 6c50 c6bd e45b fc3c 9370 c93d 56f5 74be
000002b0: 00a9 a43e 886a 3cbe a652 18be 5e82 93be
000002c0: 3e8a e43d 2081 c13d 567f 25be 5a33 48be
000002d0: 5045 75be 0403 edbc c125 3f3f efe0 053d
000002e0: ba49 53bf df0f febc 0479 cd3e 3546 05be
000002f0: 0ef4 8bbe 4dcc 833d 7c33 8cbe eea9 023f
00000300: 3fbf 35be d8dd 41be 201c f0bc b45d 9ebf
00000310: 33a8 dcbc 419d bfbd 891b cdba 8ede 0b3f
00000320: 51ea 333e 7cdd 473d 64d6 75be ee81 94bf
00000330: 8cec 8cbd aa67 3738 237d 5e3e 1e8d a23e
00000340: 9d8a 2f3e 4143 713e a488 8f3d e0b3 babe
00000350: ffd8 a33c b7ad e9bc 6f98 163e c8f8 103d
00000360: 2bd4 47be 2a3e 123f b078 85bd b3fa bfbe
00000370: 9abd 19bf a015 7abd 0368 643f b2d3 a6be
00000380: 1956 aebe 302c 333e 6310 5ebe 4b19 8dbd
00000390: 3a3a 54be 4104 62be 6667 d93e 8f1d 943d
000003a0: 4204 4fbe 0025 b73e 34a5 e0bd 1926 183e
000003b0: e33a 093c e4cc ab3b 5afd 46be 9879 cabe
000003c0: 33ce adbd e627 333e 9863 67be 8239 0fbf
000003d0: e5f8 ccbe 281f 9dbe 41ce dd3d a9fc 993e
000003e0: 8ab0 3b3f 2b70 a8be a75f 32bd 7020 763e
000003f0: 77ba d93d 1e59 0e3d 3f6a 9e39 a06b 8bbe

fc.2.bias f4 [64]
-0.09762856 0.1122461 -0.073080115 0.04831777 -0.022272918 -0.018496588 -0.16566397 0.10561385
-0.01359656 0.24332878 0.0053509 0.09343907 0.05122507 -0.12824868 0.11115594 -0.063267775
0.19073524 0.24476436 -0.12202656 0.12885685 0.2083277 0.0041006925 -0.14772522 -0.20635602
-0.01646948 -0.24390058 0.05773695 -0.06779855 0.15847254 0.12246114 -0.044524994 0.025320902
-0.03114597 0.20872901 0.041100673 -0.060435757 -0.061086696 0.007945618 0.053160552 -0.067668706
-0.23860188 -0.1524278 0.060214896 0.1483582 -0.16144112 0.19576786 0.11020256 0.012675534
0.07317289 0.19127221 -0.18465795 -0.017757358 -0.20580192 -0.24879381 -0.121347345 -0.06668097
-0.21032849 0.31762162 -0.097238585 -0.10136547 -0.14961809 0.17811769 0.25666004 0.0043715774
00000000: 7cf1 c7bd 49e1 e53d 07ab 95bd dbe8 453d
00000010: b275 b6bc 2886 97bc d1a3 29be 134c d83d
00000020: 1bc4 5ebc 2e2b 793e 9a56 af3b fc5c bf3d
00000030: 61d1 513d 9f53 03be baa5 e33d 8992 81bd
00000040: 1950 433e 82a3 7a3e 10e9 f9bd 0df3 033e
00000050: db53 553e 1a5f 863b 4845 17be fe4e 53be
00000060: 01eb 86bc 13c1 79be 957d 6c3d f7d9 8abd
00000070: a046 223e e8cc fa3d d75f 36bd c86d cf3c
00000080: d525 ffbc 0fbd 553e 2e59 283d 7c8b 77bd
00000090: 0b36 7abd 562e 023c e1be 593d e495 8abd
000000a0: 0d54 74be 0916 1cbe e5a3 763d 36eb 173e
000000b0: d250 25be 5f77 483e e1b1 e13d 0bad 4f3c
000000c0: abdb 953d dddc 433e f916 3dbe e177 91bc
000000d0: bdbd 52be cec3 7ebe f584 f8bd 0890 88bd
000000e0: 5a60 57be 4d9f a23e 0625 c7bd b398 cfbd
000000f0: 7c35 19be 7c64 363e f268 833e 733f 8f3b

fc.4.weight f4 [33, 64]
-0.12034102 0.027109697 -0.06825033 -0.051527604 0.010162711 0.10543521 -0.035493523 -0.11413686
-0.048771113 -0.033823 0.027713224 0.015970126 -0.10806945 -0.032828793 -0.041978136 0.10887982
-0.090340376 0.07717194 -0.050560564 0.09103952 -0.037026897 0.0007199496 0.108394474 0.06285328
-0.074729204 -0.077256635 0.07457091 0.07474287 0.0102042705 -0.0014033914 0.048304394 -0.027419627
0.05263701 0.05897878 0.093599185 0.09851289 0.08748616 0.12029828 -0.004951194 0.03012383
-0.04948114 -0.007477075 -0.014544129 0.111444324 0.02583772 0.07930195 0.040160418 -0.054365456
-0.12094909 -0.08887412 0.070855826 0.0067632347 0.038433 -0.07339722 0.07741435 0.021652162
0.08885135 0.08634229 -0.0636151 0.0449681 -0.0916522 -0.12366615 -0.014446706 -0.124344364
0.044200778 0.12025012 -0.07656737 0.08794299 0.035753638 0.013225809 0.05473499 0.11802618
-0.10053994 0.034179717 -0.09537266 0.09335397 -0.03409955 0.07909535 -0.016116425 0.022469714
-0.040248588 0.012753472 -0.03767468 0.01986669 0.05174181 -0.06815964 -0.09856373 -0.055506527
-0.10777761 -0.10817073 0.11737327 -0.06821491 -0.07670164 -0.12084387 -0.12432167 -0.0364881
0.06657615 0.021224827 0.10920368 -0.05084528 0.10720861 0.008760259 0.074476 0.023377687
-0.018288687 0.051118135 0.06261924 -0.09127644 0.004454404 -0.114309 0.0824056 0.0009988099
0.00804162 -0.06791657 -0.0511169 0.09083733 0.08337471 0.07086356 0.091184154 -0.11816439
-0.042647734 0.041952178 0.03949003 -0.04358037 0.02250491 -0.117542624 -0.080202624 -0.10304794
0.03686607 -0.046574816 0.0014814287 -0.12423991 -0.024856418 -0.003283441 -0.03066878 -0.015868917
-0.053441033 0.11024609 0.014710262 0.09335439 -0.048841298 0.12116012 0.03259945 0.033790514
-0.0326311 0.054102898 0.03396043 -0.017210037 -0.01689142 -0.1145228 -0.0966436 -0.05496551
0.080972314 0.090984896 0.040138647 -0.0766781 -0.07893297 -0.0004425794 0.050300807 -0.053894818
0.047320694 -0.087708026 0.039522126 -0.07364607 -0.021426499 -0.09990735 0.009476498 0.10975213
-0.12378238 0.056178242 0.11378029 -0.043528825 -0.043328077 0.122251734 0.1105542 0.0268282
-0.051156268 0.0082731545 -0.016282603 0.07351719 -0.038956627 -0.113624975 -0.042753696 -0.04121074
-0.1014024 -0.02962628 -0.10828303 -0.03134261 -0.07964815 -0.035091206 0.111848384 0.04384993
-0.06360085 0.020971656 0.0047129095 -0.012900248 0.062885955 0.101447776 0.09044434 -0.024496153
0.06458722 0.122287124 0.0719551 -0.11070593 -0.006091982 -0.100085884 -0.121928126 0.0998836
-0.0334495 -0.004692033 -0.030419886 0.09881495 -0.060394943 0.0044033825 0.055028975 0.065506116
0.0036201924 -0.1056107 -0.029476523 -0.016213968 0.04691218 -0.0050102323 -0.10196361 -0.075414315
0.0032880306 -0.0098302215 0.11507854 -0.030248314 0.05845429 0.123868346 0.0590173 -0.06909621
0.034878507 -0.047575995 -0.07693344 0.0782561 -0.06332849 0.095086336 0.05185646 -0.010193393
-0.089933485 0.013469428 0.11280657 -0.124308646 -0.071952134 -0.00042583048 -0.06868446 0.080106705
0.116662025 0.11641052 -0.038896635 0.06989497 -0.028471947 -0.118262246 -0.010919571 -0.06507705
00000000: 5a75 f6bd 2815 de3c d4c6 8bbd 9c0e 53bd
00000010: 8081 263c 6aee d73d a861 11bd 96c0 e9bd
00000020: 38c4 47bd fc89 0abd d806 e33c c8d3 823c
00000030: 8453 ddbd 7c77 06bd 44f1 2bbd 62fc de3d
00000040: 6004 b9bd 520c 9e3d 9818 4fbd ee72 ba3d
00000050: 84a9 17bd 00bb 3c3a ecfd dd3d 38b9 803d
00000060: a00b 99bd ba38 9ebd a2b8 983d ca12 993d
00000070: d02f 273c 00f2 b7ba d4da 453d 209f e0bc
00000080: e899 573d bc93 713d eeb0 bf3d 20c1 c93d
00000090: f22b b33d f25e f63d a03d a2bb 40c6 f63c
000000a0: bcac 4abd 4002 f5bb 804a 6ebc ec3c e43d
000000b0: a0a9 d33c 1069 a23d 407f 243d 50ae 5ebd
000000c0: 28b4 f7bd a203 b6bd dc1c 913d 209e dd3b
000000d0: ec6b 1d3d 4851 96bd 6a8b 9e3d e05f b13c
000000e0: b2f7 b53d 3ad4 b03d a248 82bd 7830 383d
000000f0: 26b4 bbbd ae44 fdbd e0b1 6cbc 42a8 febd
00000100: e00b 353d b245 f63d 5acf 9cbd 741b b43d
00000110: 6872 123d 10b1 583c cc31 603d b6b7 f13d
00000120: e2e7 cdbd 0800 0c3d be52 c3bd 5e30 bf3d
00000130: f8ab 0bbd befc a13d 9806 84bc 6812 b83c
00000140: b4db 24bd f0f3 503c c450 1abd 78bf a23c
00000150: 38ef 533d 4897 8bbd c8db c9bd d05a 63bd
00000160: 82ba dcbd 9e88 ddbd 6661 f03d 42b4 8bbd
00000170: c015 9dbd fe7c f7bd 5c9c febd 8c74 15bd
00000180: 1459 883d b0df ad3c 2ea6 df3d 2443 50bd
00000190: 3090 db3d 3087 0f3c e086 983d 9082 bf3c
000001a0: 28d2 95bc 4061 513d 843e 803d 24ef babd
000001b0: 40f6 913b d61a eabd 44c4 a83d 80ea 823a
000001c0: 00c1 033c d817 8bbd f45f 51bd ec08 ba3d
000001d0: 5cc0 aa3d ea20 913d c2be ba3d 2c00 f2bd
000001e0: 64af 2ebd 0cd6 2b3d 4cc0 213d 5481 32bd
000001f0: 385c b83c 30ba f0bd 4641 a4bd cc0a d3bd
00000200: e000 173d 3cc5 3ebd 802c c23a 7e71 febd
00000210: b09f cbbc 002f 57bb 183d fbbc 88ff 81bc
00000220: fce4 5abd b4c8 e13d 5003 713c 9630 bf3d
00000230: d00d 48bd cc22 f83d 0087 053d ec67 0a3d
00000240: 30a8 05bd 009b 5d3d 181a 0b3d 10fc 8cbc
00000250: e05f 8abc ee8a eabd 14ed c5bd 8423 61bd
00000260: d0d4 a53d 4a56 ba3d 6c68 243d 6809 9dbd
00000270: 9ca7 a1bd 000a e8b9 3808 4e3d d0c0 5cbd
00000280: 58d3 413d 44a0 b3bd f4e1 213d c0d3 96bd
00000290: a086 afbc 3a9c ccbd 5043 1b3c bac5 e03d
000002a0: 9e81 fdbd 281b 663d a405 e93d 484b 32bd
000002b0: c878 31bd 1e5f fa3d 3e6a e23d d0c6 db3c
000002c0: 3c89 51bd 208c 073c 1863 85bc 2e90 963d
000002d0: fc90 1fbd 36b4 e8bd 801e 2fbd 98cc 28bd
000002e0: 10ac cfbd d0b2 f2bc 7ec3 ddbd 1c61 00bd
000002f0: 921e a3bd ccbb 0fbd c410 e53d fc9b 333d
00000300: 2a41 82bd c0cc ab3c c06e 9a3b 905b 53bc
00000310: 5aca 803d dac3 cf3d e23a b93d 28ac c8bc
00000320: 4e46 843d ac71 fa3d 325d 933d cab9 e2bd
00000330: 409f c7bb d4f9 ccbd 74b5 f9bd c68f cc3d
00000340: 5802 09bd a0bf 99bb 2033 f9bc 7e5f ca3d
00000350: b060 77bd 404a 903b 1066 613d 1228 863d
00000360: c040 6d3b 6c4a d8bd c078 f1bc 28d3 84bc
00000370: fc26 403d e02c a4bb 4cd2 d0bd d272 9abd
00000380: 007c 573b f00e 21bc 4cae eb3d 50cb f7bc
00000390: c46d 6f3d b0ae fd3d 20bc 713d 5082 8dbd
000003a0: c4dc 0e3d 0cdf 42bd 488f 9dbd bc44 a03d
000003b0: 5eb2 81bd a0bc c23d 7067 543d 3002 27bc
000003c0: 0c2f b8bd e0ae 5c3c 2207 e73d 8895 febd
000003d0: a45b 93bd 0042 dfb9 70aa 8cbd fc0e a43d
000003e0: 80ec ee3d a468 ee3d 1452 1fbd 1825 8f3d
000003f0: 003e e9bc 7a33 f2bd 00e8 32bc 1e47 85bd

fc.4.bias f4 [33]
0.106656715 0.10272318 -0.1194302 -0.09870279 0.19317399 0.45243868 -0.5291379 -0.19660076
0.3323557 0.35459214 -0.5478623 -0.15019163 0.27878088 0.0030828088 -0.21814473 -0.20469412
0.17339428 -0.087586045 -0.23696025 -0.054997854 0.18127705 -0.03413638 -0.13384548 0.13523106
0.01976708 -0.26637697 -0.16988924 0.2634589 -0.25848162 -0.41216257 -0.06514939 0.50724506
0.12968294
00000000: d66e da3d 8860 d23d d297 f4bd b024 cabd
00000010: 67cf 453e 0ba6 e73e 9575 07bf b651 49be
00000020: 872a aa3e 1a8d b53e b440 0cbf d6cb 19be
00000030: 5ebc 8e3e f308 4a3b 5561 5fbe 569b 51be
00000040: 458e 313e 5060 b3bd b5a5 72be 6e45 61bd
00000050: b1a0 393e 97d2 0bbd ca0e 09be 037a 0a3e
00000060: 92ee a13c 9062 88be 72f7 2dbe 16e4 863e
00000070: b457 84be f906 d3be 0b6d 85bd d0da 013f
00000080: 9bcb 043e
