models/policy.pt (torch_old, 99515 bytes, 6 tensors)

fc.0.weight f4 [128, 110]
-0.24964117 0.08563252 -0.20932849 0.017215868 -0.18951744 -0.09773376 -0.31683874 -0.18429427
-0.05413 0.2906325 0.06316612 0.35945234 -0.009789768 -0.28007075 0.0032484874 -0.06739491
-0.26814267 -0.057287198 0.0023303598 0.05695827 0.055107605 0.053455874 -0.013497336 0.21008924
-0.036518738 0.13336593 -0.11045377 0.06784091 0.17049332 -0.08643039 0.09803464 0.10044621
0.089468725 0.26883665 0.354224 0.28811434 0.036568917 0.09885592 0.15724005 0.0034348457
0.1818548 -0.20590632 0.11422723 0.25170058 0.037015215 0.18070413 0.17136285 0.06704072
0.046237957 0.32116464 0.21727805 0.23509292 0.22204064 0.2239518 0.120780796 0.08204646
0.017038194 0.24845545 0.22660613 0.040947236 -0.025763044 0.13279617 0.20024206 0.062371273
-0.024847817 0.16430286 0.28043634 0.42133573 0.09909384 0.13534965 0.2868785 0.030116424
0.1562723 0.158045 -0.08021271 -0.19266945 -0.040675577 -0.02281762 0.016752629 0.14062347
0.013956852 0.26374766 0.0036242667 0.068418294 -0.083056 -0.13377061 -0.051663987 -0.012550023
-0.019723179 0.04910447 0.08097499 0.25053433 0.01558532 0.22121103 -0.24248457 0.1794344
-0.096726105 0.13384417 0.055705715 0.07618199 -0.025400978 -0.06947997 -0.027611103 -0.12898053
0.14331163 0.06539139 -0.14458115 0.056737155 0.04659376 -0.087032005 0.7368916 0.1750612
0.4038541 0.06277355 0.014806308 0.06390887 -0.06829023 -0.066587135 0.17524187 0.09885405
-0.28469396 0.123938724 0.22020996 0.22365974 -0.098641254 -0.034170333 0.051736236 0.06953411
0.22464707 0.3094683 -0.090390705 -0.10794662 0.1534291 0.017100222 -0.09454609 -0.18782488
-0.1265459 0.05367786 0.10099526 -0.24987158 0.017551057 -0.34893414 0.0015440561 0.017208297
-0.1971548 -0.47631994 -0.20816861 0.027019545 -0.29542702 -0.12900174 -0.13256228 -0.017288892
0.25789618 0.22160444 -0.21016994 -0.17050911 -0.21357626 -0.40455887 -0.12484802 0.18867688
-0.009020324 -0.17785268 0.07580095 0.11799986 -0.13951689 0.09012362 -0.027631223 0.010464684
-0.31288797 -0.2500588 -0.009522268 -0.1701046 -0.015368043 0.050416496 -0.1780975 -0.32764867
-0.05280515 -0.31443772 -0.1612043 -0.2583092 0.1063962 -0.009256418 0.07873536 -0.07951161
-0.21231516 0.31854537 0.25244093 0.13782403 -0.2249011 0.015818613 -0.07610151 -0.24567182
-0.12866381 0.11390032 -0.091510534 -0.10263198 0.21457647 -0.17291833 -0.040792245 0.034375016
-0.27014148 -0.012920737 0.0688401 0.16839023 -0.03896003 0.29450107 -0.065157466 0.30045715
0.03165039 -0.09148458 0.08168827 -0.06447941 -0.16848189 -0.008658027 0.10641719 -0.121187694
0.07325602 -0.30054995 0.1545808 0.23484932 -0.2271232 -0.068098895 0.057989895 0.06792392
0.04312033 -0.18425149 -0.29265028 -0.2444179 0.10157771 0.16244838 0.19789441 0.0033375998
0.010087788 -0.22075543 -0.10769334 -0.20920424 -0.12890738 -0.10018918 -0.1740052 0.07236131
0.036769163 -0.03348167 -0.046852417 0.12770568 0.058911886 0.018314868 -0.11235006 -0.09190372
0.12799627 0.01582023 0.09293838 -0.0011604349 0.05479266 0.057461206 0.21005848 0.23021333
00000000: efa1 7fbe 1a60 af3d 355a 56be 4b08 8d3c
00000010: dc10 42be a328 c8bd b038 a2be a3b7 3cbe
00000020: 6bb7 5dbd c8cd 943e 3d5d 813d 230a b83e
00000030: 4365 20bc 6f65 8fbe 93e4 543b 5806 8abd
00000040: ff49 89be fba5 6abd f3b8 183b 134d 693d
00000050: 83b8 613d 8cf4 5a3d ee23 5dbc a221 573e
00000060: ac94 15bd 1491 083e 9635 e2bd 2df0 8a3d
00000070: cd95 2e3e 6b02 b1bd 63c6 c83d beb6 cd3d
00000080: 613b b73d f5a4 893e d95c b53e b983 933e
00000090: 4ac9 153d f974 ca3d 8903 213e 261b 613b
000000a0: 2538 3a3e 1bd9 52be f7ef e93d e6de 803e
000000b0: 449d 173d 810a 393e be79 2f3e a54c 893d
000000c0: 0364 3d3d b16f a43e 237e 5e3e 33bc 703e
000000d0: 9f5e 633e 9f53 653e ec5b f73d f907 a83d
000000e0: af93 8b3c 1b6b 7e3e 700b 683e 4ab8 273d
000000f0: 050d d3bc b8fb 073e 410c 4d3e 0579 7f3d
00000100: a68d cbbc 023f 283e 5a95 8f3e 51b9 d73e
00000110: b6f1 ca3d 1999 0a3e bde1 923e b8b6 f63c
00000120: d905 203e 8cd6 213e 9046 a4bd 244b 45be
00000130: 6f9b 26bd 04ec babc cf3c 893c 99ff 0f3e
00000140: 48ab 643c ef09 873e 1b85 6d3b e41e 8c3d
00000150: 4419 aabd 2afb 08be 9e9d 53bd 9d9e 4dbc
00000160: 8192 a1bc c521 493d 37d6 a53d 0946 803e
00000170: 9259 7f3c 2585 623e e04d 78be a7bd 373e
00000180: 5618 c6bd 720e 093e ad2b 643d 4e05 9c3d
00000190: b615 d0bc 844b 8ebd ae30 e2bc 7913 04be
000001a0: 49c0 123e eceb 853d 150d 14be 3865 683d
000001b0: 19d9 3e3d d63d b2bd eea4 3c3f 3e43 333e
000001c0: f7c5 ce3e 6b8f 803d 2896 723c a7e2 823d
000001d0: c0db 8bbd d65e 88bd 9b72 333e fe73 ca3d
000001e0: 68c3 91be 96d3 fd3d b87e 613e 0f07 653e
000001f0: 6d04 cabd 31f6 0bbd 60e9 533d e667 8e3d
00000200: e209 663e a172 9e3e c31e b9bd 1e13 ddbd
00000210: 851c 1d3e c415 8c3c 61a1 c1bd 2a55 40be
00000220: 4095 01be 51dd 5b3d 9ad6 ce3d 56de 7fbe
00000230: 3cc7 8f3c 7fa7 b2be ed61 ca3a 6af8 8c3c
00000240: f3e2 49be 35e0 f3be 272a 55be 1858 dd3c
00000250: 3642 97be 0819 04be 68be 07be 6fa1 8dbc
00000260: f80a 843e 46ec 623e ca36 57be f199 2ebe
00000270: bcb3 5abe 5722 cfbe 52b0 ffbd 8334 413e
00000280: fbc9 13bc 031f 36be 873d 9b3d e9a9 f13d
00000290: 84dd 0ebe bc92 b83d e05a e2bc 1174 2b3c
000002a0: da32 a0be b507 80be 4903 1cbc e62f 2ebe
000002b0: 3fca 7bbc 8781 4e3d 315f 36be 91c1 a7be
000002c0: 374a 58bd fbfd a0be bd12 25be 1a41 84be
000002d0: 40e6 d93d 3ba8 17bc 0140 a13d fcd6 a2bd
000002e0: 2569 59be 6118 a33e f03f 813e be21 0d3e
000002f0: 794c 66be 0996 813c 1cdb 9bbd 6591 7bbe
00000300: 72c0 03be 9244 e93d e069 bbbd b730 d2bd
00000310: efb9 5b3e 8111 31be c515 27bd d1cc 0c3d
00000320: fc4f 8abe 80b1 53bc 0afc 8c3d 7d6e 2c3e
00000330: 8d94 1fbd d8c8 963e 4771 85bd 85d5 993e
00000340: d7a3 013d 445c bbbd 2e4c a73d c80d 84bd
00000350: 8486 2cbe 66da 0dbc 41f1 d93d 4131 f8bd
00000360: 4107 963d afe1 99be 6e4a 1e3e 577c 703e
00000370: fc92 68be 6f77 8bbd d086 6d3d b21b 8b3d
00000380: f19e 303d 6cac 3cbe 42d6 95be b048 7abe
00000390: f907 d03d de58 263e d5a4 4a3e a2bb 5a3b
000003a0: 4047 253c b60d 62be 538e dcbd a339 56be
000003b0: 4c00 04be fc2f cdbd 6b2e 32be 2b32 943d
000003c0: 439b 163d 1324 09bd 52e8 3fbd 47c5 023e
000003d0: 974d 713d 1009 963c ca17 e6bd 0438 bcbd
000003e0: 7411 033e 6d99 813c 7a56 be3d bc19 98ba
000003f0: 456e 603d 715c 6b3d 9219 573e 0bbd 6b3e

fc.0.bias f4 [128]
-0.11858733 0.011082493 -0.13549228 -0.1422937 -0.13879949 -0.00016690913 0.14357932 0.08213862
0.0815487 0.10799293 -0.052381914 -0.03873347 -0.14825118 -0.010635535 0.013731652 -0.03830418
-0.024987118 -0.15702924 -0.18175444 0.07598527 0.1606346 0.11379423 -0.16774648 0.09590479
-0.12447498 -0.10768518 0.051088225 -0.033296652 0.0057572955 0.1279031 -0.082605444 -0.15836841
-0.042084575 -0.1477566 -0.022912525 -0.018927302 0.073282346 -0.29102418 -0.03163828 0.06872085
-0.05189855 0.042720508 0.060669392 -0.07796133 -0.037084382 0.061374813 0.13232283 -0.006938092
0.050919294 -0.056052163 -0.014650413 0.06245974 0.12421681 0.16888754 0.0880326 -0.06410879
0.06514112 -0.14311053 0.043235805 -0.016530216 -0.07848039 -0.0029329571 0.023024384 0.06793554
-0.031928822 -0.031595778 0.16933212 0.06588312 -0.13216436 -0.13222215 -0.06458308 -0.07085797
0.060773946 -0.05060067 -0.08452755 -0.014555505 -0.07795262 0.013252521 -0.039677907 0.028037386
-0.027905358 0.054587334 -0.05169514 0.0048965327 -0.14228196 0.042851508 0.15532833 -0.10429263
-0.048438508 -0.090028785 -0.051995736 0.13588844 -0.049371086 -0.07066163 0.07865856 -0.13054287
0.019452875 0.007373255 0.010097043 0.08248095 -0.090860106 0.15727401 -0.0537502 0.119905405
-0.058404744 0.26520887 -0.16609377 0.13516109 -0.081826165 0.06794876 -0.13991123 -0.05914302
-0.08629813 0.021763436 -0.07175286 -0.11399429 0.13750468 -0.16420385 -0.12354861 -0.14736378
0.1638873 -0.13492501 -0.122456655 -0.17283541 0.056264818 0.024055524 0.025977528 0.023615994
00000000: eadd f2bd 5893 353c 7dbe 0abe 71b5 11be
00000010: 7421 0ebe 5404 2fb9 7506 133e 4b38 a83d
00000020: 0103 a73d 662b dd3d 6b8e 56bd fda6 1ebd
00000030: 28cf 17be ab40 2ebc b9fa 603c d8e4 1cbd
00000040: c9b1 ccbc 46cc 20be d61d 3abe 2a9e 9b3d
00000050: 667d 243e f30c e93d bcc5 2bbe bb69 c43d
00000060: bdec febd 0c8a dcbd e341 513d 1262 08bd
00000070: b2a7 bc3b 08f9 023e 0b2d a9bd 542b 22be
00000080: e060 2cbd 824d 17be 0cb3 bbbc 6e0d 9bbc
00000090: 0e15 963d 1f01 95be 2497 01bd 84bd 8c3d
000000a0: 9393 54bd b3fb 2e3d 7880 783d 31aa 9fbd
000000b0: cbe5 17bd 2864 7b3d a37f 073e ef58 e3bb
000000c0: c090 503d f496 65bd 4908 70bc c9d5 7f3d
000000d0: 6265 fe3d dbf0 2c3e 704a b43d 784b 83bd
000000e0: b568 853d 918b 12be 0718 313d 606a 87bc
000000f0: 54ba a0bd db36 40bb a29d bc3c ca21 8b3d
00000100: ccc7 02bd 936a 01bd 6665 2d3e bbed 863d
00000110: 1856 07be 3e65 07be 2244 84bd fc1d 91bd
00000120: 1aee 783d a642 4fbd c81c adbd 367a 6ebc
00000130: a0a5 9fbd 1a21 593c 4d85 22bd a9ae e53c
00000140: c799 e4bc f896 5f3d 48be 53bd 1873 a03b
00000150: 5db2 11be 1085 2f3d 640e 1f3e 6097 d5bd
00000160: 7567 46bd 0361 b8bd 7bf9 54bd 5726 0b3e
00000170: 5639 4abd 0bb7 90bd bd17 a13d 08ad 05be
00000180: a35b 9f3c 599b f13b 116e 253c c6eb a83d
00000190: dd14 babd 700c 213e 2b29 5cbd f790 f53d
000001a0: d039 6fbd 75c9 873e 7c14 2abe ab67 0a3e
000001b0: 7a94 a7bd b828 8b3d e444 0fbe f43f 72bd
000001c0: 13bd b0bd 3c49 b23c 2af3 92bd d775 e9bd
000001d0: 07ce 0c3e 0e25 28be 0e07 fdbd 88e6 16be
000001e0: 13d2 273e c829 0abe 8eca fabd c4fb 30be
000001f0: f075 663d 1710 c53c d3ce d43c 5476 c13c

fc.2.weight f4 [64, 128]
0.27190349 0.08618233 0.46622 1.1516911 -0.023568114 -0.008361357 -0.6188987 -0.30513266
-0.23013808 0.04255693 -0.032608137 -0.14055334 0.69545144 -0.05891325 0.570998 0.16251244
0.5459518 0.50333565 0.56809413 0.45792317 -0.18453766 -0.077085674 0.6975702 -0.38736776
0.13535282 -0.052633002 -0.20929812 0.4638669 0.0151794255 -0.17114468 0.21108875 0.6653485
0.7957356 0.80117095 -0.10384874 0.13522173 -0.1549136 0.14348769 -0.039753057 -0.80795777
0.81221414 -0.16807899 -0.33418265 0.52124614 -0.6022968 0.24613479 -0.5273347 0.16125654
-0.777171 0.43163204 -0.20277262 -0.34244186 -0.8379174 -0.58593446 -0.13498873 0.037475973
0.13637275 0.036163963 0.38059044 0.08507604 0.2300362 -0.42829183 -0.4471417 -0.064176075
0.16955741 -0.025454737 -1.0308697 0.061570544 0.27905533 0.61454 0.17416355 0.05751577
-0.23418719 -0.62061775 -0.005810966 0.11279575 0.61141443 -0.25402313 -0.10617837 -0.026440537
0.20706484 -0.6720539 -0.022484347 -0.13191806 -0.23174585 -0.39641288 -0.06556125 0.525044
-0.35304883 0.49675688 -0.0111962445 -0.55904484 -0.398643 0.39565462 0.10298388 0.37579077
-0.1448533 0.0696015 0.1276603 -0.14478253 -0.013584012 -0.80003196 0.12808697 -0.01947599
-0.059939075 -0.17793886 0.21815076 -0.10796065 -0.0010740198 -0.1857926 0.61678535 0.20596239
-0.04340246 -0.31222376 0.21094932 -0.22892757 -0.32591638 0.34396252 0.77996266 0.3835387
-0.21258382 0.5385576 -0.112080954 0.18645072 -0.32273522 -0.37961358 0.24779573 0.35728386
-0.720429 0.29669797 -0.4648139 -0.10487138 0.30214784 0.9404879 -0.22536957 0.2005417
-0.004210095 -0.0055786306 -0.19144745 0.29431334 -0.09950637 -0.6543629 -0.08849823 0.56925625
-0.20158784 0.07068657 0.42077094 -0.50521195 0.47217992 -0.07837372 0.13600804 0.09629124
-0.04873969 0.05167315 -0.02698375 -0.23756348 -0.025783598 0.47918904 0.38105366 0.018476892
0.1695964 0.5109792 0.39069104 -0.4096577 -0.33663064 -0.042398028 0.41638014 -0.115763
0.39299735 -0.70822406 -0.3310269 -0.5715418 -0.3195615 -0.0021122503 0.03651488 0.06172353
0.31487918 0.25080463 -0.34787834 -0.07432033 -0.30566874 -0.15041216 0.32063535 0.1424953
-0.68603647 -0.02285362 -0.12025424 -0.4351634 -0.14059313 -0.16733676 -0.794552 -0.04526975
0.10825412 -0.0007062783 0.121826164 -0.37428477 0.20237821 0.17470156 0.06757013 0.60938644
0.7474638 0.2881396 -0.5795561 -0.47816682 0.5157693 -0.5600432 0.4318428 -0.1343745
0.07854574 0.19783597 0.002409394 0.17048357 0.29069036 0.20542099 -0.3013543 0.2153423
-0.31914914 -0.1401806 0.5527451 -0.102868184 -0.33435875 0.43473566 0.027162606 -0.013920851
-0.12427648 0.3392723 -0.21736512 -0.24880388 -0.191541 0.08472335 0.5191414 0.13370052
-0.26572242 0.05543651 -0.02797508 0.13852794 0.291353 0.06906028 -0.37251362 -0.19940065
-0.2079001 -0.36253414 -0.10829843 -0.52562386 -0.28812176 -0.13840777 -0.30152974 0.12224991
0.004297435 -0.4531431 0.20143841 0.020300597 -0.16318828 0.00589793 0.1201971 -0.05581415
00000000: ef36 8b3e 5d80 b03d 63b4 ee3e 9d6a 933f
00000010: eb11 c1bc 13fe 08bc 2570 1ebf 593a 9cbe
00000020: 51a9 6bbe 2d50 2e3d 1c90 05bd 37ed 0fbe
00000030: 1b09 323f 054f 71bd ed2c 123f a969 263e
00000040: 7fc3 0b3f 9bda 003f 9e6e 113f e874 ea3e
00000050: 71f7 3cbe 18df 9dbd f693 323f 1155 c6be
00000060: ee99 0a3e b495 57bd 3f52 56be f67f ed3e
00000070: 20b3 783c 8d40 2fbe a627 583e 4754 2a3f
00000080: 54b5 4b3f 8a19 4d3f a6ae d4bd 9177 0a3e
00000090: aca1 1ebe 70ee 123e 1ad4 22bd 52d6 4ebf
000000a0: 44ed 4f3f e61c 2cbe fd19 abbe 6370 053f
000000b0: 2030 1abf c20a 7c3e 68ff 06bf 6f20 253e
000000c0: aef4 46bf e0fe dc3e a0a3 4fbe 8a54 afbe
000000d0: c181 56bf cdff 15bf 7c3a 0abe 6880 193d
000000e0: 4ca5 0b3e aa20 143d c0dc c23e 593c ae3d
000000f0: 9c8e 6b3e 1149 dbbe c2ef e4be bf6e 83bd
00000100: 75a0 2d3e 7486 d0bc 8af3 83bf 6531 7c3d
00000110: 57e0 8e3e 7e52 1d3f ee57 323e a895 6b3d
00000120: c4ce 6fbe cee0 1ebf ea69 bebb 7501 e73d
00000130: a885 1c3f 520f 82be 0c74 d9bd d399 d8bc
00000140: ce08 543e b90b 2cbf 1831 b8bc 8715 07be
00000150: c94e 6dbe a1f6 cabe fa44 86bd 4969 063f
00000160: d1c2 b4be eb56 fe3e 7470 37bc 901d 0fbf
00000170: ef1a ccbe 3e93 ca3e 36e9 d23d a667 c03e
00000180: 6c54 14be 3b8b 8e3d 62b9 023e df41 14be
00000190: 7a8f 5ebc e5ce 4cbf 3b29 033e 1d8c 9fbc
000001a0: ad82 75bd 9b35 36be ea62 5f3e 791a ddbd
000001b0: 20c6 8cba 6a40 3ebe a5e5 1d3f cee7 523e
000001c0: c7c6 31bd cbdb 9fbe 1903 583e fd6b 6abe
000001d0: 83de a6be db1b b03e a2ab 473f 2f5f c43e
000001e0: 93af 59be e9de 093f b38a e5bd f0ec 3e3e
000001f0: 8d3d a5be b65c c2be 2abe 7d3e e9ed b63e
00000200: 096e 38bf cce8 973e 16fc edbe cec6 d6bd
00000210: 1fb3 9a3e d1c3 703f 48c7 66be ce5a 4d3e
00000220: d6f4 89bb f2cc b6bb cd0a 44be 3db0 963e
00000230: ffc9 cbbd 5484 27bf 8f3e b5bd c7ba 113f
00000240: 0b6d 4ebe 1fc4 903d 4a6f d73e 9255 01bf
00000250: 91c1 f13e 6782 a0bd b145 0b3e 5734 c53d
00000260: 45a3 47bd 3aa7 533d 060d ddbc d743 73be
00000270: 2038 d3bc 4458 f53e 7719 c33e da5c 973c
00000280: aeaa 2d3e 88cf 023f a808 c83e a7be d1be
00000290: da5a acbe 8ea9 2dbd c72f d53e 2715 edbd
000002a0: f336 c93e 2c4e 35bf 5c7c a9be 9050 12bf
000002b0: 919d a3be ae6d 0abb a090 153d d0d1 7c3d
000002c0: d837 a13e 7769 803e 1c1d b2be 4235 98bd
000002d0: 9d80 9cbe a505 1abe 512a a43e 4aea 113e
000002e0: 16a0 2fbf 8437 bbbc db47 f6bd bdcd debe
000002f0: a5f7 0fbe 545a 2bbe c367 4bbf c66c 39bd
00000300: 56b4 dd3d 8925 39ba ff7f f93d 41a2 bfbe
00000310: 3c3c 4f3e f7e4 323e 3562 8a3d c000 1c3f
00000320: ca59 3f3f 0987 933e ca5d 14bf 48d2 f4be
00000330: 7509 043f fe5e 0fbf 801a dd3e 7899 09be
00000340: 97dc a03d 8395 4a3e ece6 1d3b 3f93 2e3e
00000350: 5ed5 943e e159 523e 1c4b 9abe b182 5c3e
00000360: 8467 a3be 818b 0fbe b480 0d3f 8eac d2bd
00000370: 1231 abbe ac95 de3e 1d84 de3c 4814 64bc
00000380: ab84 febd 19b5 ad3e f694 5ebe 72c6 7ebe
00000390: 5323 44be 7083 ad3d 73e6 043f cae8 083e
000003a0: c50c 88be 6511 633d ff2b e5bc 45da 0d3e
000003b0: 382c 953e 7a6f 8d3d 1bba bebe af2f 4cbe
000003c0: c4e3 54be 139e b9be 91cb ddbd 498f 06bf
000003d0: b284 93be c4ba 0dbe 1b62 9abe 295e fa3d
000003e0: 7fd1 8c3b 5f02 e8be df45 4e3e 704d a63c
000003f0: d41a 27be 6c43 c13b e629 f63d 619d 64bd

fc.2.bias f4 [64]
-0.19095242 0.0756775 0.2548739 0.09988676 -0.118901715 0.15442409 0.058262523 -0.04528959
-0.09575349 0.068425335 0.07899987 0.057686303 -0.23951434 0.0034300876 -0.13728121 -0.33122388
-0.019985547 0.15980966 0.0043811407 -0.048058745 0.30058146 -0.16117756 -0.039238486 -0.11561728
-0.1993666 -0.12210295 -0.08627447 -0.12960826 0.09971768 0.004225038 0.029800942 -0.057612192
0.029416522 -0.1628808 -0.038926378 -0.14327979 -0.18048272 -0.22236536 0.14705577 -0.17603466
-0.10508673 -0.11993049 0.14167736 -0.033218473 -0.07652915 0.16301587 0.12770976 0.1655967
0.048838343 0.22604707 -0.22596826 -0.045062322 -0.21255651 -0.20874645 -0.40128347 -0.031539924
-0.13007568 0.21476275 -0.019195866 -0.21191086 -0.1256892 0.28009138 0.113353275 -0.16138029
00000000: 0889 43be cefc 9a3d d57e 823e 6e91 cc3d
00000010: be82 f3bd 5921 1e3e afa4 6e3d 9481 39bd
00000020: 681a c4bd 9522 8c3d afca a13d 7948 6c3d
00000030: 3f43 75be 52cb 603b 7293 0cbe 2d96 a9be
00000040: bbb8 a3bc 25a5 233e ac8f 8f3b 3fd9 44bd
00000050: d0e5 993e bb0b 25be 89b8 20bd c1c8 ecbd
00000060: c226 4cbe 1d11 fabd abb0 b0bd 07b8 04be
00000070: c838 cc3d 3072 8a3b 1b21 f43c c3fa 6bbd
00000080: ebfa f03c 39ca 26be 4471 1fbd f0b7 12be
00000090: 76d0 38be bfb3 63be ca95 163e 6e42 34be
000000a0: b637 d7bd 1e9e f5bd df13 113e 1810 08bd
000000b0: 51bb 9cbd a2ed 263e 59c6 023e 2e92 293e
000000c0: b70a 483d e278 673e 3964 67be 4593 38bd
000000d0: 6aa8 59be a1c1 55be 0775 cdbe 0230 01bd
000000e0: 8f32 05be c4ea 5b3e a640 9dbc 29ff 58be
000000f0: abb4 00be 2368 8f3e c325 e83d e040 25be

fc.4.weight f4 [33, 64]
-0.39361945 0.2611608 0.20218673 0.21420395 0.2144926 0.3974985 -0.122146316 -0.38163984
-0.42428526 -0.356364 0.26323575 0.33647636 -0.49246585 -0.23769845 -0.19579856 -0.1981797
0.12115099 -0.028807253 -0.013875409 -0.037530873 -0.02715481 -0.2601477 0.5764994 -0.06249915
-0.3123143 -0.0021761556 -0.2470163 -0.14781684 -0.24814871 -0.26121396 -0.2226393 -0.21369882
0.17155525 -0.42961997 0.31171784 0.08591625 -0.15441413 -0.033673313 0.10736121 -0.13127838
-0.14286648 -0.18971379 0.13474199 -0.005072034 0.27047765 0.35439286 0.49426237 -0.354282
-0.0640755 0.19561234 -0.20554544 0.4326288 -0.23937225 -0.4450502 -0.18257073 0.03305544
-0.13052064 0.34812573 -0.47573224 -0.20820557 -0.5485235 -0.009857815 -0.13559793 -0.47845328
-0.37664914 0.036963597 0.071147054 0.3634536 0.22389518 -0.025587037 -0.09232922 0.32492778
-0.03610224 -0.11603456 -0.039331473 0.111023374 -0.5617232 0.16245426 -0.63245463 -0.15362613
0.028620172 0.58924663 0.1795685 0.54369074 0.37701264 -0.2302473 -0.40008646 -0.39031625
-0.51136786 -0.8550458 0.1270455 -0.2781674 -0.3459445 -0.36861292 0.02999099 0.039482437
0.23027597 -0.083406515 0.3692792 -0.19085784 0.05105312 0.07324791 0.12625009 0.0045391317
-0.4964032 -0.07892032 0.1515976 -0.06010069 0.09575 0.07590543 0.29956722 -0.009025891
-0.2471567 0.024584182 -0.09965155 0.7306417 0.05494555 -0.15246381 -0.13105614 0.4388027
-0.692955 0.20421933 -0.2740838 -0.23883957 -0.24392167 -0.09410649 0.18703575 -0.11098509
0.58779633 -0.44367415 -0.3443022 -0.64268076 -0.31846967 -0.47957364 -0.60455084 0.23240732
0.24077782 0.43848267 0.15934499 -0.10418095 0.006531037 0.27657983 0.39939907 0.40434957
-0.14028615 -0.44792297 -0.69695896 -0.7073073 -0.5586794 0.26056188 -0.102788806 -0.51541436
0.43380755 0.6452685 0.63214004 0.22591454 0.0009158438 0.7598651 -0.62559545 -0.7276242
-0.049268115 0.41594255 -0.3249942 -0.030231219 0.15740867 -0.47984606 -0.31136793 0.6600963
0.36672774 -0.010617796 -0.34664726 -0.48147416 0.5375806 -0.06690108 -0.26649237 0.02622648
-0.44322646 -0.3919709 0.4235375 -0.039349504 0.39306572 0.46839258 0.35353133 -0.4074811
0.38527682 -0.38512594 0.27605596 0.4380963 0.5535546 -0.43161675 -0.2501239 0.43518937
0.2864192 -0.07500243 -0.3171552 -0.6279998 0.30660838 -0.160618 0.15222996 0.15008233
0.302331 0.4133119 -0.1310426 -0.58864117 0.33004802 -0.32093245 0.49774155 0.4938956
-0.12598541 -0.40723294 -0.34630176 -0.16466597 -0.23248428 0.33182132 -0.46675032 0.16540574
0.36052167 0.163316 0.34074003 0.2572787 0.52531224 -0.019941373 -0.09528492 -0.08109913
-0.2859947 0.28153008 0.05084434 -0.5044891 -0.004827851 0.54603076 0.27184045 -0.287149
0.09389823 0.22344457 -0.48497653 -0.33232662 0.006435619 -0.16903214 -0.24688448 0.24370939
-0.36002427 -0.32766542 0.59923875 0.12522167 0.21629432 0.31445107 0.17147717 -0.39394245
0.6719506 -0.32985625 0.38151345 0.4536054 0.119636044 -0.9463798 -0.36963314 0.2438541
00000000: 7d88 c9be deb6 853e 0a0a 4f3e 4858 5b3e
00000010: f3a3 5b3e ec84 cb3e d927 fabd 4c66 c3be
00000020: eb3b d9be 5875 b6be d6c6 863e a146 ac3e
00000030: 7c24 fcbe 3967 73be 6b7f 48be 9fef 4abe
00000040: 031e f83d 30fd ebbc af55 63bc f9b9 19bd
00000050: c473 debc 1432 85be 7795 133f 1cff 7fbd
00000060: a9e7 9fbe d59d 0ebb d7f1 7cbe 4c5d 17be
00000070: b21a 7ebe d6bd 85be 8ffb 63be ddd3 5abe
00000080: 2eac 2f3e 26f7 dbbe 7b99 9f3e dcf4 af3d
00000090: bd1e 1ebe 07ed 09bd 32e0 db3d d76d 06be
000000a0: 974b 12be 5544 42be cef9 093e 4e33 a6bb
000000b0: 0c7c 8a3e fb72 b53e f50f fd3e 7364 b5be
000000c0: 043a 83bd 9a4e 483e 817a 52be 8681 dd3e
000000d0: 001e 75be 9fdd e3be d2f3 3abe 2465 073d
000000e0: 34a7 05be 893d b23e 2d93 f3be d733 55be
000000f0: 096c 0cbf ac82 21bc 2fda 0abe d4f7 f4be
00000100: 28d8 c0be 2467 173d 8cb5 913d 9716 ba3e
00000110: c744 653e e89b d1bc 1a17 bdbd ef5c a63e
00000120: f1df 13bd 87a3 edbd 0a1a 21bd 3960 e33d
00000130: 17cd 0fbf 695a 263e 8ce8 21bf 2b50 1dbe
00000140: da74 ea3c ded8 163f cee0 373e 512f 0b3f
00000150: cd07 c13e f3c5 6bbe 22d8 ccbe 88d7 c7be
00000160: 01e9 02bf 48e4 5abf 3718 023e f56b 8ebe
00000170: a31f b1be d5ba bcbe aaaf f53c 56b8 213d
00000180: 77cd 6b3e 09d1 aabd 2a12 bd3e 3d70 43be
00000190: 141d 513d 0003 963d b447 013e ffbc 943b
000001a0: 8f28 febe faa0 a1bd 673c 1b3e 242c 76bd
000001b0: 9318 c43d 4e74 9b3d e060 993e 55e1 13bc
000001c0: a516 7dbe c464 c93c 1d16 ccbd 560b 3b3f
000001d0: 960e 613d 791f 1cbe 9533 06be bfaa e03e
000001e0: 8065 31bf df1e 513e b654 8cbe 5c92 74be
000001f0: 9ac6 79be e7ba c0bd 4d86 3f3e 274c e3bd
00000200: d279 163f 4229 e3be 6148 b0be ba86 24bf
00000210: 750e a3be ad8a f5be d8c3 1abf 2ffc 6d3e
00000220: 768e 763e cd80 e03e 552b 233e d25c d5bd
00000230: 4f02 d63b df9b 8d3e 097e cc3e e806 cf3e
00000240: 2ca7 0fbe 2956 e5be e76b 32bf 1712 35bf
00000250: 9d05 0fbf 5e68 853e f082 d2bd 32f2 03bf
00000260: 061c de3e 5130 253f eed3 213f 2456 673e
00000270: 3d15 703a 8586 423f 0627 20bf 9445 3abf
00000280: 5dcd 49bd 6cf6 d43e a465 a6be 76a7 f7bc
00000290: bd2f 213e 62ae f5be 9e6b 9fbe 12fc 283f
000002a0: bdc3 bb3e 44f6 2dbc c07b b1be c883 f6be
000002b0: e29e 093f 6f03 89bd b071 88be ead8 d63c
000002c0: 94ee e2be 69b0 c8be e8d9 d83e f22c 21bd
000002d0: e93f c93e 27d1 ef3e 0f02 b53e 5da1 d0be
000002e0: 0143 c53e 3a2f c5be 3557 8d3e 294e e03e
000002f0: c1b5 0d3f dffc dcbe 3d10 80be 24d1 de3e
00000300: 8aa5 923e e09a 99bd 2b62 a2be 98c4 20bf
00000310: c6fb 9c3e 0c79 24be 2ce2 1b3e 2faf 193e
00000320: 21cb 9a3e 9e9d d33e 0830 06be 30b1 16bf
00000330: 0efc a83e 4251 a4be fbd7 fe3e e2df fc3e
00000340: 5202 01be d680 d0be 774e b1be 329e 28be
00000350: 5c10 6ebe 7ce4 a93e e6f9 eebe 1f60 293e
00000360: 4c96 b83e 4f3c 273e 7a75 ae3e 09ba 833e
00000370: dd7a 063f 175c a3bc bd24 c3bd 4d17 a6bd
00000380: e66d 92be b624 903e 2842 503d 3326 01bf
00000390: f332 9ebb acc8 0b3f ac2e 8b3e 3205 93be
000003a0: b74d c03d a7ce 643e d84e f8be b726 aabe
000003b0: e3e1 d23b c316 2dbe 49cf 7cbe f48e 793e
000003c0: 1a55 b8be c3c3 a7be b667 193f 1c3a 003e
000003d0: 427c 5d3e bbff a03e b697 2f3e d3b2 c9be
000003e0: f404 2c3f ebe2 a8be bb55 c33e f83e e83e
000003f0: be03 f53d f245 72bf 8e40 bdbe e4b4 793e

fc.4.bias f4 [33]
0.37411025 0.26435515 -0.5374146 -0.42837965 0.21509467 0.02405817 -0.39257398 -0.1224337
0.4351035 0.0034404178 -0.40854704 0.008494147 0.22382021 -0.23700723 -0.16889669 0.15295503
0.11066027 -0.28938967 -0.38571233 0.05104113 -0.0936711 -0.13041814 -0.15318847 0.20425124
-0.10753027 -0.14850475 -0.15533827 0.28468636 -0.236819 -0.34074125 -0.066277474 0.6545516
0.33537424
00000000: 618b bf3e 8f59 873e 0194 09bf 9454 dbbe
00000010: c741 5c3e a415 c53c 75ff c8be 85be fabd
00000020: e3c5 de3e a278 613b 142d d1be 092b 0b3c
00000030: 2031 653e 06b2 72be 41f3 2cbe 3ea0 1c3e
00000040: daa1 e23d e22a 94be 167c c5be 8110 513d
00000050: a2d6 bfbd 558c 05be 70dd 1cbe 3d27 513e
00000060: d538 dcbd a111 18be ff10 1fbe 69c2 913e
00000070: ae80 72be a375 aebe 7cbc 87bd b290 273f
00000080: 2cb6 ab3e
